models/show_mv6/bc_full_split=5.pt (torch, 189536 bytes, 133 tensors)

prototypes f4 [50, 17]
0	0x3fc1410e	1.5097978
1	0xbf9dad94	-1.2318597
2	0xbc5df08b	-0.013546119
3	0xbf518213	-0.818391
4	0x3d825661	0.06364132
5	0xbfc1788b	-1.5114912
6	0xbe135f9a	-0.14391938
7	0x3f893948	1.0720606
8	0x3f0c10ce	0.5471314
9	0xbf7f5d1c	-0.9975145
10	0xbf69be50	-0.9130602
11	0x3ffde498	1.9835386
12	0xbf158029	-0.5839868
13	0xbf940dba	-1.1566689
14	0x3fde1003	1.7348636
15	0x3ee26525	0.44217792
16	0x3f79eccf	0.97626966
17	0x3f1f4fdd	0.62231237
18	0xbf38ce60	-0.72189903
19	0x3e7654d2	0.24055794
20	0xc008bd29	-2.1365454
21	0x3de870bf	0.113496296
22	0xbf98cafa	-1.1936944
23	0x3dbf1d7e	0.09331797
24	0x3f924f8c	1.1430526
25	0x3eb0c6cb	0.34526667
26	0xbf2b29d8	-0.66860723
27	0xbf48ec62	-0.7848569
28	0x3fddc704	1.732636
29	0xbf521ee6	-0.820784
30	0xbf5f93dc	-0.8733499
31	0x4007f66d	2.1244156
32	0x3e503ac7	0.20334922
33	0x3f2a1e5c	0.66452575
34	0x3f3a24a5	0.72712165
35	0xbf5740ee	-0.8408345
36	0xbd8ee657	-0.069775276
37	0xbfe32674	-1.774611
38	0x3d9faafc	0.077962846
39	0xbf06b892	-0.5262538
40	0x3e262007	0.16223155
41	0xbebc6498	-0.36795497
42	0x3de34d46	0.11098723
43	0xbf5cedc2	-0.8630029
44	0xbfabc9bd	-1.3420941
45	0x3fded94b	1.7410063
46	0xbf2d97b2	-0.67809594
47	0xbf1d9d65	-0.6156829
48	0x400d6b57	2.2096765
49	0x3e822a20	0.25422764
50	0x3f0d4b0f	0.55192655
51	0x3da4d54f	0.08048498
52	0xbf77c15d	-0.96779424
53	0xbe882fb7	-0.26598904
54	0xbfd02be8	-1.6263399
55	0xbd80b7b1	-0.06285036
56	0xbee413ee	-0.44546455
57	0x3eaa789a	0.33295137
58	0xbe7f69dc	-0.24942726
59	0x3e80e833	0.25177154
60	0xbf0c251d	-0.5474413
61	0x3d1f4260	0.03888166
62	0x40040ffd	2.0634758
63	0xbf867185	-1.0503393
64	0xbf647e9c	-0.8925569
65	0x4012ad9c	2.2918463
66	0x3c6d9f9f	0.014503389
67	0x3f1d3aa0	0.6141758
68	0x3ecdd4a7	0.40201303
69	0xbf16bf50	-0.5888567
70	0xbc98836e	-0.018617358
71	0xbfb29fb6	-1.395499
72	0x3dcd3152	0.10019173
73	0xbf2986e2	-0.6622144
74	0x3d90fc9d	0.07079432
75	0x3f137b81	0.57610327
76	0x3e18ab91	0.14909197
77	0xbf4ebb0b	-0.80754155
78	0xbf9d447a	-1.2286522
79	0x40092077	2.1426065
80	0xbfa19709	-1.2624217
81	0xbf76ce7b	-0.96408814
82	0x4010bc71	2.2615016
83	0x3d44322c	0.04789941
84	0x3f1357eb	0.5755603
85	0x3f667c50	0.90033436
86	0xbf47f1fc	-0.78103614
87	0xbe626010	-0.22106957
88	0xbfdf3071	-1.7436658
89	0xbcd92d62	-0.026510898
90	0xbe9f2b87	-0.31087896
91	0xbe808149	-0.25098637
92	0xbf2e46bd	-0.6807669
93	0x3ee26bdc	0.44222915
94	0xbf3891c1	-0.720974
95	0xbf5064d7	-0.8140387
96	0x4005586b	2.0835216
97	0xbf3d049b	-0.7383515
98	0xbf8a7538	-1.0817022
99	0x3ff73592	1.9313223
100	0x3dcc8c9d	0.09987757
101	0x3fc48fe4	1.5356412
102	0x3e0f2406	0.13978586
103	0xbf44f606	-0.769379
104	0xbeaf64db	-0.34256634
105	0xbfc3fa30	-1.5310726
106	0x3e2900d5	0.16504224
107	0xbebffc21	-0.37497047
108	0x3d85574f	0.065107934
109	0x3f7a245b	0.97711724
110	0x3e875d67	0.26438448
111	0xbf358852	-0.70911133
112	0xbf449d1d	-0.76802236
113	0x40030219	2.047003
114	0xbf886e29	-1.0658618
115	0xbf3e2add	-0.74284154
116	0x40137d82	2.3045354
117	0xbc28e123	-0.010307583
118	0x3f106f90	0.5642023
119	0x3e99db23	0.3005
120	0xbf3a7d77	-0.72847694
121	0xbe5b6dbe	-0.21428582
122	0xbfbfa755	-1.4972941
123	0x3e434543	0.1906939
124	0xbed0fade	-0.40816396
125	0x3e8d946e	0.27652305
126	0x3eddd138	0.43323684
127	0x3e298ad9	0.16556872
128	0xbf09dbe1	-0.53851134
129	0xbf981976	-1.188277
130	0x4005bb94	2.0895739
131	0xbfaf431c	-1.3692355
132	0xbed83665	-0.42229
133	0x400b3afc	2.1754751
134	0x3da789d1	0.08180583
135	0x3e48feaf	0.19628404
136	0x3d892594	0.066966206
137	0xbf492a2f	-0.7857999
138	0x3de5ea08	0.112262785
139	0xbfa40985	-1.2815405
140	0xbc5ed49d	-0.013600496
141	0xbe9e221f	-0.30885407
142	0x3dc0882e	0.09400974
143	0x3f8a73ff	1.0816649
144	0x3e171637	0.14754568
145	0xbf49f8aa	-0.78895056
146	0xbf8148ed	-1.010038
147	0x3ff9e0c6	1.952172
148	0xbf6b9fe7	-0.92040867
149	0xbf4b4f0f	-0.7941751
150	0x400e8e15	2.227422
151	0x3e60e0e5	0.2196079
152	0x3ee982e8	0.45607686
153	0x3f72046f	0.94538015
154	0xbf443f90	-0.7665949
155	0xbd17698d	-0.036965895
156	0xc0087992	-2.13242
157	0xbd56eb8d	-0.052470732
158	0xbf547ad8	-0.82999945
159	0x3e02f0a9	0.12787117
160	0xbf338d38	-0.7013736
161	0x3e8b7d2e	0.27243942
162	0xbf0b256d	-0.5435398
163	0xbe9d4368	-0.3071549
164	0x3ffa3bc9	1.9549495
165	0xbf3770d4	-0.7165654
166	0xbf261937	-0.64882225
167	0x40033316	2.049993
168	0x3e1011d6	0.14069304
169	0x3eddd537	0.43326733
170	0x3ecbf821	0.39837745
171	0xbf68ba2e	-0.9090909
172	0xbdb44fa0	-0.0880425
173	0xbf9f4f40	-1.244606
174	0x3e4070d9	0.18793048
175	0xbecff89e	-0.40619367
176	0xbd1fa57d	-0.03897618
177	0xbe227258	-0.15863931
178	0xbc7bd6f6	-0.015371075
179	0xbe576c7d	-0.21037479
180	0xbebba481	-0.36648944
181	0x4005d3ec	2.0910597
182	0xbfb72600	-1.4308472
183	0xbe4b36c1	-0.19845106
184	0x40123637	2.284559
185	0x3dc8b1ed	0.09799562
186	0x3e8a1131	0.2696624
187	0x3f12bb06	0.57316625
188	0xbf4cd4ec	-0.80012393
189	0x3d94ede8	0.072719395
190	0xbffa943c	-1.9576488
191	0xbd2e8cba	-0.042614676
192	0xbf5d6f63	-0.8649809
193	0x3d44e330	0.048068225
194	0x3f8dd78b	1.1081403
195	0x3ec68da1	0.3877993
196	0xbf00e3e4	-0.50347733
197	0xbf395504	-0.7239535
198	0x3ff986bb	1.9494241
199	0xbf4173d1	-0.75567347
200	0xbf54af78	-0.83080244
201	0x400bcd58	2.1844082
202	0x3e170467	0.14747773
203	0x3ee9c1b2	0.4565559
204	0x404660b9	3.0996535
205	0xbff3e901	-1.9055482
206	0xbf28949f	-0.6585178
207	0xbfe2dc1f	-1.7723426
208	0x3f95e5bb	1.1710733
209	0xbf4573db	-0.77129906
210	0xbf0c1d5c	-0.547323
211	0xbe3e5e6e	-0.1859071
212	0xbdb0fce5	-0.08641986
213	0xbfa2c40f	-1.2716082
214	0x3f993912	1.1970541
215	0x3f9eeba6	1.2415664
216	0x3e3ad83e	0.18246552
217	0xbf6281d0	-0.8847933
218	0xbf54730e	-0.8298806
219	0x3f97d780	1.186264
220	0x3fdad8cb	1.709741
221	0x3fa40176	1.2812946
222	0x3d533416	0.051563345
223	0xbedb1311	-0.42787984
224	0xbf9c046f	-1.2188853
225	0x3fd8d803	1.6940922
226	0x3f73591a	0.95057833
227	0x3eb33c7a	0.35007077
228	0xbe47b39a	-0.19502106
229	0xbfd4780a	-1.6599133
230	0xbf0280f6	-0.5097803
231	0x3edea4af	0.4348502
232	0x3f5af707	0.85533184
233	0xbf9f8324	-1.2461896
234	0x3e56d646	0.20980176
235	0x3d372a33	0.04471798
236	0xbf1027a1	-0.5631047
237	0x3c4d2069	0.012519934
238	0x40635243	3.5518959
239	0xc00a4725	-2.1605923
240	0xbf0606b2	-0.52353966
241	0xbfade4a1	-1.3585397
242	0x3f4d07ba	0.80089915
243	0xbf97ea91	-1.1868459
244	0xbf0cf969	-0.5506807
245	0x3fc79e4a	1.5595181
246	0xbe24f5d9	-0.16109408
247	0xc023d685	-2.5599682
248	0x3f061e51	0.5239001
249	0x3f46c78d	0.7764824
250	0x3cdddfe9	0.027084308
251	0xbeae1013	-0.3399664
252	0x3d0d5863	0.03450812
253	0x3f9c3133	1.2202514
254	0x3f8685ef	1.0509623
255	0x408b2446	4.348178

encoder_main.transformer_encoder.layers.0.self_attn.in_proj_weight f4 [51, 17]
0	0x3e39c70d	0.18142338
1	0xbeda9c9d	-0.4269761
2	0x3d27b34c	0.040942475
3	0x3e1cd001	0.15313722
4	0xbecf8414	-0.40530455
5	0x3ea33204	0.31874096
6	0x3e9564b2	0.29178387
7	0xbd6b66ff	-0.05747127
8	0x3eeb3fde	0.45947164
9	0xbe607d2d	-0.21922751
10	0xbd76f96e	-0.06029647
11	0x3ebbb14a	0.36658698
12	0xbf380064	-0.71875596
13	0xbf8456db	-1.0339006
14	0x3e841380	0.25796127
15	0xbd80ab63	-0.062826894
16	0x3cf1758a	0.029474992
17	0xbd734b20	-0.059397817
18	0x3ea6b6aa	0.32561237
19	0xbdf7717f	-0.120821945
20	0x3dff193f	0.12455987
21	0x3d8220ab	0.06353887
22	0xbe89dd24	-0.2692653
23	0x3e287196	0.1644958
24	0x3e185766	0.1487709
25	0xbadcf3e9	-0.0016857359
26	0xbbe2f9c8	-0.006926749
27	0xbed5f7f8	-0.41790748
28	0x3e9d1596	0.3068053
29	0x3df9f3cc	0.12204704
30	0x3e94b4df	0.29044244
31	0x3e9ed3ec	0.3102106
32	0xbde64974	-0.11244479
33	0xbeaf032b	-0.34182104
34	0xbeb24036	-0.34814614
35	0x3c6a0b0e	0.014284862
36	0xbe955bfa	-0.29171735
37	0xbe7890e4	-0.24274021
38	0xbee95912	-0.45575768
39	0x3d9e288d	0.07722578
40	0x3e06be3d	0.13158508
41	0x3ec13fb3	0.3774391
42	0xbe7b75b8	-0.24556625
43	0x3e9719a4	0.2951175
44	0x3eeae99f	0.45881364
45	0xbe923448	-0.28555512
46	0xbede4fab	-0.43420157
47	0xbf7bf3aa	-0.98418677
48	0xbebb3b5b	-0.36568722
49	0x3cf7d4df	0.030252872
50	0xbe2a85f1	-0.16652657
51	0xbe492ad0	-0.19645238
52	0xbebffb10	-0.37496233
53	0x3e44c23c	0.1921472
54	0xbf148636	-0.5801729
55	0x3e08ef56	0.1337255
56	0x3e2b8291	0.16749026
57	0xbdd2a6fb	-0.10285755
58	0xbef7879c	-0.4834565
59	0x3e59919d	0.21246953
60	0x3e2f44b2	0.17116049
61	0x3eadce08	0.33946252
62	0xbf0d5fda	-0.5522438
63	0x3f318725	0.6934684
64	0x3f4b6c42	0.79462063
65	0x3e4868da	0.19571248
66	0xbe177a92	-0.1479285
67	0x3ea9c149	0.33155277
68	0xbeb37403	-0.35049447
69	0x3eb5b618	0.3549049
70	0x3e442029	0.19152893
71	0xbd10a5b1	-0.035314266
72	0x3d460ab6	0.04835006
73	0xbf0801f8	-0.53128004
74	0xbe16d3f4	-0.14729291
75	0xbdfef0a9	-0.12448246
76	0xbe774793	-0.24148397
77	0x3e146326	0.14490947
78	0x3dd9c153	0.10632577
79	0x3cc61260	0.024178684
80	0x3e8a5c32	0.27023464
81	0x3f18b349	0.5964857
82	0xbd8d49aa	-0.06898816
83	0xbe72b158	-0.23700464
84	0xbb27916c	-0.0025568856
85	0xbea4f694	-0.32219374
86	0xbd6f7fc9	-0.058471475
87	0x3e95d574	0.29264414
88	0xbf047786	-0.5174488
89	0x3e015144	0.12628657
90	0xbed42940	-0.4143772
91	0xbdf04f9d	-0.11733935
92	0xbe1c2d05	-0.15251549
93	0xbe80bfa0	-0.25146198
94	0xbe32227d	-0.17395969
95	0x3e98ded6	0.2985751
96	0xbe973877	-0.29535267
97	0xbd8d7b79	-0.06908316
98	0x3ed75509	0.42057064
99	0x3d546b18	0.051859945
100	0xbd68d4e1	-0.056843642
101	0xbf2392fb	-0.6389615
102	0x3c844549	0.016146319
103	0xbeccbca2	-0.39987665
104	0x3e80a8d8	0.25128818
105	0x3e0250d3	0.12726144
106	0x3e5d992e	0.21640465
107	0x3f12ea01	0.5738831
108	0xbca2e706	-0.019885551
109	0xbe8ed969	-0.27900246
110	0x3d8ee0b9	0.06976456
111	0xbe86dff9	-0.26342753
112	0xbea1b4fc	-0.31583393
113	0xbd2ba905	-0.041909236
114	0x3e2f98d0	0.17148137
115	0x3e6647d3	0.22488336
116	0x3eac159f	0.33610246
117	0xbe2663c2	-0.16248992
118	0xbe2445b1	-0.1604221
119	0x3e8c6b84	0.27425778
120	0x3de0578d	0.10954199
121	0x3d57c8ce	0.052681737
122	0x3ed6fdc7	0.41990492
123	0x3dd928b6	0.10603468
124	0xbe9f2596	-0.31083363
125	0xbe94440d	-0.2895817
126	0xbe7517e2	-0.23934892
127	0x3e38e3ba	0.18055621
128	0xbdab208e	-0.08355819
129	0xbf5632b3	-0.8367111
130	0x3e00e855	0.12588628
131	0xbe9ad638	-0.3024156
132	0x3e704e86	0.23467454
133	0x3dfbb364	0.122900754
134	0xba227d8d	-0.0006198518
135	0x3ea0be68	0.31395268
136	0x3e858b5d	0.26082888
137	0xbdc822e1	-0.097722776
138	0x3db9c019	0.09069843
139	0x3e1eddfe	0.15514371
140	0x3f0adf61	0.542471
141	0xbf02234c	-0.5083511
142	0xbe371da9	-0.17882408
143	0xbe388375	-0.18018897
144	0x3ce084aa	0.02740701
145	0xbb04a0d3	-0.002023746
146	0xbe2ca955	-0.1686147
147	0xbdbc0cc3	-0.091821216
148	0x3e94ff23	0.29100904
149	0x3f0a8f1e	0.5412463
150	0xbde27e6c	-0.11059269
151	0x3e8930ab	0.26794943
152	0xbc474ca6	-0.0121642705
153	0xbdf316c4	-0.118695766
154	0xbe27b9c5	-0.16379459
155	0xbda83c4d	-0.082146265
156	0xbe2c7656	-0.16842017
157	0x3e82a283	0.25514612
158	0x3df4873a	0.11939855
159	0xbe46dbaa	-0.19419733
160	0xbe54f1e1	-0.20795394
161	0x3e2a0138	0.16602027
162	0xbd154625	-0.03644385
163	0x3d9e7275	0.07736675
164	0xbee36275	-0.44411054
165	0xbedc8a2f	-0.43074176
166	0x3eb8d484	0.36099637
167	0x3e6dbebd	0.23217292
168	0xbe680e2b	-0.22661655
169	0x3eb80a14	0.3594519
170	0xbdc7759c	-0.09739229
171	0x3ec10a33	0.37703094
172	0xbe046b03	-0.12931447
173	0x3de5d4b8	0.112222135
174	0xbcecd31a	-0.028909255
175	0x3d9c2531	0.07624281
176	0xbedae2fd	-0.42751303
177	0xbeea900a	-0.45813018
178	0xbde68c0e	-0.11257182
179	0x3ecf1897	0.40448448
180	0xbed5ae31	-0.4173446
181	0xbe9cee16	-0.30650395
182	0x3f3ea9c9	0.7447782
183	0x3f89a516	1.0753505
184	0x3ea87d42	0.32908064
185	0xbe5b67ca	-0.21426311
186	0x3a854fec	0.0010170913
187	0xbe3b1f20	-0.18273592
188	0x3e437870	0.19088912
189	0xbe0a1191	-0.13483264
190	0xbf0bee85	-0.54660827
191	0x3f04d2ae	0.5188397
192	0xbea8bce5	-0.32956615
193	0x3eac5e1d	0.33665553
194	0x3ebae58e	0.3650326
195	0xbe8d454a	-0.27591926
196	0xbda7ff1a	-0.08202954
197	0x3e8b3721	0.27190498
198	0xbef1cabc	-0.47224987
199	0xbe5195e1	-0.2046733
200	0xbda23a5d	-0.07921288
201	0xbdf46aa6	-0.11934404
202	0x3d9a1538	0.075235784
203	0xbe333989	-0.17502417
204	0x3df56156	0.11981456
205	0xbd526109	-0.05136207
206	0xbd1c3a18	-0.03814134
207	0x3cce0aaf	0.025151579
208	0x3d3c9c78	0.046047658
209	0x3ec9d97e	0.39423746
210	0xbe9f59de	-0.3112325
211	0xbe2f8c6c	-0.1714341
212	0xbc969848	-0.01838316
213	0xbe01ae2a	-0.12664095
214	0xbd848f0a	-0.06472595
215	0xbeaa949a	-0.333165
216	0x3e10445f	0.14088582
217	0x3f356ba5	0.7086738
218	0x3e30851f	0.17238282
219	0x3ddf0b5a	0.10890837
220	0x3eab5ff1	0.33471635
221	0xbea47d3f	-0.32126805
222	0x3f1b97dc	0.60778594
223	0x3e32bfc5	0.17455967
224	0x3d84b158	0.06479138
225	0x3ea62e02	0.32456976
226	0xbd1340b4	-0.035950378
227	0x3e2cf539	0.1689042
228	0x3e05d078	0.13067806
229	0xbe2fc90c	-0.17166537
230	0x3f0c85f3	0.5489189
231	0x3dc76d55	0.0973765
232	0xbdf666a5	-0.12031297
233	0x3ede99e7	0.43476793
234	0x3e80b6ca	0.25139457
235	0xbc36e6ba	-0.011163408
236	0x3d1946d6	0.03742107
237	0xbedb0eb4	-0.42784655
238	0x3ed134b0	0.4086051
239	0x3e63c925	0.222447
240	0xbe7bb399	-0.2458023
241	0x3e23afe4	0.15985066
242	0xbd2147e0	-0.039375186
243	0xbe00948f	-0.1255667
244	0x3e041776	0.12899575
245	0xbdfde8b6	-0.12397902
246	0x3e68efd4	0.22747737
247	0xbd9535bc	-0.0728564
248	0xbe45b72c	-0.19308156
249	0x3e812f95	0.25231615
250	0xbf129692	-0.57261
251	0xbde484c9	-0.11158139
252	0xbe341edb	-0.17589895
253	0x3e46f04c	0.19427603
254	0xbdf3d1c3	-0.11905243
255	0xbe4af9a5	-0.19821794

encoder_main.transformer_encoder.layers.0.self_attn.in_proj_bias f4 [51]
0	0x3d91537b	0.07096001
1	0x3e054ee1	0.13018371
2	0xbd8edba1	-0.06975485
3	0xbd4c2208	-0.049837142
4	0xbd927f97	-0.07153242
5	0x3d7ac32e	0.061221294
6	0x3d0eed24	0.034894124
7	0xbd29bf20	-0.041442037
8	0x3d0f9843	0.035057317
9	0xbd259900	-0.040429115
10	0xbd05ffc7	-0.03271463
11	0x3e05f9df	0.130836
12	0xbc576e1a	-0.013148809
13	0x3dbf34ea	0.093362644
14	0xbc80565c	-0.01566618
15	0x3da209c4	0.07912019
16	0x3cebaa7e	0.02876782
17	0x3e06e46f	0.13173078
18	0x3c58d122	0.013233455
19	0x3c6a8aae	0.01431529
20	0x3d0531ba	0.032518126
21	0xbd06e746	-0.032935403
22	0x3d86c44f	0.06580412
23	0x3d2b36ac	0.041800186
24	0xbd915063	-0.07095411
25	0xbd1a8946	-0.03772857
26	0x3ccf88da	0.02533381
27	0xbd1e840f	-0.03870016
28	0x3d25e559	0.040501926
29	0xbdfff575	-0.12497989
30	0x3d54a9de	0.05191981
31	0xbcf095cf	-0.02936831
32	0x3d2c9cc9	0.04214171
33	0xbc91620f	-0.017746953
34	0x3cc81781	0.02442527
35	0x3ae33150	0.0017333422
36	0x3d569130	0.052384555
37	0x3d3ccba1	0.046092633
38	0x3db378cf	0.08763277
39	0x3b9a61ad	0.004711351
40	0x3cfe4db9	0.03104292
41	0x3c70fcee	0.014708741
42	0x3cf3be35	0.029753784
43	0x3d9445dc	0.07239887
44	0xbd043684	-0.032278553
45	0xbc3ff8ce	-0.0117170345
46	0xbcc8c36f	-0.024507252
47	0x3d537b30	0.051631153
48	0xbcc32f36	-0.023826223
49	0xbd9dd3f6	-0.07706444
50	0xbd582618	-0.052770704

encoder_main.transformer_encoder.layers.0.self_attn.out_proj.weight f4 [17, 17]
0	0x3cbbfe5d	0.022948438
1	0xbdbc346a	-0.09189685
2	0xbed41337	-0.4142091
3	0x3d2e95fa	0.042623498
4	0x3e05b9a4	0.13059098
5	0xbe46d5c2	-0.1941748
6	0x3e82c2b3	0.2553917
7	0xbc8e41e9	-0.017365413
8	0xbe97a8e7	-0.2962105
9	0xbea13ad6	-0.314902
10	0xbe300684	-0.17189986
11	0xbe2bd14b	-0.16779058
12	0x3e3a904b	0.18219106
13	0x3dc6d7d1	0.097091325
14	0xbd3079cd	-0.04308491
15	0x3d8e3545	0.06943754
16	0x3e87af6a	0.26501018
17	0xbdd5a226	-0.10431318
18	0x3e64c53f	0.22340868
19	0xbe704c52	-0.23466614
20	0xbd7607e0	-0.060066104
21	0x3d85a8a7	0.065263085
22	0x3e7b8be5	0.24565084
23	0xbd01e8a0	-0.03171599
24	0x3e3fd151	0.18732192
25	0x3eb1ce59	0.34727743
26	0xbe87dc04	-0.26535046
27	0xbe85c46a	-0.26126415
28	0xbe650bd7	-0.22367798
29	0x3bc00b50	0.0058607236
30	0x3dd57cff	0.10424232
31	0x3e186ac6	0.14884481
32	0x3e2a1c8c	0.16612452
33	0x3e12f0dc	0.14349693
34	0xbc9b96ae	-0.018992748
35	0xbe117e5f	-0.14208363
36	0x3e69314f	0.22772716
37	0xbdde888a	-0.108658865
38	0x3d9c7eaf	0.076413505
39	0xbe0af465	-0.13569792
40	0x3e46e2d3	0.19422464
41	0x3ea50146	0.32227534
42	0xbe8d8464	-0.2764007
43	0x3dae79a2	0.08519293
44	0x3e7d89d2	0.24759606
45	0x3cedb9c3	0.029019242
46	0x3de4de8e	0.111752614
47	0x3dda0591	0.10645593
48	0xbd1d9dae	-0.038480453
49	0xbe7576a9	-0.23971047
50	0xbe8e8d94	-0.2784239
51	0xbd0cee72	-0.034407087
52	0x3e6d9760	0.23202276
53	0x3e1a3604	0.15059668
54	0xbe39465d	-0.18093248
55	0x3d4d930d	0.050189067
56	0x3e66768f	0.22506164
57	0x3d969378	0.07352346
58	0x3cd3cc3f	0.025854228
59	0xbe14e06f	-0.1453874
60	0x3cb4043c	0.021974675
61	0x3dbe0758	0.092787445
62	0xbd65eac0	-0.05613208
63	0xbde9b5a4	-0.11411598
64	0xbe7d18f8	-0.24716556
65	0x3e303247	0.1720668
66	0x3e81f6a8	0.25383496
67	0x3dffa36e	0.124823436
68	0x3d8128f1	0.06306637
69	0x3e6cd7a8	0.23129141
70	0x3d0f55c2	0.034993894
71	0x3e42c7b6	0.19021496
72	0x3d9e7d33	0.077387236
73	0xbe2c826b	-0.16846626
74	0xbdf8f9aa	-0.12156995
75	0xbd7c5bb1	-0.06161088
76	0xbe1542b0	-0.1457622
77	0xbea55dcf	-0.32298133
78	0x3e64c8e1	0.22342254
79	0xbda69b79	-0.08135123
80	0xbe7cfe7c	-0.24706453
81	0xbe58374e	-0.21114847
82	0xbe2d30bb	-0.1691312
83	0x3dc59eb0	0.09649408
84	0x3daeeaa9	0.085408516
85	0xbeb1f683	-0.34758386
86	0x3ed6af98	0.41930842
87	0xbe332025	-0.17492731
88	0x3e6ae6d2	0.22939613
89	0x3d8186f2	0.06324567
90	0xbd7d26b0	-0.061804473
91	0x3de8c364	0.11365393
92	0xbe86fa18	-0.2636268
93	0xbcfde9b7	-0.030995233
94	0x3df041c1	0.117312916
95	0xbc1d6a76	-0.009607902
96	0x3df4cefb	0.11953541
97	0xbe077a80	-0.13230324
98	0xbdba3602	-0.090923324
99	0x3bfbe670	0.0076873824
100	0x3e21e6e4	0.15810734
101	0xbe956a2a	-0.2918256
102	0xbccd461f	-0.02505785
103	0xbe9f64fd	-0.31131735
104	0x3dbec92d	0.09315715
105	0xbe90f726	-0.2831356
106	0x3c926991	0.017872604
107	0x3e89f07e	0.26941293
108	0xbc2efe87	-0.010680801
109	0x3e3b4d55	0.18291219
110	0x3dae2c57	0.08504551
111	0x3e80c1aa	0.25147754
112	0xbd21c482	-0.039494045
113	0x3e8eba83	0.27876672
114	0x3d57d46c	0.052692816
115	0xbe6b25d3	-0.22963648
116	0x3e0fdaba	0.14048281
117	0xbe3c6ed0	-0.18401647
118	0xbdaca2d8	-0.084294975
119	0x3e8f9e19	0.28050306
120	0x3f0782db	0.52934045
121	0x3e80d2a5	0.2516071
122	0x3e80c2da	0.2514866
123	0xbd991d1c	-0.07476255
124	0xbe511b2a	-0.20420519
125	0x3e1650f2	0.14679316
126	0x3e3f0109	0.18652739
127	0x3e1a706f	0.15081953
128	0xbd31d18d	-0.043412734
129	0x3dfb747c	0.12278077
130	0x3ddbc235	0.107304014
131	0x3df00af2	0.11720838
132	0xbe1caf81	-0.15301324
133	0xbdc1c6ff	-0.094617836
134	0x3deb6d22	0.11495425
135	0xbe2365b9	-0.15956773
136	0x3e2e4a25	0.17020471
137	0x3cb33f09	0.021880643
138	0x3e74ab69	0.23893513
139	0xbdfa13ca	-0.12210806
140	0x3e0e9782	0.13924983
141	0xbcb4f191	-0.022087844
142	0xbd449a87	-0.04799893
143	0x3e722391	0.2364638
144	0x3e8cca31	0.2749801
145	0x3e34e2be	0.1766462
146	0xbe4a1786	-0.19735536
147	0x3dbf6ff9	0.09347529
148	0x3e483805	0.1955262
149	0x3c6140b2	0.013748335
150	0x3ce503b1	0.027955862
151	0x3e379969	0.17929615
152	0x3ea25935	0.31708685
153	0xbd9706cc	-0.07374343
154	0xbecd609e	-0.40112776
155	0xbd841f8e	-0.06451331
156	0xbd99c61b	-0.07508489
157	0xbb814070	-0.003944449
158	0xbe3f82fa	-0.18702307
159	0x3dce6391	0.100775845
160	0xbe36f276	-0.17865929
161	0xbdf1b051	-0.11801208
162	0x3de3fd4f	0.11132299
163	0x3d6c665c	0.057714805
164	0xbd97d608	-0.0741387
165	0xbe01ae87	-0.12664233
166	0x3e65f913	0.22458296
167	0xbe4245ba	-0.18971911
168	0xbd98c636	-0.07459681
169	0xbad8246c	-0.0016490347
170	0xbd67f237	-0.05662748
171	0x3e4881e7	0.19580804
172	0xbe96fb80	-0.29488754
173	0x3e33dd5c	0.1756491
174	0x3e47f8d4	0.19528514
175	0x3ed90f09	0.42394283
176	0xbd54b505	-0.051930446
177	0xbe18c0f9	-0.14917363
178	0x3db8573d	0.090010144
179	0x3de5a187	0.112124495
180	0xbe58680e	-0.21133444
181	0x3dd4ee4e	0.103970155
182	0x3e664083	0.22485547
183	0xbdc47d64	-0.09594229
184	0xbd9484bd	-0.0725188
185	0xbe50415c	-0.20337433
186	0xbc182458	-0.009286009
187	0x3c9b90d5	0.01898996
188	0xbe9f6d7c	-0.31138217
189	0xbe0c1290	-0.13678956
190	0xbe42f091	-0.19037081
191	0xbe05b653	-0.13057832
192	0xbd90f7dc	-0.070785254
193	0x3d306fd0	0.043075383
194	0x3e65b3f8	0.22431934
195	0x3e5d8800	0.21633911
196	0xbe2a842f	-0.16651987
197	0x3e4e126e	0.20124218
198	0xbe687cf8	-0.22703922
199	0xbe8d67f8	-0.27618384
200	0xbe53a9ea	-0.20670286
201	0x3e75846c	0.23976296
202	0xbc591415	-0.013249417
203	0xbe0c1ea3	-0.13683562
204	0xbca057c6	-0.019573104
205	0x3e9bd5ab	0.30436453
206	0x3e185a66	0.14878234
207	0xbe085760	-0.13314581
208	0xbdc8c7dc	-0.09803745
209	0xbe6366a8	-0.22207129
210	0xbdf5e053	-0.12005677
211	0xbdd2f9c3	-0.103015445
212	0xbce348c4	-0.027744658
213	0xbe4887a4	-0.19582993
214	0x3d6c673b	0.057715636
215	0xbe23e1df	-0.16004132
216	0xbdeb7f3e	-0.11498879
217	0xbca620bc	-0.02027928
218	0x3e559c8a	0.20860496
219	0xbce88e14	-0.02838806
220	0xbe824f0b	-0.2545093
221	0x3d980bec	0.07424149
222	0xbe188d97	-0.14897762
223	0xbc8e5983	-0.017376667
224	0xbde6cc2b	-0.11269411
225	0x3cd39d01	0.025831701
226	0x3e21084e	0.15725824
227	0x3e765766	0.24056777
228	0xbdb57e0d	-0.08861933
229	0xbd8d1fd9	-0.0689084
230	0x3db1a4c6	0.08674006
231	0x3ceda689	0.029010074
232	0xbeb73736	-0.3578431
233	0x3e06b938	0.13156593
234	0xbe1aab43	-0.15104394
235	0x3e0df2e7	0.13862191
236	0x3e75f52d	0.24019308
237	0x3e5dabf0	0.2164762
238	0xbe09dbe4	-0.13462788
239	0xbeaf073d	-0.3418521
240	0xbe1cc529	-0.15309586
241	0x3e2b7740	0.16744709
242	0x3df66ba5	0.1203225
243	0x3de1cbeb	0.110252224
244	0xbe3da5be	-0.18520257
245	0x3e0bab88	0.13639653
246	0xbe2ec42b	-0.1706702
247	0x3e9dab46	0.30794734
248	0x3ea59622	0.32341105
249	0x3e65fdf9	0.22460164
250	0x3e524bb8	0.20536697
251	0x3e43f75b	0.19137327
252	0xbdebc9ab	-0.115130745
253	0x3d4f5f1b	0.05062781
254	0x3e304bae	0.1721637
255	0x3e0798fd	0.13241954

encoder_main.transformer_encoder.layers.0.self_attn.out_proj.bias f4 [17]
0	0xbc0c4449	-0.008561202
1	0xbddb2bcf	-0.10701715
2	0x39cda418	0.00039222906
3	0xbc57871e	-0.013154773
4	0x3c2cde39	0.010551029
5	0x3d2873d4	0.041126087
6	0xbbc889a9	-0.006119926
7	0xbce4d761	-0.027934732
8	0x3d135079	0.035965417
9	0xbac06551	-0.0014678632
10	0x3b10224d	0.00219931
11	0xbcbdc0b7	-0.023163183
12	0x3d018738	0.031623095
13	0x3d3dc061	0.046326045
14	0x3d0eaee3	0.034834754
15	0x3c8134ad	0.015772188
16	0x3a8cbe93	0.0010737948

encoder_main.transformer_encoder.layers.0.linear1.weight f4 [64, 17]
0	0xbde7fc01	-0.11327363
1	0x3e4ba058	0.19885385
2	0x3e29220d	0.16516896
3	0xbd5b8c6e	-0.05360072
4	0xbe61ace9	-0.22038616
5	0x3dc39679	0.09550185
6	0x3e15b8e1	0.14621307
7	0x3e0bc107	0.13647853
8	0x3e1bc0e5	0.15210302
9	0x3d99fb57	0.075186424
10	0x3e4e884c	0.2016918
11	0xbdb3d628	-0.087810814
12	0xbd0d1dee	-0.03445237
13	0xbe9ecf4f	-0.3101754
14	0xbe4f41bc	-0.2023992
15	0xbd16481b	-0.03668986
16	0x3d8751b3	0.0660738
17	0xbd6e8b4a	-0.058238305
18	0xbe120041	-0.1425791
19	0x3e84233d	0.25808135
20	0xbb3bffbd	-0.0028686367
21	0x3dce9841	0.10087634
22	0xbea495c3	-0.3214551
23	0x3bba4461	0.005684421
24	0x3d01248c	0.031528994
25	0xbe95f4d9	-0.29288366
26	0x3e5ab3ba	0.21357623
27	0xbe14cf96	-0.14532313
28	0x3e7cb0ce	0.2467682
29	0x3e98ad6c	0.2981981
30	0xbe1ee676	-0.15517601
31	0x3cb94d81	0.022619965
32	0xbdf3864d	-0.1189085
33	0x3d8fc425	0.070198335
34	0xbe5e4084	-0.21704298
35	0xbe3223f2	-0.17396525
36	0xbcc0d5ff	-0.023539541
37	0xbe2e217d	-0.17004962
38	0x3ecbc96c	0.3980211
39	0xbc8e9f2f	-0.017409889
40	0x3e2ad536	0.16682896
41	0x3d97a66c	0.07404789
42	0xbe19a25a	-0.15003338
43	0x3e840eea	0.2579263
44	0xbc0f3023	-0.008739504
45	0x3e30b862	0.17257836
46	0x3d8cb0d7	0.06869667
47	0xbe4d5534	-0.20052034
48	0x3e6dee19	0.23235358
49	0x3d0c58f5	0.034264524
50	0x3d66694f	0.056252774
51	0xbd8ed88d	-0.069748975
52	0x3d3229aa	0.043496765
53	0x3e19ec05	0.1503144
54	0xbe2aad7f	-0.16667746
55	0xbdf5667f	-0.1198244
56	0x3c7a14a0	0.015263706
57	0x3e0ab9cc	0.13547438
58	0x3d9ac2e6	0.07556705
59	0xbded17e3	-0.11576822
60	0xbd4ed2fa	-0.05049417
61	0x3f008336	0.5020021
62	0x3e2c7df4	0.16844922
63	0xbcfbe5eb	-0.030749282
64	0xbe8084df	-0.25101373
65	0xbdf76f6c	-0.12081799
66	0xbee0f3b7	-0.4393594
67	0xbd4bcbe8	-0.049755007
68	0x3e9b4737	0.3032777
69	0x3ecff14f	0.4061379
70	0xbd9fe81a	-0.07807942
71	0xbe2cbc4c	-0.16868705
72	0x3d54a091	0.05191094
73	0xbe03198d	-0.12802716
74	0xbdbf2ed5	-0.093351044
75	0x3e3183ce	0.17335436
76	0x3df2fcfd	0.1186466
77	0xbd25f2dc	-0.040514812
78	0x3c8c27e0	0.017108858
79	0xbe46d6c1	-0.1941786
80	0xbe14067b	-0.14455597
81	0x3c299329	0.010350027
82	0xbd8cd6e5	-0.068769254
83	0x3e4e5f80	0.20153618
84	0x3db77b7e	0.08959101
85	0xbe6ab0d9	-0.22919025
86	0x3ca956a6	0.0206712
87	0xbe990858	-0.29889178
88	0xbe936c14	-0.28793395
89	0x3a93b6bd	0.001126967
90	0xbe4bb378	-0.1989268
91	0x3d8a7f0c	0.067625135
92	0xbdc3f0b7	-0.09567397
93	0xbd95ef90	-0.073210835
94	0x3dbf4b83	0.093405746
95	0xbe0d7090	-0.1381247
96	0xbe38f8ec	-0.18063706
97	0xbe45227c	-0.19251436
98	0xbd2fe21f	-0.042940255
99	0xbe385dda	-0.18004552
100	0x3d590498	0.052982897
101	0x3e956456	0.29178113
102	0x3eb0ab4c	0.3450569
103	0xbe7a788d	-0.24460049
104	0x3d829529	0.06376106
105	0x3d7b4a2c	0.061350033
106	0x3b1cd160	0.0023928508
107	0xbdbe241f	-0.09284233
108	0xbe298382	-0.16554072
109	0xbe690cc5	-0.22758777
110	0xbe7e0939	-0.24808206
111	0x3e3b4746	0.18288907
112	0xbd1a2439	-0.0376322
113	0xbe1d929f	-0.15387963
114	0xbe12e4fd	-0.14345165
115	0xbde3832e	-0.11109005
116	0x3d3bdc9d	0.04586469
117	0x3d3964ea	0.045262255
118	0x3e219513	0.15779524
119	0x3e2f127b	0.17096893
120	0xb76f31fe	-1.425715e-05
121	0xbd6a4914	-0.0571986
122	0xbe068e14	-0.13140136
123	0x3f0f816c	0.5605686
124	0x3e8ab224	0.27089036
125	0xbd7f8d06	-0.06239035
126	0x3d4429ce	0.04789143
127	0xbd17de1b	-0.03707705
128	0x3d80e0b3	0.06292858
129	0x3caa626a	0.02079888
130	0xbe0c02ab	-0.13672893
131	0x3e2b5a7a	0.16733733
132	0xbea56784	-0.3230554
133	0x3e2b24d5	0.16713269
134	0x3d71b99b	0.059014898
135	0xbddc14ab	-0.107461296
136	0x3d884c4d	0.06655178
137	0xbec0fe99	-0.37694243
138	0xbe5d0934	-0.21585542
139	0x3db79fb3	0.08966007
140	0x3d8ee711	0.06977666
141	0xbc86c51e	-0.016451415
142	0xbdb66d79	-0.08907599
143	0xbce0c968	-0.027439788
144	0xbd6d83ef	-0.05798715
145	0x3eab1541	0.33414653
146	0x3bebfd23	0.007201807
147	0x3e1387f2	0.14407328
148	0xbaa05926	-0.00122336
149	0x3e6cc189	0.23120703
150	0x3e10a24e	0.14124414
151	0x3e039c3e	0.1285257
152	0xbc73c4f8	-0.014878504
153	0x3e666b07	0.22501765
154	0xbc270401	-0.010193826
155	0x3db1ff40	0.08691263
156	0xbdbb99fc	-0.091602296
157	0x3e31f63f	0.17379092
158	0xbc4bf393	-0.012448209
159	0xbe592cf8	-0.2120856
160	0xbb8cb5f6	-0.0042941524
161	0xbdbf7f99	-0.09350509
162	0x3e1754db	0.14778464
163	0x3e09f9d6	0.13474211
164	0x3dbae083	0.091248535
165	0x3cfd3561	0.030909242
166	0x3d0a6b04	0.033793464
167	0xbe328719	-0.17434348
168	0x3e2106f4	0.15725309
169	0x3e6b1e31	0.22960736
170	0x3d5bd80b	0.05367283
171	0x3d5afdbd	0.05346464
172	0x3ae8efaf	0.0017771627
173	0x3d74720e	0.059679084
174	0x3e0ffe77	0.14061914
175	0xbe4ac5aa	-0.19801965
176	0xbd0510be	-0.03248667
177	0xbde6c9e1	-0.11268974
178	0xbd53f2ed	-0.051745344
179	0x3e2fe7da	0.17178288
180	0x3ed61256	0.41810864
181	0xbdc15270	-0.09439552
182	0xbefadce1	-0.48996642
183	0xbdc11549	-0.09427888
184	0x3e3f5bcf	0.18687366
185	0x3ea17a5f	0.31538674
186	0xbd87d10f	-0.06631672
187	0x3ed3c830	0.41363668
188	0x3e2c9c6a	0.16856542
189	0x3e779458	0.24177682
190	0xbe6ff69f	-0.23433922
191	0xbd5dd571	-0.05415863
192	0xbd88112a	-0.06643899
193	0xbd733e48	-0.059385568
194	0xbce556d9	-0.027995514
195	0xbe28293f	-0.16421984
196	0x3eeace0e	0.45860332
197	0x3c708348	0.014679737
198	0x3c7512e9	0.014958122
199	0xbd1a4d43	-0.03767134
200	0xbac8d98a	-0.0015323621
201	0xbdf653ce	-0.12027703
202	0x3b9c54e0	0.00477086
203	0xbcffb4ab	-0.031214079
204	0xbd9318f2	-0.07182492
205	0xbe8a102d	-0.26965466
206	0x3f084fa7	0.5324654
207	0x3d02f461	0.03197134
208	0x3e08b9fa	0.13352194
209	0xbd6d6af3	-0.057963323
210	0x3e6615e5	0.2246929
211	0x3dd318f0	0.10307491
212	0xbf220e2b	-0.6330287
213	0x3ea356eb	0.3190225
214	0xbe04bc6a	-0.129625
215	0x3e2db727	0.16964398
216	0x3b9bfbb1	0.0047602286
217	0xbd27fbda	-0.04101167
218	0x3db6d0bb	0.08926531
219	0xbe0056ad	-0.12533064
220	0xbd7673aa	-0.0601689
221	0xbda4a7d2	-0.08039822
222	0x3e244902	0.16043475
223	0x3dd4fcb1	0.103997596
224	0x3d7c6295	0.061617453
225	0x3e6f49f9	0.23368062
226	0xbe20d833	-0.15707473
227	0x3e0acf81	0.13555719
228	0x3dd8b2c4	0.10580972
229	0xbe0d1048	-0.13775742
230	0xbda50d82	-0.08059217
231	0xbe5ef855	-0.21774419
232	0x3e8977fd	0.26849356
233	0xbd8600b3	-0.06543102
234	0xbe3e3bab	-0.18577449
235	0x3e452bb7	0.19254957
236	0xbdc44060	-0.09582591
237	0xbe80d92e	-0.25165695
238	0xbcbe094d	-0.023197794
239	0x3e2dce1d	0.16973157
240	0xbdd6ff77	-0.10497945
241	0x3e086257	0.13318764
242	0x3e9593f0	0.2921443
243	0xbd920cfe	-0.07131384
244	0x3da77fa0	0.081786394
245	0xbe863aa7	-0.26216623
246	0xbe82ef00	-0.25572968
247	0xbda87963	-0.08226278
248	0x3dfd1ed7	0.12359398
249	0x3de5c203	0.112186454
250	0xbdb5f01f	-0.0888369
251	0x3d6c03e8	0.057620913
252	0x3df99379	0.12186331
253	0xbcf9d274	-0.03049586
254	0x3cfe1eb2	0.031020496
255	0xbdc2dacd	-0.09514389

encoder_main.transformer_encoder.layers.0.linear1.bias f4 [64]
0	0xbe90878c	-0.28228414
1	0xbe2dcb47	-0.16972075
2	0x3db16199	0.086611934
3	0xbdabfb5e	-0.08397554
4	0xbe8a41a1	-0.27003196
5	0xbeb3e67d	-0.35136786
6	0xbe15e6dd	-0.14638849
7	0xbd984f98	-0.07437056
8	0xbeb8ad0f	-0.36069533
9	0xbe09eead	-0.13469954
10	0xbe1e375a	-0.15450802
11	0xbdbf3a3f	-0.093372814
12	0xbe50c313	-0.20386915
13	0xbdcd2e26	-0.10018568
14	0xbe572bb8	-0.21012771
15	0xbe85fb19	-0.26168135
16	0x3db3e9a6	0.08784799
17	0xbe61e01d	-0.22058149
18	0xbd891d3a	-0.06695028
19	0xbe8bdd5c	-0.2731732
20	0xbf008fb9	-0.50219303
21	0xbe951b21	-0.2912226
22	0xbe8d3c8a	-0.2758525
23	0xbe90c038	-0.2827165
24	0xbdfbcf89	-0.122954436
25	0xbeca43c9	-0.3950484
26	0xbdb596c1	-0.08866645
27	0xbea20ef6	-0.3165204
28	0xbe4abdad	-0.19798918
29	0xbe5a1496	-0.21296915
30	0xbe54bd6c	-0.20775384
31	0xbe042c4d	-0.12907524
32	0xbea54d54	-0.3228556
33	0xbd5037d2	-0.050834484
34	0xbee37348	-0.4442389
35	0xbdf64c07	-0.1202622
36	0xbe900938	-0.28132033
37	0x3cb95d97	0.022627635
38	0xbdc37a13	-0.09544768
39	0xbe6462db	-0.22303335
40	0xbea68a42	-0.32527357
41	0xbd324c85	-0.043530006
42	0xbe829caa	-0.2551015
43	0xbd8a7aea	-0.06761725
44	0xbe7fec32	-0.24992445
45	0xbe7f5912	-0.24936321
46	0xbd70b4be	-0.05876612
47	0xbedc2bca	-0.43002158
48	0x3cd779da	0.02630322
49	0xbe38c12e	-0.18042442
50	0xbec17144	-0.37781727
51	0xbe0297e9	-0.12753262
52	0x3cf1ccb4	0.029516555
53	0xbdc04de9	-0.0938986
54	0xbe664c21	-0.22489978
55	0xbe34183b	-0.17587368
56	0xbebe668c	-0.37187612
57	0xbe800174	-0.2500111
58	0xbeb3207d	-0.34985724
59	0xbeb336c3	-0.35002717
60	0xbd27a2d6	-0.040926777
61	0xbc865f38	-0.016402826
62	0xbda817f0	-0.08207691
63	0xbe83eef4	-0.25768244

encoder_main.transformer_encoder.layers.0.linear2.weight f4 [17, 64]
0	0x3cb3f808	0.021968856
1	0x3d2c743e	0.042103045
2	0xbcfe8ba3	-0.031072443
3	0xbe78fbcb	-0.24314801
4	0xbe11243c	-0.14173979
5	0x3d4c53d2	0.049884625
6	0x3c1327b6	0.008981636
7	0x3beadb83	0.007167281
8	0xbe449bdb	-0.19200079
9	0x3d61e2d3	0.055147957
10	0x3d5ed02f	0.054397758
11	0x3eac6af4	0.3367535
12	0x3a927997	0.0011175153
13	0x3d0b1872	0.03395886
14	0xbcb66c35	-0.022268394
15	0x3e769e6c	0.2408387
16	0x3decb2e0	0.11557555
17	0xbc2dd966	-0.010610914
18	0x3d244b92	0.040111132
19	0xbdb361a2	-0.08758856
20	0xbb99463a	-0.004677561
21	0xbd5244e3	-0.051335227
22	0xbea2a3c1	-0.3176556
23	0xbe57c409	-0.21070875
24	0x3dcb64c4	0.09931329
25	0x3da48dd6	0.080348656
26	0xbe204409	-0.15650953
27	0x3dd51179	0.10403723
28	0x3ed85d0e	0.42258495
29	0x3e04a0c3	0.1295195
30	0x3e9b509f	0.30334947
31	0xbe65b3ec	-0.22431916
32	0x3eda714c	0.42664564
33	0xbd2abf78	-0.041686505
34	0x3e610ae2	0.21976808
35	0x3c6c9606	0.014440065
36	0x3ead3183	0.33826837
37	0x3da3cb1b	0.07997724
38	0x3c5afeeb	0.013366441
39	0x3df4fae7	0.11961918
40	0x3d3128e4	0.043251887
41	0xbe63db20	-0.22251558
42	0xbcdde668	-0.027087405
43	0xbdbb11e6	-0.09134273
44	0x3d44e2c7	0.048067834
45	0xbd976f75	-0.073943056
46	0xbe95dc9c	-0.29269874
47	0xbda180a5	-0.07885865
48	0x3e3e6a1e	0.18595168
49	0x3e946a60	0.28987408
50	0x3d8f873a	0.07008214
51	0x3deed5a4	0.116618425
52	0x3b48cb30	0.0030638687
53	0x3e5d1f0c	0.21593875
54	0xbe2402e5	-0.16016729
55	0x3e295cbd	0.16539283
56	0xbe436ebc	-0.1908521
57	0xbd1d0809	-0.03833774
58	0xbd7650ee	-0.060135774
59	0x3e6d900f	0.23199485
60	0xbd5c7888	-0.053825885
61	0xbe24989b	-0.1607384
62	0x3dfc477a	0.123183206
63	0xbd10fa72	-0.035395093
64	0x3e32ea17	0.1747211
65	0xbcf7c1b3	-0.03024373
66	0x3de248cb	0.110490404
67	0x3d9f3fbc	0.07775828
68	0x3d42652d	0.04745977
69	0xbdeba8a2	-0.115067735
70	0x3d1db601	0.03850365
71	0x3d684419	0.056705568
72	0x3dddef9f	0.1083672
73	0xbd21915d	-0.03944527
74	0xbd4d5fd1	-0.050140206
75	0x3d7984a9	0.06091753
76	0xbe87a3d8	-0.2649219
77	0x3c8ea0a2	0.01741058
78	0x3d2c1fe7	0.042022612
79	0xbb0b26f3	-0.0021232932
80	0x3de8ead7	0.11372917
81	0xbdb29970	-0.08720672
82	0xbc8cd53d	-0.017191524
83	0xbb42aaff	-0.0029703972
84	0xbea55789	-0.32293347
85	0x3dafb15a	0.08578749
86	0xbe1f031f	-0.15528534
87	0x3dd464f8	0.10370821
88	0xbc804342	-0.015657071
89	0x3dc1a6a1	0.0945561
90	0xbe01a767	-0.12661515
91	0xbda0d8fe	-0.07853888
92	0xbdc59e51	-0.09649337
93	0xbcf4b92c	-0.029873453
94	0x3dd9dc50	0.106377244
95	0xbd1acac6	-0.037791036
96	0x3e200dbc	0.15630239
97	0x3dd55766	0.104170606
98	0x3de9b065	0.11410598
99	0x3d666dcd	0.056257058
100	0xbdf282c3	-0.11841347
101	0xbd13685c	-0.035988197
102	0x3c4d8c50	0.01254566
103	0xbd1c7d13	-0.038205218
104	0x3d6f5482	0.058430202
105	0x3d800b92	0.06252207
106	0xbe04e0e4	-0.12976414
107	0xbc9565f4	-0.018237092
108	0x3dda6804	0.10664371
109	0x3d90e335	0.07074586
110	0x3c48b1d9	0.012249433
111	0x3d155d68	0.036466032
112	0x3d9b9bb6	0.07598059
113	0x3da15178	0.07876867
114	0xbe282a80	-0.16422462
115	0xbdbc5622	-0.09196116
116	0xbd9ae7ed	-0.075637676
117	0x3d4533f1	0.04814524
118	0xbdbe2c65	-0.09285811
119	0x3e6e2ea6	0.23259982
120	0x3e25fdbc	0.16210073
121	0xbda79f75	-0.08184711
122	0xbd8d028e	-0.06885253
123	0x3d89d20a	0.06729515
124	0x3d3470f2	0.044053026
125	0x3d6534be	0.055958502
126	0x3d96b692	0.07359041
127	0x3e01ff00	0.12694931
128	0xbdd2fc65	-0.10302047
129	0x3d864162	0.065554395
130	0xbcdcf051	-0.02697006
131	0xbcc349f6	-0.023838978
132	0x3d4a2793	0.049354147
133	0x3e877650	0.26457453
134	0xbe719f7e	-0.23595998
135	0x3d3ad74c	0.04561548
136	0xbe2f37fa	-0.17111197
137	0xbdc0a705	-0.094068564
138	0x3e7605cc	0.24025649
139	0xbd8dcee1	-0.06924225
140	0xbd80f186	-0.06296067
141	0x3ce0e88e	0.02745464
142	0x3e14226d	0.14466257
143	0x3e34a8e2	0.17642549
144	0xbcc25b0e	-0.023725059
145	0x3d7da845	0.061928052
146	0x3ddd9f61	0.10821415
147	0x3c7193a2	0.014744671
148	0xbd6de738	-0.058081836
149	0x3db941c5	0.09045748
150	0xbe2a66b5	-0.16640742
151	0x3d5e5bdc	0.054286823
152	0x3e8dcd6e	0.27695793
153	0x3c15dd50	0.009147003
154	0x3b14af8d	0.0022687644
155	0xbd816756	-0.06318538
156	0xbcc36352	-0.02385107
157	0x3db6247f	0.0889368
158	0x3e742e06	0.23845682
159	0xbd133cb5	-0.035946567
160	0x3d453e4a	0.048155107
161	0x3c9acd05	0.018896589
162	0xbd78d753	-0.060752224
163	0x3d5dc698	0.054144472
164	0x3d656140	0.056000948
165	0xbe5e4e2a	-0.21709505
166	0xbd96abd1	-0.0735699
167	0x3ddd5fe9	0.10809309
168	0x3e4ed009	0.20196547
169	0xbc0ced29	-0.008601465
170	0x3e493610	0.1964953
171	0x3cb2d9ec	0.021832429
172	0x3da8e42c	0.08246645
173	0xbda26efb	-0.07931324
174	0x3d797667	0.060903933
175	0xbd0322ef	-0.032015737
176	0x3d8c52b6	0.06851713
177	0x3d0eb4a0	0.034840226
178	0x3e5117b8	0.20419204
179	0xbe461fef	-0.19348119
180	0xbd2d3fa3	-0.042297017
181	0x3df7aa63	0.120930456
182	0x3c76c9ab	0.01506273
183	0x3e8db1c4	0.27674687
184	0x3de95195	0.11392514
185	0x3d3186ab	0.04334132
186	0x3e1bc93d	0.15213485
187	0xbc08f7dd	-0.008359876
188	0x3e242a96	0.1603187
189	0xbc96e32f	-0.018418876
190	0x3cd62acf	0.02614346
191	0xbe6148a8	-0.22000372
192	0x3d2b4739	0.04181597
193	0xbc82888e	-0.015934255
194	0xbd0db214	-0.034593657
195	0xbc68b5fc	-0.014203545
196	0x3c90fb4a	0.017697949
197	0xbd541b2e	-0.051783733
198	0xba20a3e8	-0.00061279396
199	0xbe0f981f	-0.14022873
200	0x3dd74133	0.10510483
201	0x3d68715d	0.056748737
202	0xbda76363	-0.081732534
203	0xbd1cb0ca	-0.038254537
204	0xbe363b50	-0.17796063
205	0xbe23035a	-0.15919247
206	0x3c050b58	0.00812038
207	0xbe73a51f	-0.23793457
208	0xbcdda73f	-0.027057288
209	0x3b075c64	0.0020654434
210	0xbdae03e2	-0.08496834
211	0x3d204e59	0.03913722
212	0xbde1777b	-0.11009117
213	0xbe20a439	-0.15687646
214	0x3d9a103d	0.075226285
215	0xbdcb512e	-0.09927593
216	0x3d9b019e	0.07568668
217	0xbdfc6ae9	-0.12325079
218	0xbe152feb	-0.1456906
219	0x3e355d8e	0.1771147
220	0x3da30ae8	0.079610646
221	0x3dd858c1	0.105638035
222	0xbe039347	-0.1284915
223	0xbd14d14c	-0.036332414
224	0x3da5b67c	0.08091447
225	0xbccf7179	-0.025322663
226	0xbe1b5fb6	-0.1517323
227	0xb9a22245	-0.0003092458
228	0xbcc836c8	-0.024440184
229	0xbd230952	-0.03980381
230	0xbd4fe507	-0.050755527
231	0xbe068b8d	-0.13139172
232	0x3d045a97	0.032312956
233	0x3e3b9adc	0.18320793
234	0x3d01b50a	0.031666793
235	0xbc800d53	-0.015631353
236	0xbd9ae0b5	-0.07562391
237	0x3ccbc94c	0.02487626
238	0x3cf344b4	0.029695846
239	0x3bf9acc4	0.007619472
240	0x3d0784e5	0.033085722
241	0x3c3453eb	0.011006336
242	0xbe1428fd	-0.14468761
243	0xbe1e58c3	-0.15463547
244	0xbaa3ab09	-0.0012486886
245	0xbdd3e5ac	-0.10346541
246	0xbd8c5d3a	-0.06853719
247	0xbd51c698	-0.051214784
248	0xbde256b1	-0.11051691
249	0x3d34c4d6	0.04413303
250	0x3df9f19d	0.12204287
251	0x3d93bd1a	0.07213803
252	0xbe0143c4	-0.12623507
253	0x3e08804b	0.1333019
254	0xbe245367	-0.1604744
255	0x3b045917	0.0020194703

encoder_main.transformer_encoder.layers.0.linear2.bias f4 [17]
0	0xbd9afe06	-0.075679824
1	0x3d122262	0.03567732
2	0xbc96d380	-0.018411398
3	0x3db5189e	0.08842586
4	0x3dbb7105	0.09152416
5	0xbda33701	-0.079694755
6	0xbe078abf	-0.13236521
7	0xbc93d1c2	-0.018044356
8	0xbdbd1ab5	-0.092336096
9	0x3dd1643d	0.10224197
10	0x3ce4ef1e	0.027946051
11	0x3cf7ac19	0.03023343
12	0x3dae7ef1	0.08520306
13	0xbd60548a	-0.054768123
14	0x3dafbaf9	0.08580584
15	0xbd6b7044	-0.05748011
16	0xbdc3eded	-0.09566865

encoder_main.transformer_encoder.layers.0.norm1.weight f4 [17]
0	0x3f646014	0.89209104
1	0x3f5d838e	0.8652886
2	0x3f68be60	0.9091549
3	0x3f3b223d	0.7309912
4	0x3f6fe70b	0.9371192
5	0x3f77fb52	0.9686786
6	0x3f5d52fd	0.86454755
7	0x3f60cbb5	0.8781083
8	0x3f4b0ab2	0.79313195
9	0x3f68a435	0.9087556
10	0x3f799344	0.97490335
11	0x3f3975e3	0.72445506
12	0x3f508f48	0.8146863
13	0x3f584c47	0.8449139
14	0x3f687150	0.907979
15	0x3f6cbe29	0.9247766
16	0x3f58988d	0.84607774

encoder_main.transformer_encoder.layers.0.norm1.bias f4 [17]
0	0x3d11886c	0.035530493
1	0x3cab4b11	0.020909818
2	0x3caa32fa	0.02077626
3	0xbd3cb76f	-0.046073373
4	0xbae2e2b4	-0.0017309994
5	0xbd17fed1	-0.037108246
6	0xbe0c5ae0	-0.13706541
7	0xbd2028e2	-0.03910149
8	0xbabfa781	-0.0014622064
9	0xbe3f5306	-0.18684015
10	0x3b738478	0.0037157815
11	0xbd0d4f6e	-0.03449958
12	0x3cc0909b	0.023506453
13	0x3d7dea2d	0.061990906
14	0xbd293500	-0.04131031
15	0xbdb22af5	-0.086996
16	0xbd78b58d	-0.060720015

encoder_main.transformer_encoder.layers.0.norm2.weight f4 [17]
0	0x3f889ea6	1.0673416
1	0x3f81634b	1.0108427
2	0x3f8e8e81	1.1137239
3	0x3f564aee	0.83708084
4	0x3f8218d6	1.0163829
5	0x3f8966e4	1.0734525
6	0x3f782706	0.96934545
7	0x3f6f581b	0.93493813
8	0x3f7980ba	0.97462046
9	0x3f7309d0	0.9493685
10	0x3f9341a3	1.1504406
11	0x3f594fc5	0.84887344
12	0x3f7c881d	0.9864519
13	0x3f4c76b5	0.7986863
14	0x3f515622	0.81772053
15	0x3f756a05	0.958649
16	0x3f72ae6b	0.9479739

encoder_main.transformer_encoder.layers.0.norm2.bias f4 [17]
0	0x3ddd058a	0.10792072
1	0xbda9b114	-0.08285728
2	0x3dba5df5	0.09099952
3	0xbdf3b4a4	-0.11899689
4	0x3cfd602c	0.030929647
5	0xbc334e75	-0.010943999
6	0xbde3b0d7	-0.11117714
7	0x3ddfed92	0.10933985
8	0xbd609d77	-0.05483767
9	0x3becd050	0.007226981
10	0x3e1132dc	0.14179558
11	0xbe179dd9	-0.14806308
12	0xbde39128	-0.11111671
13	0xbe2a8a81	-0.16654398
14	0xbdb52019	-0.08844013
15	0x3c63d9c6	0.013906902
16	0x3d9e2ac2	0.07722999

encoder_main.transformer_encoder.layers.1.self_attn.in_proj_weight f4 [51, 17]
0	0xbe5f876d	-0.21829005
1	0xbd098d64	-0.033582106
2	0x3d81ad13	0.063318394
3	0xbd25f205	-0.04051401
4	0xbe8a8492	-0.27054268
5	0xbe95f7af	-0.2929053
6	0x3eb8de53	0.3610712
7	0xbe66b741	-0.22530843
8	0x3f0947ea	0.5362536
9	0x3dfb4351	0.12268699
10	0xbe9b6700	-0.3035202
11	0x3d5d582e	0.054039173
12	0xbebededa	-0.37279397
13	0xbdc5ba4e	-0.096546754
14	0x3ec1b0f1	0.37830308
15	0x3e324f51	0.1741307
16	0xbde30221	-0.110843904
17	0xbe620234	-0.22071153
18	0x3d44d35d	0.048053134
19	0x3e501d2a	0.20323625
20	0xbe7a2cda	-0.24431172
21	0xbe816ac2	-0.25276762
22	0xbf18212e	-0.5942563
23	0x3e8137ee	0.25237983
24	0x3e9ed800	0.3102417
25	0x3ebc28b3	0.367498
26	0x3bb123c3	0.0054058745
27	0x3c7bfcb1	0.015380071
28	0xbc660de0	-0.014041394
29	0xbe26b2c5	-0.16279133
30	0xbd075b47	-0.033046033
31	0x3e8b3ace	0.27193302
32	0x3d20c40d	0.03924947
33	0xbe7aad20	-0.24480104
34	0xbe025b80	-0.12730217
35	0xbe7a2cf4	-0.24431211
36	0xbdb03e1e	-0.08605598
37	0xbde54007	-0.11193853
38	0xbe174080	-0.14770699
39	0x3e854ae9	0.26033714
40	0xbe143d7e	-0.14476582
41	0x3e8e46d8	0.27788424
42	0x3e199854	0.14999515
43	0x3e50edab	0.20403163
44	0xbe340c4f	-0.1758282
45	0xbe4f1595	-0.20223077
46	0x3e5a60ab	0.21325938
47	0xbbfbdd75	-0.007686312
48	0xbc8516bd	-0.016246194
49	0x3caea5da	0.021319319
50	0x3d8786d7	0.066175155
51	0x3eb46712	0.35234886
52	0xbe9d00f5	-0.30664793
53	0x3ee4c796	0.44683522
54	0xbe86834c	-0.26272047
55	0xbdd73978	-0.10509008
56	0xbecc01fc	-0.39845264
57	0xbd850827	-0.064956956
58	0xbe3f3770	-0.18673491
59	0x3dbd14e8	0.09232503
60	0x3eba621c	0.36402977
61	0xbe8aee3a	-0.27134877
62	0xbe5bd7ca	-0.21469036
63	0x3e623722	0.22091344
64	0x3dbb02ee	0.09131418
65	0xbdb68f51	-0.08914054
66	0xbde6d00d	-0.11270151
67	0x3efa4baf	0.48885867
68	0xbd6a2068	-0.05715981
69	0xbddb0919	-0.106950946
70	0x3f181d5e	0.5941981
71	0xbe7d1291	-0.24714114
72	0xbebd0de7	-0.3692467
73	0xbe30168c	-0.17196101
74	0x3e665fc8	0.22497475
75	0xbe171f6a	-0.14758077
76	0xbecde7b9	-0.40215853
77	0xbd80afeb	-0.06283554
78	0x3e3f0b8f	0.18656753
79	0x3e0f9124	0.1402021
80	0xbca4d5d0	-0.020121485
81	0x3e324707	0.17409907
82	0xbe06dd60	-0.13170385
83	0xbe1913d3	-0.14948969
84	0x3f062afb	0.52409333
85	0xbea66569	-0.32499245
86	0xbe6165f6	-0.22011551
87	0x3e8470fc	0.2586745
88	0xbe6ed946	-0.2332507
89	0xbe2b7e45	-0.16747387
90	0xbe1ab8f2	-0.15109614
91	0x3bc53b6e	0.0060190475
92	0xbe179895	-0.14804299
93	0xbe3b010e	-0.18262121
94	0xbe06eac0	-0.13175488
95	0x3dd17f79	0.102293916
96	0x3e6971b8	0.22797287
97	0xbcc733ad	-0.024316633
98	0x3da7d22e	0.081943855
99	0x3d0ce029	0.034393463
100	0xbe4b21fa	-0.1983718
101	0xbe1193ec	-0.14216584
102	0xbe498cc1	-0.196826
103	0xbe71e8e0	-0.23623991
104	0x3db9d1ba	0.09073205
105	0x3e6431c1	0.22284605
106	0x3e5be4e2	0.2147403
107	0x3e4c683b	0.19961636
108	0x3ccd9bb3	0.025098657
109	0xbe2cf70f	-0.1689112
110	0xbe2378d0	-0.15964055
111	0xbdb41748	-0.08793503
112	0xbe2ded6a	-0.16985098
113	0x3ce69d72	0.028151248
114	0x3c5ff024	0.013668094
115	0x3aed2676	0.0018093127
116	0x3e358edc	0.17730278
117	0xbe4e2b1d	-0.20133634
118	0xbdf354a2	-0.11881377
119	0xbe2be61c	-0.16786999
120	0xbe958b58	-0.29207873
121	0x3e77ff43	0.24218468
122	0xbc011263	-0.007877919
123	0x3ea79dfe	0.32737726
124	0xbd8e43be	-0.069465145
125	0x3e10610e	0.14099523
126	0xbed5a4e5	-0.41727367
127	0xbed61139	-0.41810015
128	0xbe8e24a6	-0.27762336
129	0xbece565b	-0.4030026
130	0xbab88b3b	-0.001407958
131	0xbc4a13e1	-0.012333841
132	0xbcdadfa5	-0.02671797
133	0x3e279cbe	0.16368386
134	0x3f203abf	0.6258964
135	0x3e2ba533	0.16762237
136	0x3ea9d68f	0.33171508
137	0xbe44b990	-0.19211411
138	0x3f4a5474	0.79035115
139	0x3c30b7c7	0.010786003
140	0xbd9eeca9	-0.07759983
141	0xbe861c22	-0.2619334
142	0xbd7b271a	-0.061316587
143	0xbdb32ede	-0.087491736
144	0xbf1579a2	-0.5838872
145	0x3e14819e	0.1450257
146	0x3e1e3f06	0.15453729
147	0x3daf93da	0.08573122
148	0xbd83aa2d	-0.06428943
149	0xbd8c969d	-0.06864665
150	0xbdd5d531	-0.10441054
151	0x3e35f5dc	0.17769569
152	0x3e8dbc10	0.27682543
153	0xbeac5ef9	-0.33666208
154	0xbe85a3e6	-0.26101607
155	0xbe240360	-0.16016912
156	0xbecafcb6	-0.39645928
157	0x3e5aa329	0.21351303
158	0x3ec55853	0.3854395
159	0xbc13316f	-0.008983954
160	0xbe358f95	-0.17730553
161	0xbe0d9856	-0.13827643
162	0x3e1b176c	0.15145653
163	0x3f4077e1	0.7518292
164	0xbd48d6a8	-0.049032837
165	0xbe64e6f6	-0.2235373
166	0xbe003f0b	-0.12524049
167	0x3f0e061d	0.5547808
168	0xbe53c614	-0.2068103
169	0x3e435661	0.1907592
170	0x3ed8a440	0.42312813
171	0x3e512443	0.20423989
172	0xbe016fa0	-0.12640238
173	0x3d0dc1f4	0.034608796
174	0xbedf13cc	-0.4356979
175	0x3d72ead3	0.059305977
176	0x3b4b2002	0.003099442
177	0xbef55075	-0.47912946
178	0xbeeb8598	-0.4600036
179	0x3e99e235	0.30055395
180	0x3da9d229	0.08292038
181	0xbdc8a4d8	-0.097970665
182	0x3d9b79bf	0.075915806
183	0x3ec0bfe3	0.37646398
184	0x3e2978ef	0.16550039
185	0xbe84d7dd	-0.2594594
186	0xbdcb5b5f	-0.09929537
187	0xbedd212d	-0.43189374
188	0xbc9c1a57	-0.019055529
189	0xbe2e506c	-0.17022866
190	0xbe5808a3	-0.21097045
191	0x3f1a0f3d	0.601795
192	0x3eeac152	0.45850617
193	0x3de56854	0.1120154
194	0x3ec5ca02	0.38630682
195	0xbddd7afb	-0.10814472
196	0xbc9fb423	-0.019495076
197	0x3e027578	0.12740123
198	0xbd91211a	-0.07086392
199	0x3e852b54	0.2600962
200	0xbec9cab9	-0.39412478
201	0xbe047572	-0.12935427
202	0xbf10ecf1	-0.56611544
203	0xbc6ffc4a	-0.014647553
204	0x3ebec9ee	0.37263435
205	0x3e9990fc	0.29993427
206	0xbea3c24a	-0.31984168
207	0x3da2ae9a	0.07943459
208	0xbdab15c1	-0.083537586
209	0xbd890de6	-0.06692104
210	0xbe846f6b	-0.25866255
211	0x3df59429	0.1199115
212	0xbcf380e9	-0.029724555
213	0xbda7d354	-0.081946045
214	0x3f1eedf5	0.62081844
215	0xbe83b853	-0.25726566
216	0xbeeb816f	-0.45997187
217	0x3e10be1d	0.14135022
218	0x3e3c432c	0.18384999
219	0x3e9a8c67	0.30185243
220	0x3d2f1308	0.04274276
221	0xbe9496c7	-0.29021284
222	0xbdcae403	-0.09906771
223	0x3e6106f1	0.21975304
224	0xbe6bfea1	-0.23046352
225	0xbe935a59	-0.28779867
226	0x3cdca9b8	0.026936397
227	0x3eb59ff1	0.35473588
228	0x3e573505	0.21016319
229	0x3e1daf5b	0.15398924
230	0x3e4b75b6	0.19869122
231	0x3ee3b2a6	0.44472235
232	0x3d31a433	0.043369483
233	0xbe27ab34	-0.16373903
234	0xbea5de64	-0.32396233
235	0xbcd0d64a	-0.025492806
236	0xbe8f2f97	-0.27965996
237	0xbe25fb55	-0.16209157
238	0x3e37fd05	0.17967613
239	0x3ddfa47e	0.10920046
240	0xbe80121f	-0.25013825
241	0xbda90964	-0.08253744
242	0xbd59cbf6	-0.053173028
243	0x3ded2472	0.11579217
244	0x3e1a3a01	0.15061189
245	0xbdfe5238	-0.12418026
246	0x3e86e3c0	0.26345634
247	0xbe7b1d90	-0.24522996
248	0x3f0a9e4c	0.5414779
249	0x3d0221f7	0.031770673
250	0xbede5a05	-0.43428054
251	0x3dcbdde8	0.09954435
252	0x3d2d7a32	0.042352863
253	0x3eb06280	0.3445015
254	0x3e55ebb2	0.20890692
255	0xbe96cd33	-0.2945343

encoder_main.transformer_encoder.layers.1.self_attn.in_proj_bias f4 [51]
0	0xbcc042c7	-0.023469342
1	0xbe1a74d4	-0.15083629
2	0xbe043199	-0.12909545
3	0xbdd68ac0	-0.10475683
4	0x3dc870c6	0.09787135
5	0x3d8fc7ba	0.07020517
6	0xbe089fc9	-0.13342203
7	0x3dc731f0	0.09726322
8	0x3c8ad947	0.016949309
9	0x3d66b15f	0.056321498
10	0x3d986078	0.07440275
11	0xbd83f1c1	-0.06442595
12	0xba88f296	-0.0010448273
13	0xbd5f8396	-0.05456885
14	0xbda2dc8a	-0.07952221
15	0xbba66c34	-0.005078817
16	0xbdf7e88d	-0.121049024
17	0x3c56f72c	0.013120454
18	0x3ca6e0ff	0.020370958
19	0xbbb0e248	-0.0053980686
20	0xbcfd3600	-0.030909538
21	0xbbcc9c15	-0.0062441924
22	0x3b50548d	0.0031788677
23	0x3c6b7f98	0.014373682
24	0x3cbda51d	0.023150021
25	0x3b7bb3f2	0.0038406816
26	0xbc711e9a	-0.014716769
27	0x3d1f8c8e	0.038952403
28	0x3cd1ae95	0.025595943
29	0x3cca25e4	0.02467627
30	0x3b9f3604	0.004858734
31	0x394a61c2	0.00019300639
32	0x3a95ce95	0.0011429364
33	0x3bb68e2f	0.005571149
34	0x3d632917	0.05545911
35	0x3c83d012	0.016090427
36	0xbd84c050	-0.06481993
37	0x3da2c35a	0.079474166
38	0x3d5c497e	0.053781025
39	0xbccc38f3	-0.0249295
40	0x3de4b77b	0.111678086
41	0xbce8f511	-0.02843717
42	0x3c3e3fed	0.011611921
43	0xbe13ffd9	-0.14453067
44	0xbd5d37f7	-0.05400845
45	0xbd41de95	-0.04733141
46	0x3daa848e	0.08326064
47	0xbdc682e1	-0.09692932
48	0xbd1f294c	-0.038857743
49	0xbd97981c	-0.074020594
50	0x3d7f622c	0.062349483
