models/Scomb_transformer_split=2.pt (torch, 41952 bytes, 28 tensors)

transformer_encoder.layers.0.self_attn.in_proj_weight f4 [51, 17]
000000 14 0c 48 be d5 6a 8c 3d c3 cf ac be ae 75 49 3e
       -0.19535857 0.06856314 -0.3375226 0.19673797
000010 e1 5d 24 3e 8f 1e 40 3d 08 38 82 be ef d7 a1 be
       0.16051437 0.046904143 -0.25433373 -0.31610057
000020 38 a5 96 3e 7e 44 83 bd ec 01 8a 3e 2b 1b 21 3f
       0.29422927 -0.06409548 0.2695459 0.6293208
000030 5a 6a 51 be 5c b6 df 3e 15 cf b1 3d e2 e2 45 bd
       -0.20450726 0.43693817 0.08682076 -0.048312075
000040 c4 18 e8 3e a9 93 65 3e 87 fe 7d be 33 fe 10 3d
       0.45331395 0.22419609 -0.24804126 0.035398673
000050 90 91 94 be c9 c1 15 3f 8b a3 c1 3e 0a 69 92 be
       -0.29017305 0.5849882 0.37820086 -0.28595763
000060 6f ce 90 be 75 10 50 3d 07 f1 fc 3d 97 d5 10 3e
       -0.28282496 0.050796945 0.1235066 0.14143978
000070 df cc 76 be 03 c5 05 3e 37 3a 31 3f 2e f5 d3 bb
       -0.2410159 0.13063435 0.69229454 -0.0064684367
000080 6c 19 3e be 52 d2 25 bd da 97 4c 3c 6b 9b 6b be
       -0.18564385 -0.04048378 0.012487376 -0.23008506
000090 2b 5d 48 3e 99 18 14 3e 32 7c ec 3e 45 26 f0 3d
       0.19566791 0.14462508 0.46188504 0.11726049
0000a0 05 f5 87 bd 18 06 4b bd 95 5d 30 be fb 91 1a 3e
       -0.06638531 -0.04956636 -0.17223199 0.1509475
0000b0 d9 fc 2a 3d 3d c3 86 be 33 e8 53 3d d2 f6 06 3f
       0.04174504 -0.2632083 0.051735114 0.5272037
0000c0 00 4c 71 be 22 a3 7b be cb d4 12 3e 93 41 22 3e
       -0.23564148 -0.24573949 0.14338987 0.15845327
0000d0 48 e7 9f be 35 b2 23 3d d7 29 8c be c9 92 d2 3e
       -0.3123114 0.039964873 -0.2737567 0.41127613
0000e0 b4 85 1a be 19 b0 1d bd 71 66 94 be 2b 1c 4b be
       -0.15090066 -0.038498018 -0.28984407 -0.19834964
0000f0 fd e8 b4 3e 9c 28 a1 3e e5 87 40 bf 54 07 fe bb
       0.35334006 0.31476295 -0.7520736 -0.0077523384
000100 f7 e6 ed 3e 90 7c 72 3e 71 dd 61 3e 9d fc 16 bf
       0.46465275 0.2368033 0.2205713 -0.5897921
000110 0a 76 8f be f3 79 2c 3d 18 f3 da 3c ad d3 65 3e
       -0.28019744 0.042108487 0.026727244 0.22444029
000120 40 27 a4 be b9 b0 7e 3d e4 00 e0 3d 14 52 94 3e
       -0.32061195 0.062180255 0.1093767 0.2896887
000130 1a 98 6b 3e e0 03 80 bb 17 09 66 bd 2a c6 e1 bc
       0.23007241 -0.003906712 -0.056161013 -0.027560312
000140 5f 82 eb be 36 6a 5d bf 9d b7 58 be ca 77 f0 bd
       -0.45997903 -0.8649019 -0.21163793 -0.11741598
000150 b4 11 0e bd ab 9c 9b bd 02 f9 7c be 86 4e 8e bd
       -0.03468485 -0.075982414 -0.24704364 -0.06948571
000160 85 60 aa 3e bc 2e c8 3c aa 60 2d bd 26 de 86 bd
       0.33276764 0.024436347 -0.042328514 -0.0658534
000170 65 6a 2b be 36 0e 48 3e 7b af a4 3d 4f 09 b0 3e
       -0.16739805 0.19536671 0.08041283 0.34382102
000180 97 25 80 be 38 f2 b4 bd e9 5e dd be e6 7b 48 be
       -0.2502868 -0.08835262 -0.43236473 -0.19578514
000190 60 9f 87 3c f4 f4 9c 3e ba 23 ef bc ed 2e 23 be
       0.016555488 0.30655634 -0.02919184 -0.1593587
0001a0 29 1c dc 3d 40 52 82 3e d7 a3 b4 be 53 27 1c be
       0.107475586 0.25453377 -0.3528125 -0.15249376
0001b0 7f 6a 4d 3e 93 3b 29 3e 16 5a a8 3d bb 60 05 be
       0.20060156 0.16526632 0.082203075 -0.13025181
0001c0 0c ba 01 bd 46 cc 26 bc b2 27 bf be 1d f2 3d bf
       -0.03167157 -0.0101805385 -0.37334973 -0.7419756
0001d0 eb 92 2c be fa 0f dd 3c 29 d9 19 bb ac d0 c9 bc
       -0.1685292 0.026985157 -0.0023475385 -0.024635635
0001e0 79 29 a0 bc 96 7b ce 3c ce 09 9e be 74 6a e2 3e
       -0.019551026 0.025205415 -0.30866855 0.44221842
0001f0 8e ca 02 3d eb 72 77 be 34 16 eb bc 2c 0c 97 3d
       0.031931452 -0.24164931 -0.02869711 0.073753685
000200 a8 18 04 3a e7 8c 44 bd e6 03 09 bc 30 fb 40 3e
       0.00050390745 -0.047985937 -0.008362746 0.1884582
000210 78 fa 5a 3f 68 ec b9 3e 5e d2 8a bd d6 c1 03 be
       0.85538435 0.36313176 -0.067784056 -0.12866911
000220 92 35 03 be d9 97 96 3d 44 9e 64 be 78 1b 90 3e
       -0.12813404 0.073531814 -0.22325999 0.28145957
000230 5e 08 77 3e 9e af db be ac 1d 71 bb 7d 4f 96 3e
       0.24124286 -0.42907423 -0.0036791367 0.2935752
000240 80 c9 6b 3e 99 8c 84 bd 54 d3 86 be 01 4a 86 3e
       0.23026085 -0.064721294 -0.26333106 0.26228335
000250 9d b0 b2 be 44 a4 58 3b 4f d8 cd 3d 53 45 16 be
       -0.3490037 0.0033056894 0.10051023 -0.14674883
000260 d6 85 e9 3e 8f 1b 1e be 0e 8c ea 3d 9c 7d 61 3e
       0.4560992 -0.154402 0.114524946 0.22020572
000270 4f 2d 0c bf 50 cb 8b 3c 38 32 22 3f c6 64 29 be
       -0.54756635 0.01706472 0.6335788 -0.16542348
000280 7e 7a e3 bd 9d b1 70 3e e2 31 38 be 68 ad 47 be
       -0.11107348 0.23505254 -0.17987779 -0.19499743
000290 ec ab 9a 3d d5 9b 01 3f d6 ed 3a 3f 60 58 9d 3e
       0.07552323 0.50628406 0.7301916 0.30731487
0002a0 40 c0 09 3d e9 54 8d bd e8 94 a4 bd b5 4d 9a 3e
       0.03363061 -0.06900961 -0.08036214 0.3013741
0002b0 d8 c1 fb bd 28 3e f0 be 47 aa b9 3e 20 e8 a7 3e
       -0.12292832 -0.4692242 0.36262724 0.32794285
0002c0 4c 18 bf be bc f1 b5 be 37 f4 4c 3d 5d f7 e1 bd
       -0.37323225 -0.3553599 0.05003759 -0.11033509
0002d0 2d cf c6 3d 46 d4 17 3f 6b 35 a1 3e 38 8d 84 3f
       0.097074844 0.5930828 0.31486067 1.0355597
0002e0 19 62 82 bd d9 89 cc 3c 62 b4 8c ba eb 18 25 3d
       -0.06366367 0.024968075 -0.0010734911 0.040306967
0002f0 2f ef 13 3d 6a 23 6a be 53 ec 25 be 66 ad a1 3e
       0.036116775 -0.22865072 -0.16203432 0.31577605
000300 3f 2f ed 3e 4a 91 98 be a9 05 8f be 52 85 d6 3c
       0.46325108 -0.29798347 -0.27934006 0.026186619
000310 6c 1e cc 3d 0e 8e 09 3f f4 83 70 bd e1 8e d6 3d
       0.0996674 0.53732383 -0.05871959 0.10476471
000320 4a 49 32 3f bb ae cb 3e 06 41 5e 3d 6b 90 9e bd
       0.6964308 0.39781746 0.05426123 -0.07742389
000330 ad c0 55 3d 95 54 44 3e 80 ce 24 bd 45 c4 93 be
       0.052185703 0.1917289 -0.040235996 -0.2886068
000340 70 26 f8 be 41 b4 98 bb 71 7d 86 be 43 65 bf 3d
       -0.48466825 -0.00466016 -0.2626758 0.09345486
000350 ee 45 56 3e 28 5f 39 be 0d fb 23 3d 57 8a b3 3e
       0.20925114 -0.18102705 0.040034343 0.35066482
000360 c3 c4 86 3e a7 9d 06 be 9e 9e de bb 79 be 24 3e
       0.26321992 -0.13146077 -0.006793811 0.16088285
000370 0e 5f 9c bd bc 21 b3 3d 29 18 ee be d6 18 23 3c
       -0.07635318 0.08746669 -0.46502808 0.009954652
000380 6f 39 97 3e ee 62 11 3e c8 69 9b be 5a 80 bc 3d
       0.29536006 0.14197895 -0.30354142 0.092041686
000390 bf 34 64 3e 0d 11 b5 bb 50 ba a4 3b 39 14 be 3d
       0.22285746 -0.0055257143 0.005027093 0.09281201
0003a0 18 f4 72 3d 14 11 d3 3d 1f ee 88 be b5 c9 36 3d
       0.059314817 0.10305992 -0.26744172 0.044625957
0003b0 6c 71 0a 3e 0d 33 de 3e 4b 9b 26 be 30 5d 0e 3f
       0.1351983 0.43398324 -0.16270177 0.5561094
0003c0 8b 76 45 bd ae 39 4c be 92 ee 8c 3e 51 f2 b2 3e
       -0.048208755 -0.19943878 0.27525765 0.34950498
0003d0 a7 b7 56 be ee 5f a0 be 2d 41 de 3d db b9 f6 be
       -0.20968495 -0.3132319 0.10852275 -0.4818867
0003e0 f6 d5 c0 bd fe 79 32 3f 74 b9 0c 3d ab 38 eb 3e
       -0.0941581 0.69717395 0.03435655 0.45941672
0003f0 bd f3 9a 3e 9f 03 48 3e 01 bf 9e 3e f7 4a 33 3e
       0.30264083 0.19532631 0.310051 0.17509066

transformer_encoder.layers.0.self_attn.in_proj_bias f4 [51]
000000 44 8b 7d bd ab c2 15 bd 41 a3 92 bd 00 50 87 3c
       -0.061900392 -0.036562603 -0.071600445 0.01651764
000010 72 c1 1a bd bd 45 2f 3d fd d5 96 bc 6a d5 75 3d
       -0.03778214 0.042791117 -0.018412584 0.06001798
000020 6a 4c a0 39 7e 2f a6 3d e4 3c c5 bc 63 b2 94 3c
       0.0003057451 0.08114527 -0.024076886 0.018151468
000030 8f 5f db bd 11 d4 52 bd 2a 3e 82 bd a0 31 95 bd
       -0.10711586 -0.051471774 -0.06359513 -0.07284856
000040 47 7f 08 bc e2 90 04 3d ae 01 84 bd af b3 14 be
       -0.0083311265 0.032364734 -0.06445633 -0.14521669
000050 06 67 60 3c b3 82 f2 3c 28 d5 95 3d 84 fc 99 3d
       0.013696438 0.029603338 0.07316047 0.07518867
000060 30 55 1f be 14 04 02 3e 9f 13 02 be 20 58 bf bd
       -0.1555984 0.12696868 -0.12702797 -0.093429804
000070 9b 91 f3 bd c2 42 40 3c d3 7d 8f bd 19 86 d7 3c
       -0.118930064 0.011734666 -0.07006421 0.02630906
000080 32 be 87 3d 4b a2 82 3d 65 c8 7f 3d 09 9f 8b 3c
       0.06628074 0.06378611 0.06244697 0.017043607
000090 3a f9 1b 3a bc ca 4e bc b5 90 cd bb ad a3 29 3c
       0.00059499184 -0.012621578 -0.006273354 0.010353965
0000a0 6b 36 a3 bb 7a 98 02 bd b3 6b 8b bd eb 1a 2d bd
       -0.0049808524 -0.031883694 -0.06807651 -0.042262
0000b0 41 45 03 3d 60 ca 8e 3b 57 17 cb 3c e5 7c db 3c
       0.032048468 0.004357621 0.024791403 0.026792953
0000c0 98 44 fe bc af 54 90 3d 5d 14 26 bc
       -0.031038567 0.07047402 -0.010136691

transformer_encoder.layers.0.self_attn.out_proj.weight f4 [17, 17]
000000 2f 74 00 3e 06 c9 a9 be 4c 54 9c 3e ea 05 23 be
       0.1254432 -0.3316118 0.30533063 -0.15920225
000010 2d de 27 be ec 6c bb bd 63 3e 8d bc a3 a7 f7 bd
       -0.16393347 -0.091516346 -0.017241662 -0.12092521
000020 83 c3 3e be 70 cc 5c 3e ea 86 46 3e ab 7e 57 be
       -0.1862927 0.21562362 0.19387403 -0.21044414
000030 50 80 a3 3c ff e6 f0 3d ad 43 5a 3d c8 3a a6 3e
       0.019958645 0.11762809 0.053287197 0.32466722
000040 c9 d7 53 be c2 a0 81 3e 58 fd 6b 3e 54 b8 7d be
       -0.20687784 0.2531796 0.23045862 -0.24777347
000050 12 27 c0 be 0b dd b6 3d 08 42 43 bb 43 4b 25 bd
       -0.37529808 0.08928879 -0.0029793996 -0.04035498
000060 dc c4 72 3e b4 83 b0 bd de 24 f9 bc 8d a8 63 be
       0.23707908 -0.086188704 -0.030413087 -0.22232266
000070 a8 5e 8c 3e e2 0f 72 3d 9b 9a 32 3e a9 74 e4 3d
       0.27415967 0.05909718 0.1744179 0.11155064
000080 c8 74 35 bd d5 43 52 bd 42 df 2e be 89 64 63 be
       -0.044300824 -0.05133422 -0.17077354 -0.2220632
000090 67 ed a6 be fd 60 84 3d 1f e8 0b be 2d 2b d2 3c
       -0.32603 0.064638115 -0.13662766 0.025655353
0000a0 b2 b1 a0 3e 9a 2d 1c be ca 59 39 be 71 61 b2 3d
       0.3138557 -0.1525177 -0.18100658 0.08709992
0000b0 58 0f 64 be 3a 21 57 3e 9d 63 33 bd 17 4d 1b be
       -0.22271478 0.21008769 -0.04379617 -0.15166126
0000c0 aa f2 e5 bd a2 8c e9 bc b0 81 b4 bc ca 92 be be
       -0.11227925 -0.028509442 -0.022034496 -0.37221366
0000d0 1f 14 a7 be f3 9c dd bb 56 8f de be b1 00 53 be
       -0.3263254 -0.0067630946 -0.43468732 -0.20605733
0000e0 a6 2f f1 bc 54 6a 2f 3e 8e 07 09 be ba 2f bf 3d
       -0.029441666 0.17130405 -0.13381788 0.09335275
0000f0 69 b6 75 3c 7a f9 5b 3d 10 b1 9e bd f2 f5 e9 3d
       0.014997103 0.053704716 -0.07748616 0.114238635
000100 0f 2b 0b be 05 f0 39 3d 9d b4 c9 bd 7e 63 0f 3e
       -0.13590644 0.045394916 -0.098489024 0.14002797
000110 5f 77 08 3e ab 8a e9 3c c9 0a 8a bd d0 ae 59 3e
       0.13326786 0.028508505 -0.06740338 0.21258092
000120 3e 97 17 3d db df 1e 3e 3e 59 44 3e 66 ac 82 be
       0.03700947 0.15515082 0.19174668 -0.25522155
000130 23 45 18 be 7d ca 70 bd d6 02 2c be 1f 9d 4d be
       -0.14870124 -0.058786858 -0.16797957 -0.20079468
000140 10 f1 0a be a9 2a 75 be 6a af 2c bd 3f 68 01 bc
       -0.1356852 -0.23942055 -0.042159475 -0.007898389
000150 59 fe 8d 3e a6 bb 96 be 1a 2c 3d 3e 48 7d 09 3d
       0.27733114 -0.2944004 0.18473855 0.033566743
000160 5f eb 48 3c 08 c1 e2 3d 20 80 c7 bd 93 5a 3d be
       0.012263148 0.11071974 -0.09741235 -0.18491583
000170 ef 3b 79 3e a1 a7 c2 3c c0 b3 17 be 86 fe ed bd
       0.24339269 0.023761572 -0.14814663 -0.11620812
000180 2f 21 0d bf 46 76 41 be 4d 27 3f be d6 89 36 bc
       -0.5512876 -0.18892774 -0.18667336 -0.011141261
000190 b9 fe df 3d 33 c6 2a bc 58 5d 49 3e c9 78 eb 3d
       0.10937256 -0.010423231 0.19664514 0.11497647
0001a0 2c f9 3e 3c 1a 22 3e be 6e bf 29 be 4f 3c 60 be
       0.011656087 -0.18567696 -0.16576931 -0.21898006
0001b0 b5 6b 64 3e 92 5d 1e bd 82 21 89 bd 5f a7 bc 3e
       0.22306712 -0.038663454 -0.06695844 0.36846444
0001c0 14 f8 39 3d 8d 61 21 3e 17 61 a7 be 0b 81 f5 bd
       0.0454026 0.15759869 -0.3269126 -0.119875036
0001d0 e8 ac b0 bb 0f 0f 46 3e a2 97 00 3e eb d6 b5 3e
       -0.005391706 0.19341682 0.12557843 0.35515532
0001e0 1d 77 81 bc d3 73 1c bd ee 4c 5d 3e eb 54 87 3e
       -0.015803868 -0.038196396 0.21611378 0.26431975
0001f0 a4 2f c2 bc 04 50 28 be 7e 21 d2 bd ca 45 d4 3d
       -0.023704357 -0.16436774 -0.102602944 0.10364874
000200 21 dc 4c be 6e a3 ba 3d b4 17 7f 3e bb ae aa 3d
       -0.20005848 0.09113203 0.24911386 0.083341084
000210 5f 3b 60 be 8f c3 e6 3d 07 db 36 3e 0c cf 47 3d
       -0.21897648 0.112677686 0.1785699 0.04878144
000220 31 4d 8d be 54 36 68 3d c6 e5 3b 3d 1a 0a 5d 3d
       -0.27597955 0.056692436 0.045873426 0.05396471
000230 eb 1c 98 be 2d 8b 81 be 21 33 f9 3e 44 66 c7 bc
       -0.29709563 -0.25301495 0.4867182 -0.024340756
000240 07 43 4b 3e 63 4a b5 bd a6 b9 f7 bd 8c dd c2 3d
       0.19849788 -0.08852079 -0.120959565 0.09514913
000250 42 35 97 3e e4 5c 02 3e 10 cf 2a be 84 da dd bd
       0.2953282 0.12730747 -0.1668055 -0.10832694
000260 5b 7f 40 be f1 f0 51 bd 29 1f 50 bc 57 d2 99 be
       -0.18798582 -0.05125517 -0.012702742 -0.3004329
000270 88 88 60 be cf fc a9 be 3f ce ea 3d e8 15 6a be
       -0.21927083 -0.3320069 0.114651196 -0.22859919
000280 a7 67 f1 bd a7 74 6b 3d b2 ff 64 bd d7 9d 17 3e
       -0.11787348 0.057484295 -0.055907913 0.14806305
000290 09 9e 8c 3e 40 23 0e be 0d ad ea 3c 02 39 d6 3e
       0.2746432 -0.13880634 0.02864697 0.41840369
0002a0 76 64 7c 3e 8e f6 0c be f4 c1 cb bb fd 87 a7 3c
       0.24647698 -0.13765928 -0.0062181894 0.020450586
0002b0 ba 35 3e 3d be ec 1c 3e db 98 49 3e 2b 9f 07 3e
       0.046437956 0.15324685 0.19687216 0.13244312
0002c0 5a cd 7d 3e 6c 77 81 3e 4e 96 cd b9 4e 3f 88 be
       0.24785367 0.25286424 -0.00039212633 -0.26610798
0002d0 f2 e0 05 3e bc 63 66 be d2 da 63 bd 33 15 b5 3d
       0.13074091 -0.22498983 -0.055628605 0.08841934
0002e0 36 1a 00 3e f1 8f a8 3d 8f 5e a3 be ee e9 e9 3d
       0.12509999 0.0823058 -0.3190808 0.11421572
0002f0 3e 9b 25 3d cc c6 4c 3e 1a a3 80 be 25 ae 62 3e
       0.040431254 0.1999771 -0.25124437 0.22136743
000300 bd d8 48 3b f3 42 a6 3e 04 b6 11 3e 2d 8a 70 3d
       0.0030646764 0.32472953 0.1422959 0.058725525
000310 c0 eb 52 3e 30 97 ab bc 84 8e 0e be f7 d7 d6 be
       0.20597744 -0.020946115 -0.13921553 -0.41961643
000320 fa 63 5f 3e 4b 9f d5 3d 02 76 4e be 36 57 f5 3d
       0.21815482 0.10430773 -0.20162204 0.11979525
000330 2f ad 94 3d fd f1 3c be a8 91 f2 bd a8 01 2b 3e
       0.07259595 -0.18451686 -0.11844188 0.1669985
000340 57 c6 a4 3e 04 24 2b 3d 88 75 90 bd 6d a5 2c 3e
       0.3218257 0.041782394 -0.07053667 0.1685998
000350 07 2e a8 bd 23 ab 84 3d b4 2f 86 3c f4 e8 bc 3c
       -0.08211904 0.06477954 0.016380168 0.0230603
000360 f3 b6 2e 3d c2 75 86 be eb a1 54 3e 59 18 df bd
       0.042654943 -0.26261717 0.20764892 -0.10893316
000370 45 d8 16 3b 39 c1 23 3e 95 f9 29 3e b0 1b a4 3e
       0.002301709 0.15991677 0.16599114 0.32052374
000380 24 5a 47 3e cb c9 d7 3d 13 5f 10 3e 79 ba f1 3c
       0.1946798 0.10536536 0.14098768 0.029507862
000390 a6 1f 0c be 71 bd 1b 3d a2 71 50 3e c9 ed 95 3c
       -0.13683948 0.038022462 0.20355847 0.018301861
0003a0 17 00 5e 3d 1a cf 96 3e 23 3e 33 be ad 91 b5 bc
       0.054199304 0.2945488 -0.17504172 -0.02216419
0003b0 ac a6 59 be 0c 95 7e 3e 22 07 bb 3e 07 75 af 3e
       -0.21254987 0.24861544 0.3652888 0.34268972
0003c0 42 3c 30 3e 11 0f 04 3e f9 8b fd bc c8 99 b5 3d
       0.17210487 0.12896372 -0.030950533 0.08867222
0003d0 2e 6f 73 bd 94 19 99 bd 22 06 03 bd 5e b5 29 be
       -0.0594322 -0.07475582 -0.03198827 -0.16573092
0003e0 4f 83 8d 3e 1a aa af 3e d0 99 84 bd 44 c6 a1 3d
       0.27639243 0.34309465 -0.0647465 0.07899144
0003f0 15 a9 a7 3d 5a 9c 87 be 3b ce 49 be a0 d1 74 bd
       0.08186547 -0.26486474 -0.19707577 -0.059770226

transformer_encoder.layers.0.self_attn.out_proj.bias f4 [17]
000000 b2 85 bf 3c 97 22 88 3b 39 01 a9 bc 74 33 b0 bb
       0.02337918 0.004154514 -0.020630466 -0.0053772274
000010 c9 ee e7 bb 1f 73 07 bd c1 dc 86 39 8f 45 b0 bd
       -0.007078026 -0.033068772 0.00025722946 -0.08607017
000020 31 5e af 3c dd d0 8e 3d 5c 14 f9 bc fc 49 24 bd
       0.021407219 0.06973431 -0.030405216 -0.04010962
000030 ab 72 72 3c 50 72 9d 3d a3 57 55 3d 88 51 a8 3b
       0.014797847 0.07687819 0.05208553 0.0051366724
000040 3b 5f a9 bc
       -0.020675292

transformer_encoder.layers.0.linear1.weight f4 [64, 17]
000000 0c 04 12 be 53 3e bc 3e 36 7a 8b 3d 28 ec 23 be
       -0.14259356 0.367663 0.06810419 -0.16008055
000010 f0 15 03 3d 91 c7 21 3b 0c fc 57 bd 01 44 bf 3e
       0.032003343 0.0024685601 -0.052730605 0.3735657
000020 7f 4b 43 bd c7 17 e6 bc 7c 75 6b 3d 06 a8 bd be
       -0.04767942 -0.02808751 0.05748509 -0.37042254
000030 97 b8 79 3d 51 c6 6e be 8c 87 20 3e 4b fa 0c 3e
       0.060967054 -0.23317839 0.15676707 0.13767354
000040 bc fe 68 3d 05 ac 7f 3e b8 ed 44 3d b5 92 e1 3c
       0.05688356 0.24967964 0.04807827 0.027535776
000050 25 99 75 3d bc de a2 3d 42 cc 0d bd 74 0c ed 3e
       0.059960503 0.079526395 -0.034618624 0.46298563
000060 54 00 49 bd b4 94 a7 bd 78 ed 47 bd a4 16 26 be
       -0.04907258 -0.0818266 -0.048810452 -0.16219574
000070 d0 c1 71 3e f0 3a d8 bc ad 29 dd be bb d1 c5 bc
       0.2360909 -0.026395291 -0.4319586 -0.024147859
000080 8d 47 a4 bc 48 23 1c bd 61 e8 70 be 30 74 ba bb
       -0.02005365 -0.038119584 -0.23526146 -0.00569012
000090 73 62 6b 3e df 71 82 3d 38 77 81 bc 05 90 78 be
       0.22986774 0.063693754 -0.015803918 -0.24273689
0000a0 c8 b1 d7 3d 68 ee 87 3e b7 1e da bd a5 3c bf 3d
       0.10531956 0.26549077 -0.1065039 0.09337739
0000b0 3e c8 ce bd ec 1a 37 3d 74 ee a2 bc 5e 2d c6 bd
       -0.10096787 0.04470341 -0.019889094 -0.09676622
0000c0 e2 68 25 bc a3 8d a9 bc df b0 4f 3e 94 1c 21 3e
       -0.010095807 -0.02069742 0.20282315 0.15733558
0000d0 ec 8a 2a 3e f6 64 08 be a3 79 61 be 67 37 de 3c
       0.16654557 -0.13319764 -0.22019057 0.027126027
0000e0 51 9a 3b be 1a 88 9e 3d 26 6b 76 3e 49 bf d2 bd
       -0.18320586 0.07740803 0.24064311 -0.10290391
0000f0 fa e8 18 be e1 34 a7 be bf 23 5e be bd 89 b1 3d
       -0.14932624 -0.3265753 -0.21693324 0.086688496
000100 88 6a 48 be c5 1f 68 bd 6f 3a 00 3f 81 7b 19 be
       -0.19571888 -0.056670923 0.5008916 -0.14988519
000110 91 cc 35 be d1 e2 56 3d 92 1d c0 3d ff 99 49 3e
       -0.17753817 0.052462403 0.0938064 0.19687651
000120 ac ed 4b 3e 0e 85 7c 3d 0d d5 55 be fd 63 5c 3d
       0.19914883 0.06165033 -0.20882054 0.053806294
000130 dd 0c 0b be a8 17 a7 3d 3b a2 98 3a 11 f1 64 3e
       -0.13579126 0.08158809 0.0011645028 0.22357585
000140 57 32 ef bd 1e 8f c6 bd e7 49 a1 be a4 27 1a be
       -0.116795234 -0.09695266 -0.31501696 -0.15054184
000150 26 ec 8e be 1d 71 99 3d f0 08 5e 3e 0c 4b c0 3d
       -0.27914542 0.07492278 0.21683097 0.09389314
000160 67 50 26 bc be 76 d3 3d 73 54 4a bd 03 2e b5 3e
       -0.010151005 0.10325383 -0.049396943 0.35386667
000170 d7 c6 09 3d 18 63 d2 bd e8 01 73 3d 1e 97 8b bd
       0.033636894 -0.10272807 0.05932799 -0.06815933
000180 ab 56 3e 3e 20 48 b0 bc 0e da 05 bf a2 84 20 3d
       0.18587749 -0.021518767 -0.5228585 0.03918899
000190 c5 43 72 3d 65 84 4a 3d 7c e5 b1 3e 71 a0 6b be
       0.05914666 0.049442668 0.34745395 -0.23010422
0001a0 0c e4 02 3c 4f 1b 31 3e 50 57 17 3e 11 ba 2e bb
       0.007988941 0.17295574 0.14779401 -0.0026661197
0001b0 f3 89 24 3e cc 33 18 bd b5 86 14 bd 99 85 45 bd
       0.16068248 -0.037158772 -0.03626128 -0.04822311
0001c0 7f 57 b4 3d 35 1a bd 3d 44 9d 0f be 33 f6 71 3b
       0.08805751 0.09233514 -0.14024836 0.0036920428
0001d0 c7 1b 10 be e6 c4 2d 3e 54 d6 41 3e 31 5c d9 3d
       -0.14073096 0.16969642 0.18929416 0.10613287
0001e0 d7 6f 05 3e 88 f5 6a 3c 72 9c 06 be b0 c6 72 3d
       0.13030945 0.014340766 -0.13145617 0.059271514
0001f0 d6 ef 2c bd 1f 19 e7 3e 95 0b 40 3e d7 ca c3 be
       -0.042220913 0.45136353 0.18754418 -0.38240692
000200 ce ab 2b 3d c5 87 76 3c f2 bf d0 3c 70 20 09 3b
       0.041911893 0.015047018 0.025482152 0.0020923875
000210 a0 fe f1 be dd 86 95 3c 2a fe 9f 3d 8c 25 6e bd
       -0.47264576 0.018252784 0.0781215 -0.058141276
000220 5b 3e 4d be 00 0d 44 be b4 a4 83 bc fe e2 68 3e
       -0.20043318 -0.19145584 -0.016069748 0.2274284
000230 1f 6d 32 3e 75 34 2f be 1b f3 13 3d e8 1c e4 3e
       0.17424439 -0.17109855 0.036120515 0.44553304
000240 db d0 8c 3e 32 40 84 be a5 0f a5 3c cc 58 1c be
       0.27503094 -0.25830227 0.020149061 -0.15268248
000250 e9 68 d9 bd 89 1f 83 3d 79 cd 74 3d 20 2f 94 3e
       -0.10615713 0.06402499 0.059766266 0.28942204
000260 a7 a1 98 3e 73 b8 c0 3d 64 73 2f 3d 2a 8d dc 3d
       0.2981083 0.09410181 0.042834654 0.107691124
000270 36 87 61 3d 74 93 0c 3e e5 6c 89 bd 61 5e e2 3b
       0.055060588 0.13728124 -0.06710223 0.0069082235
000280 83 b4 12 be 75 40 94 be 98 bd 99 3d 5e 8f 21 3d
       -0.14326672 -0.28955427 0.07506865 0.039443366
000290 c4 23 14 3d 77 d9 30 3e 91 73 20 3d d8 07 c7 bd
       0.03616692 0.17270456 0.039172713 -0.09718293
0002a0 c4 29 05 3e c8 f4 09 be 87 0d 4c bc 31 51 88 3e
       0.13004214 -0.13472283 -0.012454397 0.26624444
0002b0 4a 2c 32 be f3 66 23 bd 76 6f 61 3e 0d 67 77 3e
       -0.17399707 -0.039893102 0.22015175 0.24160405
0002c0 bf 67 52 bd d3 ee e2 3d 34 9e 39 be 51 62 05 be
       -0.05136847 0.11080708 -0.18126756 -0.13025786
0002d0 b4 ae a9 be b2 0a 99 bc 7b 89 9f 3d 33 d5 81 be
       -0.331411 -0.018681858 0.07789894 -0.2535797
0002e0 8c fe 67 be 08 22 ae 3c bc be 90 3c 6a ea a7 be
       -0.22655696 0.021256462 0.017669074 -0.3279603
0002f0 a5 49 16 bd e9 f1 a6 bd bb f5 65 bd 52 e9 84 3e
       -0.036691327 -0.081516095 -0.05614255 0.2595926
000300 2f 8c 60 be 8f de a1 3d d4 76 db 3e 88 43 bd bc
       -0.21928476 0.07903778 0.42864096 -0.02310349
000310 8b 8d b9 be 44 3c 83 3b c1 ad 5a be 5d 54 9f 3c
       -0.362408 0.004004987 -0.21355344 0.019449407
000320 0c 49 0a be 4e 7c 20 3e 72 88 fc 3d 1e 68 9a 3e
       -0.13504428 0.15672418 0.123307124 0.3015756
000330 6b ff 81 3e 0d 8f 90 be b9 20 18 3b c6 9c 42 3e
       0.2539018 -0.2823414 0.0023212864 0.19005117
000340 f8 37 ad 3d f1 fb 3c bd 83 20 cc 3d fc 6e ce 3d
       0.08457941 -0.046138708 0.099671386 0.10079762
000350 62 73 84 3c d6 ce d1 be 59 c8 3b be fa b8 24 be
       0.0161683 -0.40978116 -0.18338145 -0.16086188
000360 fb 58 b0 bd a2 7c 3b bd 24 7a ff bd 0c da 41 3e
       -0.08610722 -0.045773156 -0.12474468 0.18930835
000370 ac 70 cd 3e 98 93 85 3c 70 4c ec 3d 08 a7 55 bd
       0.40125024 0.01630573 0.11538017 -0.052161247
000380 45 05 16 be 74 66 18 bb 0b 69 90 3d ce 70 2a bd
       -0.14650448 -0.0023254426 0.07051285 -0.041611485
000390 56 9d 05 3f 09 08 95 be c2 38 d6 3d 3c 72 35 bd
       0.521932 -0.29107693 0.104600444 -0.044298396
0003a0 42 71 2b bc bd 79 19 3e 31 ff 2e be c5 a6 bb bc
       -0.0104640145 0.14987846 -0.17089535 -0.02290667
0003b0 da 27 17 be f1 d0 fc 3c 66 cc 7a 3e 13 53 b6 be
       -0.14761296 0.03086135 0.24492034 -0.35610256
0003c0 6c 60 96 3d c5 9e 8f bd 70 b3 84 3d 4f c8 49 be
       0.0734261 -0.07012705 0.064795375 -0.19705318
0003d0 7a 98 2b 3e a2 78 63 bd 98 55 6b bd 84 b7 80 be
       0.16757384 -0.055534966 -0.057454675 -0.2514001
0003e0 b2 c5 8a be e2 d4 8e 3e 35 5a 72 3d 08 89 81 3b
       -0.27103955 0.27896792 0.05916806 0.003953103
0003f0 fd 29 6a be 4f c5 24 bd e6 d3 8b bb 90 88 d2 3c
       -0.2286758 -0.04022723 -0.0042672036 0.025699884

transformer_encoder.layers.0.linear1.bias f4 [64]
000000 48 b9 c0 3c 58 fb 33 be c3 4f 01 be cf e1 f8 bd
       0.023525849 -0.17576349 -0.12628083 -0.121524446
000010 e0 0b 2c be 1a ca 54 3d e1 71 19 bd 79 29 00 be
       -0.16801405 0.05195055 -0.03746212 -0.1251582
000020 15 d2 a0 be db 48 bb bd ce a0 ba bd d8 d7 3b be
       -0.3141028 -0.091447555 -0.09112702 -0.18344057
000030 5a a1 c1 3c 9b 9d b5 be aa d4 90 be 08 fa 51 be
       0.023636509 -0.35471806 -0.2828725 -0.20505536
000040 44 08 2b be 49 44 f9 bd bb 8a 2b 3e ce 42 a1 be
       -0.16702372 -0.121712275 0.1675214 -0.3149628
000050 3f bd 7d be c3 ca 95 be 04 92 a8 be 6b 4a e5 bd
       -0.24779223 -0.29256257 -0.329239 -0.11195835
000060 01 25 8b be 30 b9 c0 be ac c1 ef bd fd 29 99 bd
       -0.2717667 -0.37641287 -0.11706862 -0.07478712
000070 b4 29 9c bc 35 9d 38 be 89 63 b7 bd 8d df 93 be
       -0.019062854 -0.1802872 -0.08954532 -0.28881493
000080 1b 63 4d be cd e8 af be 94 73 9c be 61 1e ab be
       -0.20057337 -0.343573 -0.3055693 -0.33421615
000090 fe 23 9c be ae 7a a6 be 57 70 c1 3b 85 d5 b4 be
       -0.3049621 -0.32515472 0.0059032845 -0.35319152
0000a0 7e df 74 be 3c 38 8e be 49 e7 9a be 3a 3f 7d be
       -0.2391338 -0.27777278 -0.30254582 -0.2473115
0000b0 f7 59 90 be 98 a1 8f be f6 58 c9 3d 96 38 9a bd
       -0.28193638 -0.28052974 0.09831421 -0.07530324
0000c0 b7 27 73 be 71 4d 98 be 30 8a fc bd ca 98 58 be
       -0.23745619 -0.29746583 -0.12331045 -0.21152034
0000d0 4c ee 9d be bc 0d 9e be 00 e2 a9 be 0e 80 b3 bd
       -0.3084587 -0.30869853 -0.33180237 -0.08764659
0000e0 81 67 78 bd 3f eb 66 be 09 2a 7b bd ce 43 5a be
       -0.060645584 -0.22550677 -0.061319385 -0.21314928
0000f0 de d6 54 be 58 fe af be d0 05 93 be d1 45 2b be
       -0.2078509 -0.34373736 -0.28715372 -0.16725852

transformer_encoder.layers.0.linear2.weight f4 [17, 64]
000000 37 c0 e2 bd 71 30 0c be 58 3d 5d 3d 6c e3 ab 3d
       -0.11071818 -0.13690354 0.05401358 0.08392987
000010 6e 07 85 bd 0f a6 3f be 1a 53 5c 3d 9a ab d1 bd
       -0.06495558 -0.1871569 0.05379019 -0.102378085
000020 64 d5 62 be 62 ec e6 bc 2a 83 31 be 82 be 4e be
       -0.22151715 -0.028188888 -0.17335191 -0.2018986
000030 df a2 2f 3e 92 dd bd bd 3d be 08 bd 7b f4 d1 3e
       0.17151974 -0.09270777 -0.03338455 0.41006836
000040 00 df 57 bd 0f 32 22 3c fa b8 a3 3d a9 ff d0 3d
       -0.052702904 0.00989963 0.07994266 0.10205013
000050 68 2a 0e be 45 80 ef 3c 4a d4 07 bc 38 38 e4 3c
       -0.13883364 0.029235968 -0.00829036 0.027858838
000060 ec ad c8 3d e0 32 d7 bd 08 2b 29 3e a9 c8 c6 bd
       0.09798798 -0.105077505 0.16520321 -0.09706242
000070 8e 0f 51 3d 58 87 20 3e 27 55 ae bd d5 c4 39 3e
       0.051040225 0.1567663 -0.08512335 0.18141492
000080 b7 5d d2 bd 67 77 13 3e b7 c6 a9 bd 05 af be bd
       -0.10271781 0.14401017 -0.08289855 -0.09310726
000090 e4 95 4c be ca 00 e5 3d ef d9 06 be 2c 07 1c be
       -0.19979054 0.11181791 -0.13169073 -0.15237111
0000a0 03 f4 0d 3e e5 31 32 be 6e a7 24 3d 64 a2 a0 bb
       0.13862614 -0.17401846 0.040198736 -0.004902171
0000b0 01 4e 56 3e 8e 7b 0b 3e 94 a5 9d 3b ec 36 e3 3d
       0.20928194 0.13621351 0.004810998 0.1109446
0000c0 86 d0 e4 bc 01 c6 77 bd c3 de 11 3e f9 4b ec bd
       -0.027931463 -0.060491566 0.14245133 -0.11537928
0000d0 b2 3b f9 bd 71 9f 4b bd 9b a2 5d bd 74 80 d5 bd
       -0.12169589 -0.049712602 -0.05411015 -0.10424891
0000e0 58 53 51 3c 88 6c 18 be eb 35 ac 3c db 30 a4 3d
       0.012776218 -0.14885151 0.021021804 0.08017131
0000f0 12 c5 bd 3d 67 3d da 3d 0a 91 be 3d a2 d1 02 3e
       0.09266104 0.10656243 0.09305008 0.12775281
000100 b9 4c 27 be 77 9f d8 bd 91 71 1a 3e 4f e1 bb bd
       -0.16337861 -0.105772905 0.15082385 -0.091738336
000110 24 ef a2 3d aa 45 95 bd 53 b3 3d bc 7b 12 6e be
       0.07955769 -0.07288678 -0.011578399 -0.23249237
000120 fc 42 4b bd b2 ef 80 3d fc b7 e4 bd e7 fb 1d 3d
       -0.04962443 0.06295718 -0.11167905 0.03857031
000130 e4 ef bb bd 9a 16 ba bd df 52 92 be c4 26 e2 bd
       -0.09176615 -0.09086342 -0.2857885 -0.1104255
000140 b8 9c 64 3e 37 33 c5 3e d5 36 e1 3d c9 c8 c0 3d
       0.22325408 0.38515636 0.109967865 0.09413297
000150 7c 15 08 be 0f f0 2c be bd 57 d5 bd 80 b5 a4 3d
       -0.13289446 -0.1688845 -0.104171254 0.08042431
000160 a3 f0 55 bd 05 8b ab 3e b7 d5 b9 3d f7 e3 27 3c
       -0.052231442 0.335045 0.09073966 0.010247222
000170 fc c1 e9 bc bb 63 73 bd b9 a8 16 3e 03 18 ef 3c
       -0.028534882 -0.059421282 0.147128 0.029186254
000180 39 3a 3c 3d 88 b1 f0 3d 68 48 ca 3d 1a 04 e5 3c
       0.045953963 0.117526114 0.09877092 0.027956057
000190 d6 09 72 bc 80 4b 2f be ef a6 ae 3d 3a c2 ee 3d
       -0.014772853 -0.17118645 0.08527934 0.116581395
0001a0 09 ca d6 bd de 0b c9 3b 54 ff 2b 3d 1a e1 d7 3c
       -0.10487754 0.006135448 0.041991547 0.026352454
0001b0 44 c8 6a 3e 3a ad 71 be 23 1b f3 3c fa a7 93 bd
       0.22927958 -0.23601237 0.029676026 -0.07209773
0001c0 8a 9c 6a 3e 8a 38 b5 bd 24 ac 34 be 47 3f 58 be
       0.22911277 -0.088486746 -0.17643791 -0.21117888
0001d0 92 cd 0c be 0e 5f b8 bb a4 5e 82 3e 66 1e 9e 3e
       -0.13750294 -0.005626566 0.2546283 0.30882567
0001e0 e6 30 a4 3d 18 ea 0a be 8d 0d de be e7 ae cb bd
       0.08017139 -0.13565862 -0.43369713 -0.09945469
0001f0 bd 83 2a 3d 28 dc 83 3d 17 bf 8e 3d 98 0a d1 3c
       0.04162954 0.06438476 0.06970041 0.025517747
000200 8a ae 57 bd 93 3f 08 3e 92 11 f4 3c 42 4a 2a bb
       -0.052656688 0.13305502 0.029793534 -0.0025984203
000210 02 8b e4 bd 91 b9 ce 3c 02 96 08 be d1 fe 90 3c
       -0.11159326 0.02523497 -0.13338473 0.01769963
000220 e5 e3 53 3c 72 ec 89 3d ed 5e b6 3c 6f bf ae 3d
       0.012932752 0.067345515 0.022262061 0.08532607
000230 c0 14 03 bd ba b5 b6 bb 6f 43 fa bd 32 42 e0 bc
       -0.03200221 -0.0055758627 -0.12219893 -0.027375314
000240 7d a0 f2 3d ef 5f 8d bd dc c2 06 be 24 6e 5d 3d
       0.11847017 -0.069030635 -0.1316027 0.054060116
000250 7f b4 fd 3d a0 a2 40 3c 29 c7 2a bd 32 b0 06 be
       0.123879425 0.011757523 -0.04169384 -0.1315315
000260 df cb 01 be 2f 94 c2 3c 36 90 79 bd 46 97 7f 3e
       -0.12675427 0.0237523 -0.060928546 0.2496005
000270 de 75 dd 3d a3 ea 81 3c be 1a 9b 3d 13 e8 b7 3d
       0.10813497 0.015858954 0.0757346 0.089798115
000280 4a 83 1f 3d 71 85 b7 3d 69 aa 19 3e f7 a2 cf bd
       0.038943566 0.08960999 0.15006413 -0.10138505
000290 18 1f ce 3b d8 7b 5a bd 95 99 1d be de eb 3d 3c
       0.0062903278 -0.053340763 -0.15390618 0.01159188
0002a0 b6 31 ef bb 32 ce 25 3d b1 1b bb 3b 38 f0 ae 3d
       -0.007299627 0.040479846 0.005710088 0.08541912
0002b0 51 1d 2a 3d bf 0f 1b 3e 89 1f dc 3b e5 fc 05 3e
       0.041531865 0.15142725 0.0067176265 0.13084753
0002c0 e6 a0 36 bd 50 36 4a 3d 09 f7 bd bd 2e 6d 40 bd
       -0.04458704 0.049368203 -0.09275634 -0.046979122
0002d0 51 56 21 bd cc b7 46 bd 5c 62 c2 3c c8 9f 22 3d
       -0.03938896 -0.048515126 0.023728542 0.03970316
0002e0 d3 95 3a 3d 14 b6 97 3c f5 47 c4 bd 4a 7e 1d bd
       0.04555304 0.018519439 -0.09584037 -0.038450517
0002f0 4b d3 bf 3d d8 8d 7d bd 0d c6 61 bd 9b 6f ad bc
       0.09366473 -0.06190285 -0.055120517 -0.021171382
000300 cf 25 2c bd 1d 56 23 3e f7 b2 0c 3e f1 cb 44 bd
       -0.042028245 0.15950818 0.13740145 -0.048046056
000310 a3 bd 0c 3a 88 23 1e 3e 18 1e e0 bd 04 bd cd 3d
       0.0005368834 0.15443242 -0.1094324 0.100458175
000320 7c 19 95 bd b5 11 91 3d 66 c4 bc bd 24 ac 08 3e
       -0.072802514 0.070834555 -0.092171475 0.13346916
000330 84 07 d8 3d 60 3e b4 bd 36 6d 12 3e ea b4 ff 3d
       0.105483085 -0.088009596 0.14299473 0.124856785
000340 26 42 40 bd 79 1c 90 3d 1d 32 5a 3d 96 da 22 be
       -0.046938084 0.07036681 0.053270448 -0.15903696
000350 3b 4e 42 3e 6b e5 96 3d 76 2e b5 3d c2 80 73 be
       0.18975155 0.07367977 0.08846752 -0.23779586
000360 8e b8 84 be 83 ea 8d bc f1 0c 4e be b0 4f 4e 3d
       -0.25922054 -0.017323738 -0.20122124 0.050368965
000370 d6 fa 2a 3e 92 36 d5 3c 3c ac e1 bb f1 5e 33 3e
       0.16697249 0.026026998 -0.006886987 0.17516686
000380 8e f4 7d 3c 40 0f 7e 3d 9a aa 49 bd 88 c1 58 be
       0.015500201 0.062026262 -0.049234964 -0.21167576
000390 83 1a 7c 3d 4f 02 f3 3d 97 a1 a1 bd 90 57 c6 3d
       0.06154872 0.11865675 -0.07892149 0.0968467
0003a0 d5 b7 d4 3d 51 29 12 3e d6 10 4c 3d 04 ed e9 3d
       0.10386626 0.14273573 0.049820744 0.1142216
0003b0 38 27 35 be e5 3d 54 3e a2 a0 ae 3d e3 c4 77 3e
       -0.17690742 0.20726736 0.08526732 0.241962
0003c0 39 09 bd 3d 85 e0 0e 3e 54 a1 d4 3d f4 b1 e4 3c
       0.09230275 0.13952835 0.103823334 0.027916886
0003d0 7c 07 07 be b6 6b 35 be bb a6 15 bd d5 28 a1 bd
       -0.13186449 -0.1771687 -0.03653596 -0.07869116
0003e0 17 46 a4 3c 0f 8d 3f bd 84 cc c2 3d 9d 8f 0c bb
       0.020052953 -0.046765383 0.095116645 -0.0021447905
0003f0 41 b2 a1 3c 62 65 0b be 6e b2 0e be 1b 09 92 bd
       0.019738318 -0.13612893 -0.13935253 -0.07130643

transformer_encoder.layers.0.linear2.bias f4 [17]
000000 27 1c 41 bd 7a e3 d6 39 82 69 7e 3d a1 1c 9f bd
       -0.04714599 0.00040986744 0.06211234 -0.077691324
000010 79 ed 75 3c 3a 24 e0 bd b7 89 82 3d 99 65 bc 3d
       0.015010231 -0.1094441 0.06373923 0.09199066
000020 1a d7 a3 3b d2 b3 b0 bc bb bc 64 3a 53 70 ea 3c
       0.0050000073 -0.02157012 0.0008725633 0.028618013
000030 f7 b6 c9 3b e1 7f 2e bc 1e 43 05 3e 4e 91 6e bd
       0.0061558443 -0.010650606 0.13013884 -0.058244042
000040 6e c5 fb 3c
       0.03073379

transformer_encoder.layers.0.norm1.weight f4 [17]
000000 ed 0c 78 3f a9 4e 7d 3f 6b 66 4e 3f f8 80 6b 3f
       0.96894723 0.9894815 0.8062503 0.91993666
000010 a8 f0 3b 3f b1 2b 86 3f 97 19 54 3f 5a 42 58 3f
       0.7341409 1.0482084 0.82851547 0.84476244
000020 84 47 71 3f fa 2b 7a 3f fa 32 53 3f 4d de 45 3f
       0.9424975 0.9772335 0.8249966 0.7729233
000030 12 f2 40 3f 8a c1 76 3f b2 90 5a 3f 38 18 68 3f
       0.7536937 0.9638907 0.8537704 0.90661955
000040 9b 34 53 3f
       0.82502145

transformer_encoder.layers.0.norm1.bias f4 [17]
000000 54 43 67 bd 05 f9 c2 bc a6 a8 a5 3c 0a 50 33 3c
       -0.056460693 -0.023800382 0.02022202 0.010944376
000010 5d 67 2f bc 00 e2 30 3e ea da a1 bd 1c 69 9b 3c
       -0.010705796 0.17273712 -0.07903083 0.018971018
000020 48 c8 0d 3d 30 d7 c3 bc e5 54 33 3d 21 45 fd bc
       0.03461483 -0.02390632 0.043782134 -0.030916752
000030 21 20 0c bd 65 97 be 3d 66 a3 46 3d 7e 24 06 be
       -0.034210328 0.0930622 0.048495673 -0.13099858
000040 27 d2 a0 bc
       -0.019631458

transformer_encoder.layers.0.norm2.weight f4 [17]
000000 5a 5a 8b 3f 41 91 8b 3f 81 b6 55 3f c7 a5 6c 3f
       1.0886948 1.0903703 0.83481604 0.92440456
000010 ac 8e 70 3f 18 53 81 3f 00 54 71 3f 20 95 80 3f
       0.939677 1.0103483 0.942688 1.0045509
000020 c7 68 71 3f ee f1 8a 3f b2 fb 6e 3f 17 dc 88 3f
       0.943005 1.0855081 0.93352807 1.0692166
000030 fb e8 5e 3f 07 d7 7e 3f 06 9c 5c 3f 7d c6 77 3f
       0.8707425 0.99546856 0.8617557 0.96787244
000040 b1 c8 80 3f
       1.0061246

transformer_encoder.layers.0.norm2.bias f4 [17]
000000 16 35 d7 bd 92 22 d0 3b 7c f2 95 3d aa 8a ea 3d
       -0.10508172 0.0063517774 0.07321641 0.11452229
000010 61 97 9d 3d ff 45 81 bd cd 81 aa 3c 61 fe 42 3c
       0.07694889 -0.06312179 0.020813847 0.011901469
000020 b9 81 74 bd 78 69 f0 bc d1 af 2f bd c5 d5 b1 bc
       -0.059694026 -0.029347166 -0.04289228 -0.021708379
000030 9b ce 5e 3b 10 3c 52 bd d0 39 d2 bd bb 9e 0f 3d
       0.0033997658 -0.05132681 -0.10264933 0.035063487
000040 1d dc db bc
       -0.026838357

transformer_encoder.layers.1.self_attn.in_proj_weight f4 [51, 17]
000000 1a 3d d7 bd 84 e2 5f be 3b af 4a 3e c5 ad 8c 3e
       -0.10509701 -0.21863753 0.19793408 0.27476326
000010 62 2b 2d 3c b5 a7 9d be 02 9c 34 3e f8 09 82 be
       0.010569425 -0.30792013 0.17637637 -0.2539823
000020 27 73 32 3e cc 9c 81 3d ac 2c 9b 3d ee c7 04 3e
       0.1742674 0.06328735 0.0757688 0.12966892
000030 e7 85 f9 be 77 e4 77 bd f8 66 0c bd 52 dc 9d bc
       -0.48734972 -0.060520615 -0.034277886 -0.019270096
000040 6d a0 07 3e 4c 10 b9 3e 00 11 0f bf c2 26 ae bd
       0.13244791 0.36145246 -0.55885315 -0.08503486
000050 cf 4f 0a 3e 68 b9 bf bd 02 10 bd 3e 31 68 af 3b
       0.13507007 -0.09361535 0.36926275 0.0053529968
000060 25 3f 87 be 63 82 e6 3e 04 b5 cf bd 48 0c e6 3b
       -0.26415363 0.45021352 -0.10141948 0.007020507
000070 2a 82 01 be 0b 0a 96 bd c0 97 85 be 97 9f 43 be
       -0.1264731 -0.07326134 -0.2609234 -0.19103847
000080 45 78 14 be d4 f5 bc 3e db b7 c4 bd b7 9b 7b be
       -0.14499004 0.36906302 -0.0960538 -0.24571119
000090 63 88 7b 3e 0e 94 7a 3e 33 1c e6 bd fa ad 5e 3e
       0.24563746 0.24470541 -0.11235847 0.21746054
0000a0 af 48 49 be 42 cc ca 3e 91 1e 96 be ea 96 fb 3e
       -0.19656633 0.3960896 -0.29320195 0.49138576
0000b0 93 bf 43 be 31 01 c4 bd 36 c4 f4 bd e3 9e e2 3d
       -0.19116049 -0.0957054 -0.11951487 0.110654615
0000c0 09 1c 0f be 3e 23 e4 bd 90 03 8c 3e 0d dd 98 3c
       -0.13975538 -0.111395344 0.27346468 0.018660093
0000d0 5c 3b c5 be 21 f1 46 bc be 9f 28 3e 89 d8 1e bd
       -0.3852185 -0.012142451 0.16467187 -0.038780723
0000e0 d8 4c 8c be f8 86 4f be 6c 7a a6 be 90 c5 3f bd
       -0.27402377 -0.2026633 -0.32515275 -0.04681927
0000f0 a4 1b 28 3e 8e 87 8b 3d 36 3a 29 be 80 2a 27 be
       0.16416794 0.068129644 -0.16526112 -0.16324806
000100 da b1 ad 3e fc 15 88 3e 72 20 7d 3e 1c 46 0d 3d
       0.33924752 0.26579273 0.24719408 0.03449069
000110 f1 72 c5 be 72 86 2a 3d a3 06 91 be be 3a 0c 3e
       -0.38564256 0.041632123 -0.28325376 0.13694283
000120 4d cd 8e be 56 18 41 3e 08 ed 38 be b7 a8 a7 3e
       -0.27891007 0.1885694 -0.1805917 0.32745907
000130 96 a1 37 3e ce 71 9e 3e b6 19 f6 3d 02 09 df bd
       0.17932734 0.309462 0.12016623 -0.1089039
000140 2c b5 1d be c8 f6 eb bb 2e 83 32 3d 7e 03 c3 bd
       -0.15401143 -0.0072010495 0.043582134 -0.095221505
000150 ec 27 a1 3e 20 28 f7 bd a0 33 58 3e 94 04 68 bd
       0.3147577 -0.120682 0.21113443 -0.05664499
000160 ba e3 17 be 52 4b 6f 3e 64 11 af bd 10 6c 31 be
       -0.14832965 0.23368576 -0.08548239 -0.17326379
000170 a3 83 02 be e5 c8 bf 3d a8 d3 5c 3e 43 a7 3b 3e
       -0.12745528 0.093644895 0.21565115 0.18325524
000180 c9 a7 03 bd 06 31 c5 bd 64 a0 61 be f3 3f 8b bd
       -0.032142434 -0.09628491 -0.2203384 -0.06799307
000190 b7 8f dd bd 4f 1a 34 3e 21 c3 92 be 87 dc c0 be
       -0.10818427 0.17588161 -0.28664497 -0.3766825
0001a0 d3 dc 94 bd a8 31 c9 3e b1 87 8a 3e e2 52 81 be
       -0.072686814 0.39295697 0.2705665 -0.25258547
0001b0 e4 52 10 bd 41 f1 c9 3d f7 c3 84 3e 8d 19 0d be
       -0.0352353 0.09860469 0.2593076 -0.13779278
0001c0 9b 52 c0 3d 7c ef a8 be d9 13 a2 be f5 4c 81 3d
       0.09390756 -0.32995212 -0.31655768 0.063135065
0001d0 ba 06 ca bc 3b b4 19 3e 20 ee 7e 3e 7b d0 f8 bd
       -0.02466141 0.15010159 0.24895525 -0.121491395
0001e0 28 16 a7 bc be 4c d6 3d 4f e3 42 be 9a 9b 8f bd
       -0.020396307 0.10463856 -0.19032024 -0.070121005
0001f0 0f 63 9a 3c 74 9f 3e be e7 c9 85 bd 16 98 1a 3e
       0.018846063 -0.18615514 -0.065326504 0.15097079
000200 64 7f 9a be 46 97 0e be 21 ee a9 3e 7b 37 ae bd
       -0.30175316 -0.13924894 0.3318949 -0.08506676
000210 36 34 41 3e 90 74 2a 3e e0 56 5e be 1f e1 bf 3b
       0.18867573 0.16646028 -0.21712828 0.005855694
000220 f1 2a c9 be 26 94 a6 bd 1e 66 cd 3c c4 a6 09 3c
       -0.39290574 -0.08133726 0.025073107 0.008401576
000230 11 3b 58 3e 02 1d 91 be 4c da 88 bd 6c 9e 41 3e
       0.21116282 -0.28342444 -0.06682262 0.1890809
000240 86 49 3f 3e 58 9b d0 be ae 8a 4b be 4e 73 64 3d
       0.1868039 -0.40743518 -0.19877121 0.055774026
000250 a4 88 48 be 22 54 c3 3e 04 18 48 3e b8 5c 92 3d
       -0.19583374 0.38150126 0.19540411 0.07146591
000260 40 ff 1f 3e 03 4e 80 be 12 4b 1a 3e f3 24 ff bc
       0.15624714 -0.25059518 0.150677 -0.031145548
000270 37 3f 38 be 16 1c df be 4e dc d6 3e 31 d7 93 be
       -0.17992865 -0.43576115 0.41964954 -0.28875116
000280 7f f6 3b be 9e 0d c4 3e 93 9a ab bc cf 68 27 be
       -0.1835575 0.3829164 -0.02094773 -0.16348575
000290 87 fc af 3d 73 8e 8a 3e 62 33 9e 3c 3f a6 f9 bc
       0.08593088 0.27061805 0.01931161 -0.03047478
0002a0 cb d5 55 be 29 06 9a 3e a5 73 c5 3c d3 2c 24 be
       -0.20882337 0.30082825 0.024102995 -0.16032724
0002b0 22 5e 6e bd fd 54 b8 be 58 a7 ac 3e a0 c1 8b 3e
       -0.05819524 -0.3600234 0.33721423 0.27296162
0002c0 a0 0f 55 be 64 f3 f1 be c4 0f 8c 3e 7d b7 57 bd
       -0.20806742 -0.47256005 0.27355778 -0.052665222
0002d0 1d df 6f 3d 6c 64 34 be d8 c1 97 3d 84 a8 cb bd
       0.058562387 -0.17616433 0.0741002 -0.09944251
0002e0 71 74 80 be 7d c1 82 3e 31 64 06 3e 69 e8 bd bd
       -0.25088838 0.25538245 0.13124157 -0.09272844
0002f0 9f c0 98 bd ed 48 68 3e 9f a2 f1 3d ff 83 10 3e
       -0.074586146 0.22684069 0.11798596 0.14112853
000300 7d a6 14 3e 41 d4 ae be 48 74 33 3d 0f 34 8f be
       0.14516635 -0.34146312 0.043812066 -0.27969405
000310 f0 aa f2 3e ac d7 88 3e e9 b5 df be 50 63 a5 3c
       0.4739604 0.26727045 -0.43693474 0.020188957
000320 d6 6a a0 be b7 10 34 3e e9 ff c8 3b c3 64 04 be
       -0.3133151 0.17584501 0.0061340225 -0.12929063
000330 ac 77 51 be 33 8e f2 3e 64 03 ff 3c 6d c6 a8 be
       -0.20455807 0.47374114 0.031129546 -0.32963887
000340 0d a2 ae 3d 4e 14 44 be 5f e3 8d be 58 f5 a1 3e
       0.085270025 -0.1914837 -0.27712533 0.31632495
000350 77 d0 86 3c b3 06 18 3e 3f 5d 81 3e 34 6f 16 3e
       0.016456826 0.14846306 0.25266454 0.14690858
000360 e8 bc 47 3e 06 7d 8e bc 01 0b 70 3d 1b e3 f3 3d
       0.19505656 -0.0173936 0.058604244 0.11908551
000370 ce c6 88 be b9 a3 bb 3e fe 00 e6 be 77 e6 cc bc
       -0.26714176 0.36648348 -0.44922632 -0.025012238
000380 0f d3 9e be f6 a3 cc 3d 45 14 40 3d 92 ce 33 3e
       -0.310204 0.099922106 0.04689433 0.17559269
000390 87 dd 09 3f db 0b df be 78 8d 89 be bf 0d 05 3e
       0.5385365 -0.43563733 -0.26865745 0.12993525
0003a0 be 71 c0 3d 87 46 71 3e a3 c0 fa bd d7 15 3a 3e
       0.093966946 0.2356206 -0.12243774 0.18172394
0003b0 dc 23 e7 3c f8 28 9c 3e f8 cf a9 be 2d 11 8d 3d
       0.028215341 0.30500007 -0.3316648 0.06888042
0003c0 bf b8 c6 3d ea 35 b9 be fc c1 5c 3e 67 c6 ae 3e
       0.09703206 -0.36173946 0.21558374 0.34135744
0003d0 d1 fb 40 bc 15 9c fe be c7 c5 54 3d 16 9b 8a be
       -0.011778788 -0.49728456 0.051946428 -0.27071446
0003e0 6b a1 7c bd c0 53 f1 3b 0a 84 0b be a6 65 33 3d
       -0.061677378 0.00736472 -0.13624588 0.04379811
0003f0 73 b2 98 3e 03 69 df 3e 94 7d c1 3e 99 8e 0e be
       0.29823646 0.43634805 0.3779112 -0.13921584

transformer_encoder.layers.1.self_attn.in_proj_bias f4 [51]
000000 48 aa 84 3d ff 1e 28 3d b2 27 2a be fd c2 af 3e
       0.06477791 0.041045185 -0.16616705 0.34328452
000010 e7 c0 d2 3d 64 99 5c 3e 8f f5 04 3d d9 05 ef 3d
       0.102906995 0.21542889 0.032460745 0.11671037
000020 6b 12 d0 bd 07 20 21 be 74 c8 5b be 82 76 5c bd
       -0.10159763 -0.15734874 -0.21463186 -0.053823955
000030 88 21 eb bd 2c 71 bf ba de f1 b0 3d a8 1a 85 3c
       -0.11481005 -0.0014605871 0.086398825 0.016248062
000040 bb 4d 18 3e d5 a2 16 bc fd 57 a4 3c 6f a5 53 3d
       0.14873402 -0.009194096 0.020061487 0.05167144
000050 b8 38 3f 3d ac 28 ba 3c 9a b6 3b bc 7f a7 4e 3c
       0.04668495 0.022724472 -0.01145711 0.012613176
000060 08 1e 16 bd e7 e2 d5 bc 46 71 80 bc a2 59 e9 3c
       -0.036649734 -0.026109172 -0.015679013 0.028485123
000070 c1 3d 49 3b 76 8f 95 3b 83 26 31 bc c7 80 e4 3c
       0.0030706974 0.004564221 -0.010812405 0.027893437
000080 9a a8 2b bc 04 a4 27 3c 22 bb a6 bd 9b 91 21 3c
       -0.010477209 0.0102319755 -0.081411615 0.009861375
000090 20 fb 52 3d 34 38 89 3d 08 72 a6 3d 66 cc af bd
       0.051509023 0.06700173 0.081272185 -0.08583908
0000a0 fb 8e e8 bc ea c3 28 bd 8d 17 73 ba 55 5f 96 3c
       -0.02838849 -0.041202463 -0.00092732237 0.018356005
0000b0 c6 b9 dd 3b b0 e0 7a 3d 88 71 dc bc 0a 40 c5 3c
       0.0067665307 0.061249435 -0.026909605 0.024078388
0000c0 56 91 4b bc a1 ed 7f 3d a7 1c 73 3d
       -0.0124247875 0.06248248 0.059353497

transformer_encoder.layers.1.self_attn.out_proj.weight f4 [17, 17]
000000 0b 7d 95 3e 4c 24 c4 bd 1a 4f 58 3e dd 0e 16 be
       0.29196963 -0.095772356 0.21123925 -0.14654107
000010 53 5c 90 be 36 bf 62 bc 3c 13 f7 bd 12 2c 4e be
       -0.28195438 -0.013839534 -0.120642155 -0.20133999
000020 36 46 5c be 4e 5d 99 3c 24 09 a9 3e 2c 90 4c be
       -0.21511158 0.018721249 0.33014786 -0.19976872
000030 a9 ea 1e 3e f9 5d 9a 3d d7 7c 21 bd 7d 40 f0 3d
       0.15519203 0.07537455 -0.039425697 0.1173105
000040 74 fe 23 be c6 2b 84 3e e0 e0 9c 3d 14 b0 64 bd
       -0.16015035 0.25814646 0.07660079 -0.055831984
000050 72 48 38 be 1d 66 14 3c 88 55 43 3d ce f6 57 3e
       -0.17996386 0.009057549 0.04768899 0.21090242
000060 00 f1 8d 3e b2 d6 c6 3c 02 ba 02 3d 0f 0e 66 3c
       0.2772293 0.024272297 0.031915672 0.014041438
000070 23 da 64 3e 27 f1 ac 3d 47 67 5e bd be 4c ff 3d
       0.22348838 0.08444434 -0.05429771 0.12465809
000080 c1 4a 47 be b3 3d 08 3d ca 63 34 3d bf ce dd bd
       -0.1946211 0.033261966 0.04404048 -0.10830449
000090 c4 16 35 be 37 c7 50 3e a7 c3 81 be e8 ed 1b bd
       -0.17684466 0.20388494 -0.25344583 -0.038068682
0000a0 4c 4f 39 3e a7 c6 8d be 72 ef 73 bd b4 4c 95 3d
       0.18096656 -0.27690622 -0.059554525 0.072900206
0000b0 b1 54 42 be 35 52 a0 3e 1a f2 03 3d 86 53 de bd
       -0.1897762 0.3131272 0.032213308 -0.108557746
0000c0 cc 64 a3 be c7 e5 53 3d 31 94 89 3d f0 08 58 be
       -0.3191284 0.051732805 0.067177184 -0.2109716
0000d0 14 e0 60 be 6e 79 35 bd c8 6c 4e be 9f c2 35 bc
       -0.21960479 -0.044305257 -0.20158684 -0.011093765
0000e0 52 0f ab bd 8c 64 66 3c ab f2 25 bd 98 d1 42 3c
       -0.083525315 0.014062058 -0.04051463 0.011890791
0000f0 45 8b 22 3d c9 73 8a be 5c e4 65 be fc 6b 44 3d
       0.0396836 -0.27041462 -0.22450393 0.047954544
000100 24 62 fe 3d 16 6d 4d 3e 55 5b d5 3d 88 93 02 bd
       0.124210626 0.20061144 0.10417811 -0.031878978
000110 92 df 8a 3e 19 9f 61 bd d9 a0 91 be 8e 2a 2a bc
       0.27123696 -0.055083368 -0.2844303 -0.010386122
000120 94 a6 c4 bd d4 8f c5 3e 10 64 07 3e 8b 99 3f be
       -0.09602085 0.38586295 0.13221765 -0.18710916
000130 b8 aa cf bc e9 36 08 be ba fb 3e be 18 8b 78 be
       -0.02534996 -0.13302197 -0.18650714 -0.2427181
000140 d7 b9 a6 bd 00 03 65 be 6f 83 0f 3e c9 0c 12 be
       -0.08140915 -0.22364426 0.14014982 -0.1426269
000150 d7 42 9b 3d 11 1e 8e bd 73 8c 5f 3e cc bf 0f be
       0.07581108 -0.069393285 0.21830921 -0.14038008
000160 7f 93 8c be 11 59 6b bd 31 90 15 3e d9 e2 22 be
       -0.2745628 -0.057457987 0.14605786 -0.15906848
000170 93 cb 81 3e 81 5a 01 3e a3 5d 7c bd 7a 6c 92 bb
       0.25350627 0.12632181 -0.061612736 -0.004468498
000180 3a 97 66 bc 73 39 33 bd 75 ea 30 be b6 48 3d 3c
       -0.014074141 -0.04375596 -0.17276938 0.01155298
000190 fe 13 0b be c4 9d 12 be 4e ae c0 3d 9c 8d 8d 3e
       -0.13581845 -0.14317995 0.09408246 0.27647102
0001a0 12 e1 9b 3d 55 77 97 be ad 18 38 be 29 11 61 be
       0.07611288 -0.2958323 -0.17978163 -0.21979202
0001b0 75 cd 5f 3d f6 74 bb 3c 29 ce 65 bb 49 fd fa 3d
       0.0546393 0.02288292 -0.0035065508 0.122553416
0001c0 ce 30 4b 3c a4 6b 16 3e af f2 45 be 08 23 58 bd
       0.012401773 0.14689499 -0.19330858 -0.052767783
0001d0 04 e1 89 3c 08 52 44 3e 40 69 10 3e b9 f4 36 bd
       0.016830929 0.19171917 0.1410265 -0.04466698
0001e0 18 6d c1 3d b6 8d 8d 3e 5d 2c 28 3e a1 12 aa 3e
       0.09444636 0.2764718 0.16423173 0.33217338
0001f0 30 41 7a be fe 8c de bc 2a 58 f0 bd 2b a2 46 3e
       -0.2443893 -0.02716684 -0.11735566 0.193978
000200 c7 19 cb bd 87 dd 19 3e c3 1b b6 b9 9c 57 7a bc
       -0.09917026 0.15025912 -0.0003473443 -0.015279677
000210 5a 9f 68 be 38 92 34 3e e6 9c bb 3e e9 a4 49 3d
       -0.22717038 0.17633903 0.36643142 0.049229536
000220 0b 81 31 be 73 49 91 3d 10 3c 3c be 24 82 ce bd
       -0.17334382 0.070940875 -0.18382287 -0.10083416
000230 48 24 c5 bd 34 99 44 be 26 2f 1a 3e b4 d1 98 3d
       -0.09626061 -0.19199067 0.15057048 0.07461873
000240 a8 0a 60 3e 35 42 3f bd 6a ba cf bd 9c 82 a0 3e
       0.21879065 -0.046694 -0.101429775 0.31349647
000250 3d 1b df 3d 23 ce 86 bc 09 22 2d be 77 23 7b be
       0.10893867 -0.016455716 -0.16907515 -0.24525248
000260 6d ec 20 be 10 77 b5 bd 36 1c d0 bd fd 52 78 be
       -0.1571519 -0.088606 -0.10161631 -0.24250408
000270 e3 21 75 be 3d d2 46 be 9b 38 eb 3d 62 e7 84 be
       -0.23938708 -0.19416137 0.11485406 -0.2595778
000280 47 99 b4 3d 89 9e 8f 3d 8c 2d d1 bd 95 e0 87 3d
       0.08818298 0.0701266 -0.102137655 0.066346325
000290 58 ee 29 3e ac 01 60 bc 19 bf a5 bd a3 d2 98 3e
       0.16594827 -0.013672274 -0.080930896 0.29848203
0002a0 e0 f4 44 3d f1 fc 30 be d6 58 aa bc 3e d3 13 be
       0.048085093 -0.1728399 -0.020794313 -0.14436051
0002b0 f1 b8 66 3d fe 49 47 3e 4f 56 53 3e ab fc 3e 3d
       0.056328718 0.1946182 0.20638393 0.04662768
0002c0 f2 13 87 3e 76 8a ff 3d d3 ae 41 be d5 5f e6 bd
       0.26382405 0.12477581 -0.18914346 -0.11248747
0002d0 1f ca 18 3d 57 d8 76 3c b1 39 88 bd da 60 82 3d
       0.037302133 0.015066228 -0.06651629 0.06366129
0002e0 74 10 04 3e 03 99 35 3e 17 43 22 be c8 ce 7d bd
       0.12896901 0.1773415 -0.15845905 -0.06196478
0002f0 7b 02 d8 3c 36 08 84 3c 92 90 89 be 06 85 24 3e
       0.02636837 0.016117197 -0.2686811 0.1606637
000300 d4 16 d1 3a 20 c6 09 3d 4e d5 9a 3d 41 08 5a bd
       0.0015952238 0.033636212 0.07560216 -0.053230528
000310 e9 01 92 3d 6b 7e 2a be c0 24 af be 99 b4 4c be
       0.071292706 -0.16649787 -0.34207726 -0.19990768
000320 41 cc 8d 3e b0 f3 48 3e 9e e5 19 ba 34 f5 99 3d
       0.27694896 0.1962421 -0.00058707024 0.07517472
000330 36 f5 2f 3d a2 7f 9a be d0 ff 50 be 09 79 95 3e
       0.04295846 -0.301755 -0.20410085 0.29193905
000340 a3 b6 60 3e c8 ff 6f bd 29 10 01 3e 02 08 1e 3d
       0.2194467 -0.05859354 0.12603821 0.038581856
000350 73 60 c5 bd a5 4b f3 3d 08 60 c6 3d ba 7b 41 3d
       -0.09637537 0.118796624 0.09686285 0.047237135
000360 30 0b 77 3c 06 18 56 be ec c6 db 3d a6 8e b1 bd
       0.015078351 -0.20907602 0.10731301 -0.08669786
000370 a4 02 af bc cf d0 2a bd 78 6f 67 3e 41 d0 c7 3e
       -0.021363564 -0.04170304 0.22601116 0.39026073
000380 71 b3 be 3d f7 b7 84 3e ff 3e a5 3b 7e 2b 15 3e
       0.093115695 0.25921604 0.00504291 0.14567372
000390 e6 f5 1d be 2a ed 47 3e bd 9e 01 3e 55 37 ac 3d
       -0.15425834 0.19524065 0.1265821 0.08408991
0003a0 e8 32 f9 3c cb bd e0 3d 30 92 1d be 18 e5 dd bd
       0.030419782 0.109737 -0.15387797 -0.10834712
0003b0 07 8f f7 bd 36 a8 5c 3e c8 e6 1e 3e 9b 9a c9 3d
       -0.12087827 0.21548542 0.15517724 0.09843942
0003c0 a6 66 89 3e 97 53 79 bc 99 36 7f 3d 42 1e 49 3e
       0.26836127 -0.015217683 0.062307928 0.19640449
0003d0 19 3b 05 3e a5 40 ff 3d 9c e4 bf bd 2a 1d 3b be
       0.13010825 0.12463502 -0.09369776 -0.18272844
0003e0 f8 d3 7c 3e 85 41 8c 3d 5b af d5 3d 15 a6 b4 bd
       0.24690235 0.06848434 0.10433837 -0.0882074
0003f0 c5 cb 8d 3e 0d 9d 4c be a0 d6 94 be cb 20 a1 bd
       0.27694526 -0.19981785 -0.29069996 -0.07867583

transformer_encoder.layers.1.self_attn.out_proj.bias f4 [17]
000000 a4 24 e1 bd 2d ad 08 bc 88 cd 0c be cd e2 72 3d
       -0.10993317 -0.00834207 -0.13750279 0.059298325
000010 69 05 ae bd bd ca b9 bd 7d cf 53 3d bf f4 80 3d
       -0.08497126 -0.090718724 0.051711548 0.062966816
000020 32 e2 2b bd 7c f0 53 bd 82 73 d3 3d af 8a 73 bd
       -0.041963764 -0.051743016 0.10324766 -0.05945843
000030 1d ee dc 3c d5 57 13 3d 2b 6c 26 3c f0 86 ec 3d
       0.02696901 0.035972435 0.010157625 0.11549175
000040 6f 45 7e 3d
       0.062077936
