models/Scomb_transformer_split=4.pt (torch, 41952 bytes, 28 tensors)

transformer_encoder.layers.0.self_attn.in_proj_weight f4 [51, 17]
-0.059324156 0.09865897 0.3756563 0.2485777 0.31660968 -0.8330578 -0.15301862 0.15210961
0.3497938 -0.18509847 -0.3290884 -0.24139889 0.058451183 -0.16950324 -0.5908293 -0.33098483
-0.05020604 0.30380058 -0.89753366 0.030280592 0.59085125 0.28249538 0.015925579 0.0054886052
0.109785475 -0.27041596 0.23327486 0.3685947 0.88141096 -1.0567352 0.03474373 0.032112487
0.13338684 -0.09005597 0.21091245 -0.19443162 -0.006723204 0.498887 0.40258408 -0.4154639
0.0010346596 0.16261035 -0.36761743 0.38354483 0.20536183 0.53332645 -1.0181997 -0.039284118
-0.36893085 0.059626807 0.029984938 0.27473336 -0.892018 -0.027401548 0.6842885 0.44335276
-0.04858783 0.09746565 0.2207746 -0.6605695 0.49064785 0.47181678 0.6594774 -0.87417877
-0.22535087 -0.15073188 0.051484596 0.0907844 0.14191647 -0.78892297 0.14962097 0.6233045
0.44466943 0.13046153 -0.21329023 0.22877488 -0.30018017 0.53622925 0.7511858 0.8829387
-0.8187589 0.30288455 0.07688779 0.18135545 0.20072712 -0.33585134 0.2801672 -0.59481156
-0.5060456 -0.6772527 0.22598635 -0.21195392 -0.012435685 0.06335841 -0.4066718 -0.19909863
-0.6289926 0.73768634 0.044413008 0.0989728 0.07700934 0.042448156 -0.2375146 0.30050275
-0.36719155 -0.2693408 -0.68553627 0.058816172 -0.07327116 -0.35835338 0.35472855 -0.44046167
-0.19321463 -0.43757895 0.4746117 0.023495782 0.27875528 -0.076278515 0.3760751 0.07317678
-0.11020066 -0.0141118625 0.21027724 0.009661799 0.35876814 -0.19635211 0.13694812 -0.31673196
-0.009747104 0.2561177 0.1345213 0.5148954 0.3519857 0.53746235 0.29826674 -0.51509947
0.041316457 -0.7463858 0.10413702 0.6093262 0.36459506 -0.051126547 0.0040585306 -0.037654813
-0.48983523 0.55876666 0.49333367 0.6333169 -0.31690684 0.14021061 0.1568942 -0.12328838
-0.16709678 0.11145929 0.55429876 0.7701623 -0.06674765 0.3966265 -0.8101495 0.16105689
0.48862 0.5785538 0.003774487 -0.63773584 -0.40793985 -0.24391636 -0.61727446 -0.5574601
-0.09495713 0.44938868 0.25388148 -0.86290485 -0.10106171 0.40122268 0.5523938 0.094576165
-0.15001705 0.2539741 -0.48855516 0.1364053 0.62076104 0.7809868 -1.1398494 0.11910866
0.27248862 0.31045276 -0.024122817 0.1948788 0.22747397 0.070872724 -0.10484986 -0.25595337
-0.6998253 -0.0029971271 -0.013540442 0.21852662 -0.19771601 -0.17213586 -0.08326647 -0.09752385
-0.10256969 -0.41200754 -0.3005828 0.58714694 0.25994962 -0.6582065 -0.091923535 0.2885429
0.6505953 -0.05697396 0.10775766 0.20393741 -0.60625035 0.6621741 0.93835396 0.6130132
-0.51556623 0.3169759 -0.10670196 0.22629309 -0.2594081 0.13232683 -0.7816957 0.39545947
0.36138687 0.5416553 0.1286199 0.09452418 -0.08853142 -0.6877797 0.37101117 0.48957962
0.92999 -0.6248802 0.016316675 -0.01342156 0.118516095 -0.44735903 -0.3144271 0.8006481
0.68889415 -0.10555144 -0.15539765 -0.7421055 -0.039709575 0.028505139 0.5796566 -0.37017322
-0.81119 -0.6962718 0.07969344 -0.35546905 -0.6089975 -0.3147819 0.37140438 0.35951245
00000000: e3fd 72bd b70d ca3d 0656 c03e 278b 7e3e
00000010: aa1a a23e 4743 55bf eab0 1cbe 9fc2 1b3e
00000020: 2c18 b33e 748a 3dbe 467e a8be 4531 77be
00000030: 826a 6f3d 4292 2dbe 9740 17bf d876 a9be
00000040: d9a4 4dbd c08b 9b3e c4c4 65bf 010f f83c
00000050: 0742 173f 3ca3 903e 5c76 823c c2d9 b33b
00000060: 35d7 e03d f673 8abe 9bdf 6e3e 72b8 bc3e
00000070: 26a4 613f 1943 87bf 714f 0e3d 6288 033d
00000080: 8f96 083e 446f b8bd 6ff9 573e 1519 47be
00000090: 534e dcbb 1e6e ff3e 801f ce3e afb7 d4be
000000a0: 6a9d 873a 5483 263e 5a38 bcbe fd5f c43e
000000b0: 5f4a 523e 1588 083f 5e54 82bf 62e8 20bd
000000c0: 81e4 bcbe 3d3b 743d f9a2 f53c daa9 8c3e
000000d0: 4b5b 64bf 3679 e0bc 882d 2f3f 22ff e23e
000000e0: 0804 47bd 129c c73d bd12 623e 151b 29bf
000000f0: 3236 fb3e f891 f13e 83d3 283f 2eca 5fbf
00000100: 61c2 66be 7559 1abe 83e1 523d 2ced b93d
00000110: 8d52 113e dbf6 49bf 3d36 193e e290 1f3f
00000120: b6ab e33e b597 053e c168 5abe f643 6a3e
00000130: 37b1 99be 5246 093f b64d 403f 4508 623f
00000140: 2f9a 51bf af13 9b3e 5877 9d3d 3eb5 393e
00000150: 698b 4d3e b5f4 abbe 1372 8f3e 9245 18bf
00000160: 348c 01bf 6f60 2dbf f768 673e 730a 59be
00000170: 0bbf 4bbc 0ec2 813d 4937 d0be 83e0 4bbe
00000180: a905 21bf 03d9 3c3f 6aea 353d 40b2 ca3d
00000190: 13b7 9d3d 1ede 2d3d 0737 73be 7fdb 993e
000001a0: 8800 bcbe 0ae7 89be 4e7f 2fbf 3ae9 703d
000001b0: 310f 96bd 187a b7be fb9e b53e 3184 e1be
000001c0: 0eda 45be 590a e0be 4e00 f33e 3a7a c03c
000001d0: 03b9 8e3e e937 9cbd ea8c c03e b5dd 953d
000001e0: e2b0 e1bd 7135 67bc eb52 573e 864c 1e3c
000001f0: 75b0 b73e 8710 49be 213c 0c3e b12a a2be
00000200: 51b2 1fbc dc21 833e f4bf 093e 2fd0 033f
00000210: 7837 b43e 2297 093f 6bb6 983e 8fdd 03bf
00000220: 723b 293d 2413 3fbf ca45 d53d cdfc 1b3f
00000230: 34ac ba3e 126a 51bd 6cfd 843b ef3b 1abd
00000240: afcb fabe 550b 0f3f 3b96 fc3e 0e21 223f
00000250: 9d41 a2be 5f93 0f3e e0a8 203e 9e7e fcbd
00000260: 6b1b 2bbe c544 e43d 86e6 0d3f 5b29 453f
00000270: feb2 88bd a112 cb3e f565 4fbf 19ec 243e
00000280: 672c fa3e 1a1c 143f 625d 773b a842 23bf
00000290: 7edd d0be 36c5 79be b305 1ebf b5b5 0ebf
000002a0: e278 c2bd 4616 e63e c1fc 813e 55e7 5cbf
000002b0: 71f9 cebd 0f6d cd3e ae69 0d3f 26b1 c13d
000002c0: 129e 19be e508 823e e723 fabe d5ad 0b3e
000002d0: 32ea 1e3f c0ee 473f 96e6 91bf 3eef f33d
000002e0: a183 8b3e aaf3 9e3e 379d c5bc 4f8e 473e
000002f0: f0ee 683e b825 913d 86bb d6bd 520c 83be
00000300: c027 33bf 736b 44bb bbd8 5dbc 71c5 5f3e
00000310: 1176 4abe 6244 30be 9c87 aabd 96ba c7bd
00000320: 0f10 d2bd a7f2 d2be fde5 99be 434f 163f
00000330: 1e18 853e 3980 28bf 6842 bcbd e5bb 933e
00000340: 6a8d 263f 875d 69bd 0cb0 dc3d f8d4 503e
00000350: 3933 1bbf 3e84 293f f737 703f 6fee 1c3f
00000360: 26fc 03bf aa4a a23e 8f86 dabd 60b9 673e
00000370: 23d1 84be af80 073e 361d 48bf aa79 ca3e
00000380: b307 b93e eca9 0a3f efb4 033e e595 c13d
00000390: f64f b5bd 5512 30bf 2df5 bd3e 2eaa fa3e
000003a0: d313 6e3f 26f8 1fbf 8caa 853c 1ae6 5bbc
000003b0: 91b8 f23d 3e0c e5be 97fc a0be 46f7 4c3f
000003c0: 5e5b 303f 5a2b d8bd 9020 1fbe a0fa 3dbf
000003d0: 82a6 22bd 9c83 e93c 6064 143f 5887 bdbe
000003e0: 26aa 4fbf de3e 32bf 5036 a33d 0a00 b6be
000003f0: 43e7 1bbf 182b a1be b728 be3e 0412 b83e

transformer_encoder.layers.0.self_attn.in_proj_bias f4 [51]
-0.0680455 0.058626596 0.0042475667 0.07850347 0.03811699 -0.011844326 -0.099921554 0.056904014
-0.08414593 0.12411875 0.09804208 -0.09224417 0.019872898 -0.03697778 -0.053171396 -0.053216673
-0.09927297 -0.085751064 0.027144577 0.05537088 0.034399427 0.1489327 -0.07814484 -0.020846637
0.03967146 0.020920781 0.054197665 0.0041731168 -0.04906108 0.043328613 0.017046772 -0.0034567881
0.11457377 -0.08879375 -0.10888622 -0.0028452633 0.030681208 -0.007250678 0.047313925 -0.052274995
0.038264092 -0.04022686 -0.047710087 0.075228885 -0.008706243 0.05578325 0.037133634 0.023386462
0.007941681 0.019065572 0.002974151
00000000: 705b 8bbd 7122 703d 2c2f 8b3b 6dc6 a03d
00000010: 9020 1c3d b40e 42bc aca3 ccbd 2f14 693d
00000020: b454 acbd f931 fe3d 49ca c83d 83ea bcbd
00000030: 7dcc a23c 0376 17bd 40ca 59bd baf9 59bd
00000040: a04f cbbd 419e afbd 4e5e de3c 93cc 623d
00000050: 6ae6 0c3d d081 183e 670a a0bd 91c6 aabc
00000060: 8a7e 223d 0f62 ab3c 5ffe 5d3d a4be 883b
00000070: 45f4 48bd 5879 313d aca5 8b3c 488b 62bb
00000080: a7a5 ea3d 7fd9 b5bd bdff debd 9977 3abb
00000090: 2857 fb3c 1897 edbb 3fcc 413d 4e1e 56bd
000000a0: cfba 1c3d ecc4 24bd a76b 43bd 9a11 9a3d
000000b0: a1a4 0ebc fa7c 643d 7019 183d f794 bf3c
000000c0: d31d 023c 672f 9c3c f9e9 423b

transformer_encoder.layers.0.self_attn.out_proj.weight f4 [17, 17]
0.0061437637 -0.11655398 0.07480053 -0.14530565 0.11782944 0.19936234 0.08955809 -0.092089266
0.08884504 -0.062192976 -0.2411078 -0.31074443 0.24052364 0.088115975 -0.1780907 -0.18254012
-0.22026803 -0.015705455 -0.11718256 0.2995424 -0.16582572 0.23078686 0.07867863 -0.35324332
-0.29859498 -0.06554245 0.009244372 -0.034276996 0.06518772 0.1508867 -0.14398572 -0.064164564
-0.04597175 -0.008891454 -0.011171038 0.031113619 -0.12021932 0.32546636 -0.2766888 0.26740313
-0.13249741 -0.036066867 0.033218477 -0.12212883 0.18336637 0.14329179 -0.029261282 -0.10834779
0.008643784 0.119546175 -0.2227855 0.20287 -0.08079883 -0.15446857 -0.14215487 -0.1095441
-0.32671118 -0.207021 0.032153316 -0.0917048 -0.16246666 0.21574335 0.06962827 -0.048497185
0.13551793 -0.17318915 -0.1020406 0.10539571 0.33956495 0.36137882 0.22380358 -0.20012912
-0.045844354 0.088791355 -0.23251785 0.20357175 0.26993066 -0.10738245 -0.0183907 -0.018008024
0.31197453 -0.018576998 0.087643474 -0.18398328 0.15760884 -0.33989534 0.51515454 -0.041172948
0.0016936739 0.0150715755 -0.037304528 0.26213074 0.32480565 0.24806616 -0.03934551 0.021637797
-0.06961292 0.050499402 0.5384898 -0.2608897 -0.29246023 -0.06936465 0.102949105 -0.15130083
-0.22742693 -0.002625975 0.055349067 0.3075397 -0.2038888 -0.032385558 0.2102782 0.0043890947
-0.24258216 -0.26133442 -0.05160762 0.032350928 0.15327191 0.14178744 -0.058198545 0.13223563
0.2378246 0.10817604 0.07801715 -0.0012373663 -0.0058903266 -0.16880362 -0.039527223 -0.30341557
-0.17697231 -0.16846366 0.053571027 0.18732312 0.055867888 0.21751797 -0.015712215 0.22199237
0.04069958 -0.35432371 -0.16366786 0.2225073 0.11363937 0.06688456 0.31957898 -0.13010196
-0.14334537 0.19856878 -0.22758634 0.19737755 -0.23759454 -0.34529853 0.16668068 0.1455209
-0.062196884 -0.23947343 -0.2043104 0.08959084 0.18180549 0.10525489 -0.05603676 -0.26544976
-0.14588809 -0.15835625 -0.3317564 0.23834307 0.006756772 0.15791194 0.20553333 -0.27171937
0.25434443 -0.106212355 -0.06479283 0.47060987 -0.07058738 0.23663254 -0.033893317 0.100959964
-0.12052023 -0.061584767 -0.10143646 0.14649077 -0.09895714 -0.053397212 -0.16512112 0.0037657057
0.21078849 -0.3586779 -0.124726035 -0.039573364 0.03208632 -0.058400646 -0.27543285 -0.07074529
-0.17981419 0.18470113 -0.08430545 -0.06150323 -0.17153916 0.09014769 -0.051312838 -0.25499785
-0.08416773 -0.11019128 -0.16465491 -0.02082378 -0.039729282 -0.20906977 0.05690441 0.05639316
-0.12795001 0.07197816 -0.1697372 -0.17926715 -0.117882796 0.35514185 0.43940136 0.22229062
0.2517578 -0.2022919 0.26280677 -0.05676357 -0.030141091 -0.2145865 -0.23277642 0.23828
0.030255921 -0.015094581 0.17277436 -0.2593404 -0.15991396 -0.20748712 0.01756797 0.0008652438
0.18347333 0.0517381 -0.14605936 -0.18532296 -0.33081663 -0.09808502 -0.04120369 -0.19363499
-0.34143457 -0.031910602 0.12826985 -0.098092794 0.07082862 0.06514817 0.2463102 0.048520196
0.22930971 -0.047938522 0.15008384 -0.33643737 -0.1327961 0.540653 -0.011803121 0.3995749
00000000: a051 c93b dab3 eebd 0531 993d 01cb 14be
00000010: 9050 f13d a425 4c3e 3b6a b73d 4c99 bcbd
00000020: 63f4 b53d 10be 7ebd f7e4 76be e519 9fbe
00000030: d44b 763e 2676 b43d 695d 36be cceb 3abe
00000040: f18d 61be baa8 80bc 69fd efbd 9f5d 993e
00000050: 38ce 29be 6453 6c3e 4322 a13d 4fdc b4be
00000060: 71e1 98be 1f3b 86bd b575 173c 0966 0cbd
00000070: 2481 853d 0b82 1a3e fe70 13be b668 83bd
00000080: e04c 3cbd 76ad 11bc bb06 37bc fde1 fe3c
00000090: 8c35 f6bd 87a3 a63e 28aa 8dbe 10e9 883e
000000a0: 67ad 07be daba 13bd 1910 083d ae1e fabd
000000b0: 65c4 3b3e 15bb 123e 5bb5 efbc 72e5 ddbd
000000c0: a89e 0d3c a0d4 f43d e221 64be 27bd 4f3e
000000d0: db79 a5bd 022d 1ebe 0c91 11be a858 e0bd
000000e0: b046 a7be 50fd 53be 32b3 033d bacf bbbd
000000f0: a95d 26be d3eb 5c3e 4499 8e3d fca4 46bd
00000100: 36c5 0a3e 7f58 31be a9fa d0bd b5d9 d73d
00000110: 75db ad3e a506 b93e c42c 653e a6ee 4cbe
00000120: 4ac7 3bbd 3ed8 b53d 2919 6ebe 1d75 503e
00000130: 5a34 8a3e 54eb dbbd 18a8 96bc 9085 93bc
00000140: 20bb 9f3e ca2e 98bc 6c7e b33d 1d66 3cbe
00000150: 3664 213e c306 aebe 2be1 033f f7a4 28bd
00000160: 44fe dd3a c5ee 763c a2cc 18bd 0036 863e
00000170: ed4c a63e 0e05 7e3e c228 21bd c041 b13c
00000180: 3891 8ebd 76d8 4e3d 78da 093f 5693 85be
00000190: 59bd 95be 0e0f 8ebd fbd6 d23d 9bee 1abe
000001a0: 9be2 68be 8d18 2cbb b4b5 623d d875 9d3e
000001b0: 3ac8 50be b8a6 04bd 2b53 573e 65d2 8f3b
000001c0: 7567 78be a0cd 85be 8362 53bd 6882 043d
000001d0: 50f3 1c3e ba30 113e 9961 6ebd c768 073e
000001e0: 4b88 733e 668b dd3d 75c7 9f3d 202f a2ba
000001f0: a403 c1bb dbda 2cbe 4ce7 21bd 4959 9bbe
00000200: 3b38 35be bd81 2cbe 4b6d 5b3d a2d1 3f3e
00000210: bad5 643d 08bd 5e3e e7b6 80bc f851 633e
00000220: 9ab4 263d eb69 b5be 8c98 27be f4d8 633e
00000230: c2bb e83d c6fa 883d db9f a33e 7339 05be
00000240: 21c9 12be 9d55 4b3e 650c 69be 571d 4a3e
00000250: fc4b 73be f8ca b0be 57ae 2a3e 6e03 153e
00000260: 29c2 7ebd 8638 75be bf36 51be 677b b73d
00000270: 382b 3a3e e08f d73d cd86 65bd 08e9 87be
00000280: b063 15be 2428 22be fadb a9be 3510 743e
00000290: e967 dd3b abb3 213e 5477 523e cd1e 8bbe
000002a0: 6f39 823e dd85 d9bd 1ab2 84bd c7f3 f03e
000002b0: 1e90 90bd cd4f 723e b8d3 0abd 19c4 ce3d
000002c0: 4fd3 f6bd 4f40 7cbd ebbd cfbd ad01 163e
000002d0: 0baa cabd 09b7 5abd 8315 29be 0fca 763b
000002e0: f0d8 573e a1a4 b7be 5d70 ffbd ae17 22bd
000002f0: f26c 033d 8435 6fbd 8905 8dbe e8e2 90bd
00000300: 3621 38be 4b22 3d3e 56a8 acbd d0ea 7bbd
00000310: f6a7 2fbe 5a9f b83d 692d 52bd 148f 82be
00000320: 2160 acbd f7ab e1bd 4c9b 28be a296 aabc
00000330: 2cbb 22bd 6316 56be 9914 693d 84fc 663d
00000340: 5405 03be 4969 933d 97cf 2dbe cf91 37be
00000350: 896c f1bd 27d5 b53e 37f9 e03e 27a0 633e
00000360: 66e6 803e 9c25 4fbe 9c8e 863e eb80 68bd
00000370: 73ea f6bc 90bc 5bbe f15c 6ebe acff 733e
00000380: 44db f73c 434f 77bc c3eb 303e 44c8 84be
00000390: 7cc0 23be 8177 54be b4ea 8f3c 87d1 623a
000003a0: 6fe0 3b3e 54eb 533d 9690 15be 4dc5 3dbe
000003b0: cc60 a9be cde0 c8bd 33c5 28bd 4048 46be
000003c0: 83d0 aebe b1b4 02bd 2c59 033e e0e4 c8bd
000003d0: 980e 913d 676c 853d be38 7c3e 1dbd 463d
000003e0: 2ad0 6a3e 2f5b 44bd 94af 193e 8541 acbe
000003f0: b3fb 07be 3c68 0a3f e161 41bc 1595 cc3e

transformer_encoder.layers.0.self_attn.out_proj.bias f4 [17]
0.0035506089 0.009841325 -0.005168045 -0.0054269326 -0.0023118863 0.0036565815 -0.0019222752 0.015778227
0.011389313 0.0016974991 0.01214479 0.010337808 -0.0069079464 0.016159704 0.0061748484 0.010247737
-0.01474967
00000000: 55b1 683b 823d 213c b458 a9bb 69d4 b1bb
00000010: 0483 17bb 42a3 6f3b daf4 fbba 5741 813c
00000020: 3e9a 3a3c 9e7e de3a f1fa 463c e95f 293c
00000030: 0e5c e2bb 5b61 843c 6256 ca3b 20e6 273c
00000040: 9aa8 71bc

transformer_encoder.layers.0.linear1.weight f4 [64, 17]
0.42119873 -0.015498814 -0.075253054 0.048090927 0.02850377 0.19288269 -0.11258371 -0.16830844
-0.061246876 0.043098997 0.06795783 0.06893421 0.12020659 0.10074021 -0.0016032673 -0.10606459
-0.033408295 0.0894987 -0.19400871 -0.04690579 0.30697328 0.19467947 0.12455584 0.07234009
0.066967525 -0.13495311 -0.067967534 0.22115536 -0.090839624 0.028121553 -0.01626538 -0.010526783
-0.22923025 -0.020247327 0.086975485 0.010239561 -0.07881592 0.028240446 -0.14272952 -0.0029846125
-0.06770493 -0.25300503 0.018266087 -0.12868536 -0.19388345 0.09677555 -0.043450557 -0.29597688
0.3412469 0.08578249 -0.06807533 -0.07616761 -0.12479782 0.088079564 -0.27024984 0.093880795
0.10978027 -0.041528523 0.2753797 -0.20738903 -0.16876565 0.26263312 -0.3882194 0.15592992
0.01414435 -0.041967086 -0.18939948 -0.20161182 0.19595712 0.079584256 0.1229547 -0.32755575
0.24507862 -0.120658755 0.19001344 -0.034861308 -0.042533733 -0.16857857 -0.037853286 -0.6198664
-0.03718657 0.039482977 0.1832434 -0.058637008 0.15251718 0.06562427 0.1619014 -0.13174507
0.22242591 0.00029503208 -0.086649716 0.17122447 -0.077325724 -0.17899439 -0.068508685 0.0399632
0.20809494 -0.07028047 0.12739736 0.25626326 0.095119074 0.05778623 0.049001575 0.19490571
-0.0686785 -0.0030922035 0.11523565 0.02245337 0.032484103 -0.028873129 -0.18433106 0.14106266
-0.32142395 -0.02507188 0.22002232 0.10845216 -0.024707494 0.35400617 0.20326602 0.031588
0.121778 -0.027565878 -0.037712086 -0.03497397 -0.40974593 -0.0113025885 0.111099124 0.16618972
-0.22854428 0.16012809 -0.1137656 0.6305942 -0.054058626 -0.11964775 -0.07830212 0.07993286
-0.15296261 -0.077034205 0.094775446 -0.033564694 -0.04737852 0.20998211 0.0003170324 0.08465743
0.1075041 0.096644625 -0.18790542 0.105114855 0.2066248 -0.101617195 -0.20616621 -0.20444776
-0.06963786 0.36216256 0.1641724 0.011871308 0.0015025742 -0.046360746 -0.26638383 -0.0888496
-0.40188614 -0.09658516 -0.25194284 0.006936088 0.07704119 -0.10162184 -0.12160251 -0.10530086
-0.044558972 0.36185214 0.39010504 0.23314746 -0.18187709 -0.2390307 0.113210335 -0.11496458
0.032627467 0.09556107 0.26693493 -0.26719162 -0.099828556 -0.25087202 0.14490467 0.10851699
-0.18580781 -0.13195117 0.22013791 0.04978374 -0.011842613 0.08091602 -0.3312169 0.014482639
0.024630474 0.57009417 0.031295314 0.022377094 0.029258594 -0.00016520076 -0.26678813 0.043091428
0.0635602 -0.104766786 -0.13945127 -0.036969297 0.09690934 -0.04823652 0.06344024 -0.23077628
0.26398084 -0.11752179 0.1256142 -0.3431701 0.16032323 -0.18984662 0.0057812063 -0.2925969
0.1453127 0.0014522946 0.2497455 -0.057530165 0.05566864 0.11588458 -0.0149804 -0.31228173
0.018675413 0.15267457 -0.058670424 -0.14883067 0.05942797 0.008806569 -0.03644863 -0.3325417
-0.12570252 0.04745832 -0.11307751 0.17497131 0.17234471 0.24723864 -0.2470937 -0.08526897
-0.11059955 0.11879407 -0.23452711 -0.19203313 0.007445128 -0.20082311 0.04121805 -0.2296948
-0.19611506 0.14304343 0.060801588 -0.005362617 0.13778923 -0.047415122 0.0150301615 0.21585485
00000000: 5ca7 d73e bdee 7dbc 461e 9abd fefa 443d
00000010: bd80 e93c 0a83 453e 4a92 e6bd 0c59 2cbe
00000020: 01de 7abd 9388 303d 7a2d 8b3d 612d 8d3d
00000030: df2e f63d e250 ce3d b924 d2ba 6438 d9bd
00000040: 23d7 08bd 184b b73d 38aa 46be 4920 40bd
00000050: 9a2b 9d3e 0e5a 473e 2217 ff3d 0b27 943d
00000060: 4526 893d 2631 0abe 9032 8bbd 8d76 623e
00000070: 200a babd 2c5f e63c f93e 85bc 8778 2cbc
00000080: 56bb 6abe b9dd a5bc 3420 b23d d5c3 273c
00000090: 3e6a a1bd 8258 e73c b027 12be 7d99 43bb
000000a0: e2a8 8abd e089 81be c3a2 953c 18c6 03be
000000b0: 6289 46be 4232 c63d 36f9 31bd 488a 97be
000000c0: eab7 ae3e bbae af3d 146b 8bbd c4fd 9bbd
000000d0: 0096 ffbd 0f63 b43d 305e 8abe 9344 c03d
000000e0: 7ad4 e03d d019 2abd 91fe 8c3e ca5d 54be
000000f0: e7d0 2cbe d977 863e b1c4 c6be 18ac 1f3e
00000100: b4bd 673c aee5 2bbd f0f1 41be 5473 4ebe
00000110: fca8 483e 12fd a23d accf fb3d 63b5 a7be
00000120: e4f5 7a3e f01b f7bd e292 423e bbca 0ebd
00000130: da37 2ebd dc9f 2cbe 0c0c 1bbd 90af 1ebf
00000140: f250 18bd e7b8 213d 28a4 3b3e 5c2d 70bd
00000150: 772d 1c3e 0466 863d 7bc9 253e 2ee8 06be
00000160: 9ec3 633e 89ae 9a39 6875 b1bd 7855 2f3e
00000170: f35c 9ebd 4e4a 37be 484e 8cbd 74b0 233d
00000180: d716 553e 35ef 8fbd 7474 023e f034 833e
00000190: cacd c23d 41b1 6c3d e0b5 483d 5d95 473e
000001a0: 50a7 8cbd 91a6 4abb ab00 ec3d 21f0 b73c
000001b0: 0d0e 053d 5787 ecbc 48c1 3cbe bb72 103e
000001c0: ae91 a4be 8b63 cdbc 884d 613e 2b1c de3d
000001d0: 5f67 cabc 4c40 b53e f824 503e 6b62 013d
000001e0: be66 f93d d6d1 e1bc fd77 1abd de40 0fbd
000001f0: 38ca d1be 7e2e 39bc f087 e33d a32d 2a3e
00000200: 8307 6abe 9ef8 233e f0fd e8bd 9f6e 213f
00000210: 946c 5dbd e109 f5bd dd5c a0bd d7b3 a33d
00000220: 3ba2 1cbe 1cc4 9dbd a119 c23d 227b 09bd
00000230: fb0f 42bd 8d05 573e 5e37 a639 e060 ad3d
00000240: 1c2b dc3d 9eed c53d 476a 40be 7546 d73d
00000250: 7495 533e ad1c d0bd 3c1d 53be c15a 51be
00000260: 4b9e 8ebd 5f6d b93e cf1c 283e e07f 423c
00000270: 06f2 c43a c4e4 3dbd 7663 88be c7f6 b5bd
00000280: 05c4 cdbe 71ce c5bd a7fe 80be 2048 e33b
00000290: c5c7 9d3d 1c1f d0bd bd0a f9bd faa7 d7bd
000002a0: 7883 36bd af44 b93e d9bb c73e 35be 6e3e
000002b0: fd3d 3abe 77c4 74be d2da e73d 8d72 ebbd
000002c0: 61a4 053d 86b5 c33d b2ab 883e 57cd 88be
000002d0: ea72 ccbd 4c72 80be e461 143e 283e de3d
000002e0: 6744 3ebe 351e 07be d56b 613e 09ea 4b3d
000002f0: 8507 42bc 4cb7 a53d 4395 a9be 9748 6d3c
00000300: d9c5 c93c b1f1 113f 842f 003d 2b50 b73c
00000310: b8af ef3c be39 2db9 7498 88be a380 303d
00000320: da2b 823d f88f d6bd 50cc 0ebe 1e6d 17bd
00000330: 6778 c63d a893 45bd f5ec 813d 9e50 6cbe
00000340: 7f28 873e 44af f0bd 02a1 003e feb3 afbe
00000350: c62b 243e 2767 42be 4670 bd3b 43cf 95be
00000360: dacc 143e ec5a be3a 49bd 7f3e c0a4 6bbd
00000370: cd04 643d e554 ed3d 5a70 75bc 64e3 9fbe
00000380: 2efd 983c b956 1c3e 6650 70bd 1167 18be
00000390: be6a 733d 6d49 103c 294b 15bd e842 aabe
000003a0: 29b8 00be a863 423d 2e95 e7bd ae2b 333e
000003b0: 227b 303e 202c 7d3e 2206 7dbe 7fa1 aebd
000003c0: 0482 e2bd 4e4a f33d e027 70be 55a4 44be
000003d0: 43f6 f33b 93a4 4dbe 42d4 283d 1d35 6bbe
000003e0: 63d2 48be fa79 123e 160b 793d e4b8 afbb
000003f0: 9f18 0d3e 5c36 42bd 1141 763c 0e09 5d3e

transformer_encoder.layers.0.linear1.bias f4 [64]
-0.161172 -0.2914217 -0.10907544 -0.19208449 -0.06916837 -0.03130567 -0.2043784 -0.13947876
-0.049752854 -0.22599845 -0.19002199 -0.27167135 -0.48083302 -0.098979704 -0.13290633 -0.18926966
-0.065464124 -0.48475385 -0.12995693 -0.14580815 -0.17705849 -0.16207983 -0.2652525 -0.23361062
-0.26789713 -0.07479734 -0.20687258 -0.036234844 -0.1430137 -0.15102707 -0.03164539 0.05372045
-0.23811592 0.049187016 -0.16809763 -0.18068552 -0.16853733 -0.35293984 -0.028267026 -0.26884052
-0.15424858 -0.12331742 0.094567224 -0.108017154 -0.23246221 -0.3082495 0.05030832 -0.19485837
-0.054485533 -0.3219924 0.013903259 0.019197904 0.013080108 -0.05120161 -0.24470392 -0.17351618
-0.15263589 -0.19895609 -0.12015836 -0.3418444 -0.050280094 0.010047171 -0.053260848 0.080376156
00000000: 460a 25be 3a35 95be f262 dfbd ccb1 44be
00000010: 25a8 8dbd 603a 00bd 9248 51be 85d3 0ebe
00000020: a6c9 4bbd 236c 67be 2095 42be 8218 8bbe
00000030: bf2f f6be dfb5 cabd 9918 08be e8cf 41be
00000040: 0e12 86bd a831 f8be 6e13 05be bb4e 15be
00000050: d24e 35be 41f8 25be 2dcf 87be 9f37 6fbe
00000060: d029 89be 592f 99bd 68d6 53be fd6a 14bd
00000070: 2f72 12be d7a6 1abe 999e 01bd f909 5c3d
00000080: a9d4 73be 5378 493d c921 2cbe a005 39be
00000090: 0d95 2cbe 88b4 b4be 4090 e7bc 77a5 89be
000000a0: 57f3 1dbe d88d fcbd 76ac c13d 1938 ddbd
000000b0: 930a 6ebe e1d2 9dbe 1910 4e3d f488 47be
000000c0: 392c 5fbd 30dc a4be 7fca 633c ec44 9d3c
000000d0: f34d 563c c8b8 51bd aa93 7abe 3aae 31be
000000e0: 954c 1cbe 25bb 4bbe 9615 f6bd 3b06 afbe
000000f0: 80f2 4dbd e49c 243c 0c28 5abd 419c a43d

transformer_encoder.layers.0.linear2.weight f4 [17, 64]
0.030333744 0.06574762 0.09376553 0.09242304 -0.4155469 -0.04041014 -0.07182288 -0.06426882
0.1080852 0.06073932 0.34352744 0.077473104 -0.28459767 -0.11913451 0.080937244 0.27045253
-0.0019086255 -0.16679169 0.17143252 -0.034414195 0.14588174 0.110723555 -0.047499456 0.18014745
-0.3030989 -0.1277688 0.0303341 0.03420976 -0.17109205 -0.040626965 0.14810602 0.119233385
0.13954067 -0.048235 0.14234577 -0.017909883 0.19209632 0.12695178 0.027352605 0.072830364
0.046444274 -0.10111167 0.08275985 -0.000386696 -0.03569331 0.092697136 0.02273481 -0.069219135
0.25833368 -0.082922675 -0.0051780757 0.15551487 -0.0431413 -0.17067565 -0.002238195 -0.12208651
0.22130531 1.5348769e-05 -0.11264625 -0.026263399 0.07622012 0.069932364 0.18302557 -0.057372794
0.18203834 0.066947594 -0.028241323 -0.05201829 0.2114109 0.12190653 -0.0041509443 0.10874156
0.013917645 -0.047830094 -0.056859173 0.10010082 0.27716216 -0.096151166 -0.042344086 -0.013085852
0.040997043 -0.117975816 -0.13551097 0.021438198 -0.122952305 0.046588287 0.19461115 0.08096992
-0.023298351 0.3003066 -0.10596619 -0.090179935 -0.027493184 0.08652895 -0.0045046424 0.048846856
-0.060703333 0.097017884 0.06840969 0.20525253 -0.04044734 0.074247986 -0.1512195 -0.2093548
-0.06347177 0.024659622 0.033064917 -0.036536053 0.009601369 0.02189719 -0.12447857 0.23602432
-0.09864913 -0.07564024 -0.02348742 -0.0675622 0.24484023 0.057185113 0.09865215 0.083980635
-0.081858695 0.007124636 0.15017192 -0.24622215 0.038042128 -0.08525809 -0.04031541 0.14584142
-0.073857866 0.17973931 -0.07388816 0.23338625 0.18464029 0.021783391 0.095794775 -0.12175942
-0.03738263 0.043969642 -0.22538103 0.10437414 0.15835147 -0.08985743 -0.032438308 -0.16679353
0.05067888 0.11305512 -0.1509701 0.040991265 -0.0407469 0.03016924 0.2266158 -0.13468911
-0.23053792 0.04384988 0.0488264 -0.021284187 -0.02113347 0.28727302 -0.13019593 0.07228116
-0.08411969 -0.15513948 0.011736691 0.074418776 0.034007043 -0.10063441 0.032914907 -0.11701665
-0.05723333 -0.025414413 -0.07076089 -0.20187949 -0.017089615 -0.052072883 -0.090848275 0.03560917
-0.16194803 -0.07782752 -0.13442637 0.1036088 0.071481496 0.13755052 -0.14502272 0.03906473
-0.0068467967 -0.070925735 0.2566483 0.2777936 -0.04215163 -0.1166986 -0.081708975 0.056754775
-0.07674785 -0.052142475 0.0011208581 0.02786653 -0.047827434 -0.038065854 0.045581147 -0.03309628
0.057104077 -0.17098714 -0.09460717 -0.010577053 -0.07161526 0.27021164 0.23735504 -0.22542772
0.18189451 0.10181915 -0.31431937 -0.18392491 -0.07963381 -0.2348349 -0.06804305 -0.39354998
-0.12610155 -0.040462386 -0.21112335 -0.19131891 0.12777008 -0.09169348 -0.13830456 0.07332034
-0.39474612 -0.15598992 -0.016422078 0.14896521 0.14432344 -0.014510119 0.15160623 0.14634973
0.027578795 -0.1187098 -0.15482472 0.13155347 0.14459603 0.22912875 -0.049965218 0.027498962
-0.106540084 -0.035393726 0.062551156 0.068914086 -0.05535722 -0.0103526795 0.053645816 -0.22767486
-0.028725902 -0.019388013 0.031814754 0.07311936 0.011051368 -0.27168387 -0.20768571 -0.045675855
00000000: 797e f83c b0a6 863d 2408 c03d 4a48 bd3d
00000010: 90c2 d4be 1a85 25bd e017 93bd 5f9f 83bd
00000020: c65b dd3d cbc9 783d d4e2 af3e 38aa 9e3d
00000030: c9b6 91be cbfc f3bd 6dc2 a53d c178 8a3e
00000040: d82a faba 71cb 2abe 028c 2f3e e6f5 0cbd
00000050: 0662 153e 08c3 e23d ca8e 42bd 9378 383e
00000060: c72f 9bbe d3d5 02be 387f f83c 891f 0c3d
00000070: c132 2fbe 7668 26bd 1ba9 173e a230 f43d
00000080: c0e3 0e3e 1092 45bd 17c3 113e bfb7 92bc
00000090: e6b4 443e a6ff 013e 9212 e03c 1628 953d
000000a0: 5a3c 3e3d a313 cfbd ff7d a93d 75bd cab9
000000b0: 2633 12bd ffd7 bd3d 5a3e ba3c c3c2 8dbd
000000c0: 5044 843e 5dd3 a9bd d9ac a9bb 4a3f 1f3e
000000d0: efb4 30bd 99c5 2ebe aeae 12bb 7e08 fabd
000000e0: dc9d 623e 3bc1 8037 14b3 e6bd 5726 d7bc
000000f0: 4b19 9c3d b338 8f3d 0e6b 3b3e bcff 6abd
00000100: 4268 3a3e d21b 893d 595a e7bc 2111 55bd
00000110: 197c 583e 21aa f93d a504 88bb e5b3 de3d
00000120: d606 643c 7de9 43bd 2ae5 68bd a901 cd3d
00000130: 33e8 8d3e e7ea c4bd fe70 2dbd 0b66 56bc
00000140: 84ec 273d 4e9d f1bd 63c3 0abe 299f af3c
00000150: 6bce fbbd 5cd3 3e3d 2548 473e 8fd3 a53d
00000160: 2fdc bebc c9c1 993e cd04 d9bd 42b0 b8bd
00000170: 6339 e1bc 1736 b13d ae9b 93bb a413 483d
00000180: 0fa4 78bd 50b1 c63d 611a 8c3d b82d 523e
00000190: 1cac 25bd 540f 983d 49d9 1abe 1b61 56be
000001a0: 7dfd 81bd fa02 ca3c 146f 073d d4a6 15bd
000001b0: 0f4f 1d3c bc61 b33c 9fee febd 5cb0 713e
000001c0: 8e08 cabd 45e9 9abd b168 c0bc 0d5e 8abd
000001d0: 66b7 7a3e f03a 6a3d 230a ca3d 0afe ab3d
000001e0: 88a5 a7bd c775 e93b abc6 193e a921 7cbe
000001f0: 10d2 1b3d cb9b aebd c521 25bd 7457 153e
00000200: cb42 97bd 950d 383e ad52 97bd cefc 6e3e
00000210: 5812 3d3e 1573 b23c 0d30 c43d 015d f9bd
00000220: 871e 19bd 8319 343d 49ca 66be 1cc2 d53d
00000230: e326 223e 2c07 b8bd 08de 04bd eccb 2abe
00000240: a894 4f3d 7189 e73d e897 1abe 75e6 273d
00000250: 39e6 26bd 7b25 f73c f90d 683e f1eb 09be
00000260: 2212 6cbe ef9b 333d 31fe 473d 2d5c aebc
00000270: 1920 adbc 7315 933e 1552 05be 2508 943d
00000280: f246 acbd e2dc 1ebe 404b 403c df68 983d
00000290: f84a 0b3d 6a19 cebd c8d1 063d 6da6 efbd
000002a0: 7f6d 6abd e331 d0bc 16eb 90bd 7fb9 4ebe
000002b0: 85ff 8bbc 604a 55bd a90e babd ecda 113d
000002c0: b4d5 25be 0964 9fbd 11a7 09be da30 d43d
000002d0: e464 923d 0bda 0c3e d680 14be 5702 203d
000002e0: 185b e0bb 8341 91bd 6867 833e f63a 8e3e
000002f0: 30a7 2cbd adff eebd 0957 a7bd b277 683d
00000300: fa2d 9dbd 5993 55bd c2e9 923a 5948 e43c
00000310: b3e6 43bd f1ea 1bbd 4cb3 3a3d f78f 07bd
00000320: f7e5 693d 4117 2fbe 67c1 c1bd 604b 2dbc
00000330: 05ab 92bd 2e59 8a3e 330d 733e 86d6 66be
00000340: 8e42 3a3e 8f86 d03d 78ee a0be d056 3cbe
00000350: 0d17 a3bd 8f78 70be 285a 8bbd 627f c9be
00000360: c420 01be e3bb 25bd b830 58be 1be9 43be
00000370: 29d6 023e cbc9 bbbd b69f 0dbe f928 963d
00000380: 2a1c cabe d2bb 1fbe 9887 86bc 568a 183e
00000390: 86c9 133e dabb 6dbc aa3e 1b3e b4dc 153e
000003a0: edec e13c 201e f3bd 5f8a 1ebe f4b5 063e
000003b0: fb10 143e baa0 6a3e 54a8 4cbd 8145 e13c
000003c0: b031 dabd 03f9 10bd d21a 803d d422 8d3d
000003d0: 41be 62bd 499e 29bc b7bb 5b3d 9923 69be
000003e0: 9552 ebbc 9cd3 9ebc 3050 023d 9abf 953d
000003f0: cc10 353c 261a 8bbe 90ab 54be 9b16 3bbd

transformer_encoder.layers.0.linear2.bias f4 [17]
0.116811 -0.015903125 -0.03584231 -0.07717565 -0.00028866902 -0.052779894 -0.057948932 -0.095612794
-0.0033938773 -0.020989891 -0.010633823 -0.053463638 0.049855735 0.02864345 -0.04207757 -0.09070403
0.089487545
00000000: 9b3a ef3d 4547 82bc 63cf 12bd 440e 9ebd
00000010: 8058 97b9 bb2f 58bd dc5b 6dbd a4d0 c3bd
00000020: d06b 5ebb fef2 abbc 7d39 2ebc b0fc 5abd
00000030: 8735 4c3d aba5 ea3c 8859 2cbd 09c3 b9bd
00000040: 3f45 b73d

transformer_encoder.layers.0.norm1.weight f4 [17]
0.7364128 0.78167087 0.7260937 0.83008236 1.0115823 1.0954566 0.86345166 0.93152124
1.1075488 0.95422053 0.8981749 0.9248655 1.0142568 0.82942224 1.0572536 1.0023272
0.7393315
00000000: 8d85 3c3f 951b 483f 47e1 393f 4780 543f
00000010: 877b 813f ec37 8c3f 2b0b 5d3f 2d78 6e3f
00000020: 29c4 8d3f cc47 743f caee 653f fcc3 6c3f
00000030: 2bd3 813f 0455 543f 1654 873f 424c 803f
00000040: d444 3d3f

transformer_encoder.layers.0.norm1.bias f4 [17]
-0.011869813 -0.014591749 -0.017217303 -0.052308686 -0.057929736 0.11699998 0.059199873 0.030911015
0.01491299 -0.0407518 0.038025636 -0.05717193 0.015164844 -0.030171042 0.04535073 -0.13282934
0.022428004
00000000: 9b79 42bc 3b12 6fbc 4d0b 8dbc a241 56bd
00000010: bb47 6dbd af9d ef3d 917b 723d 1939 fd3c
00000020: 9d55 743c 5ceb 26bd c5c0 1b3d 1d2d 6abd
00000030: f775 783c 4329 f7bc b0c1 393d 6a04 08be
00000040: efba b73c

transformer_encoder.layers.0.norm2.weight f4 [17]
0.9237712 0.96802616 0.8921119 0.9806184 1.0181825 1.1268008 0.96979475 0.97725195
1.0754225 1.1498626 1.0420879 0.9402651 1.0082729 0.9305385 1.1490287 1.0663204
0.9022048
00000000: 457c 6c3f 90d0 773f 7261 643f cf09 7b3f
00000010: ce53 823f 023b 903f 7844 783f 2f2d 7a3f
00000020: 72a7 893f b32e 933f 2363 853f 37b5 703f
00000030: 160f 813f c537 6e3f 5f13 933f 307d 883f
00000040: e5f6 663f

transformer_encoder.layers.0.norm2.bias f4 [17]
-0.011442247 0.022182778 0.050288606 -0.067647666 0.1006371 0.0024865228 0.11117007 0.021900732
0.023609437 -0.109676786 0.03170569 -0.090739295 0.040919412 -0.09726069 -0.0021276383 -0.09550245
0.056372654
00000000: 4378 3bbc a8b8 b53c 6dfb 4d3d dc8a 8abd
00000010: d31a ce3d eef4 223b 22ad e33d 2a69 b33c
00000020: 9468 c13c 399e e0bd d3dd 013d 86d5 b9bd
00000030: 1d9b 273d 9d30 c7bd d96f 0bbb ca96 c3bd
00000040: 03e7 663d

transformer_encoder.layers.1.self_attn.in_proj_weight f4 [51, 17]
-0.20400038 -0.20780626 -0.12129525 0.09477813 -0.17782156 -0.31176728 -0.10356896 0.17866328
0.35808846 -0.17905168 0.23505637 -0.15458106 0.33747208 -0.07671842 -0.07941165 -0.24145195
0.1168813 -0.056664832 -0.29756883 -0.0027624834 -0.1807322 0.09937208 -0.25122824 -0.028318305
0.5121622 0.3773315 -0.45129615 -0.02858863 -0.19547775 0.04318246 -0.21016945 -0.49351525
0.34843457 0.12876593 0.063905686 0.13985898 -0.18638407 7.682884e-05 0.10236021 -0.053207815
-0.13822962 -0.046331562 -0.17167628 0.22944014 0.05407842 0.12673353 -0.2863946 0.3055388
-0.20081031 0.20726581 0.09461523 -0.30593243 -0.26886964 -0.09378542 0.35168552 0.085319296
-0.094845735 -0.04975733 0.58004636 -0.21619916 0.16668798 -0.07257723 -0.1759132 -0.10356294
-0.47603565 -0.3799851 0.34897012 0.2629131 -0.17091927 0.019556075 0.15984328 0.019305898
0.18677886 -0.2977766 -0.15130426 0.37630704 0.37957704 -0.14443222 0.07527345 -0.06684844
0.3562923 0.12643337 -0.12592691 0.26769876 0.25257924 -0.3344516 0.0014955932 0.032137595
0.12552296 0.07328551 -0.043682255 -0.02451594 0.2915906 -0.55285054 -0.021935726 -0.07339707
0.10090114 -0.0758604 -0.09407325 -0.083875895 0.14086694 -0.49830368 0.24968632 -0.5977296
-0.058214884 0.018339327 -0.07187 -0.118203245 -0.097360015 -0.34080014 0.39073035 -0.43726596
0.27613544 0.274663 -0.35329455 -0.29874164 0.450883 0.31569225 0.4357642 -0.17511128
0.50259566 0.33409896 -0.071540244 -0.026255246 -0.40135404 -0.068243094 0.2680068 0.35424262
0.04441378 -0.17351012 -0.35735157 0.63680834 0.29786202 0.027117083 -0.119083434 -0.33182052
-0.011794826 0.037193634 0.07038142 0.20135942 0.13523617 -0.16854072 0.14998242 -0.08100514
-0.19440022 0.34785935 -0.36668804 -0.19851798 0.020525027 -0.106828064 0.41913432 -0.1718777
-0.040269416 0.15653165 0.17005488 0.21702632 0.13269475 0.20217882 -0.20656155 -0.056552976
0.18536423 0.019362599 0.21226601 -0.45492387 -0.13211718 -0.02835852 -0.35396132 0.20558436
0.037542164 0.0047150864 0.26821482 -0.1742948 -0.23796321 -0.026732845 0.16865686 -0.21616249
-0.22039475 0.18044172 -0.13416283 -0.38042673 -0.23593037 -0.10361867 -0.21451116 -0.025894627
0.24168558 0.52033144 0.105415195 0.11783623 -0.10915851 -0.07491588 -0.31128207 -0.28269058
-0.42650872 -0.007554276 -0.19444431 0.27756327 -0.28753698 0.29329178 0.06987269 0.36266416
0.1048233 0.2198464 -0.124181524 0.14092797 0.008525886 0.27007484 0.14029762 -0.23352696
0.40139836 -0.29639438 0.18218738 0.31885847 -0.028488962 0.18327916 0.267076 -0.34304383
0.13826303 0.08896583 -0.3395884 0.20532195 -0.22446102 0.350368 -0.3669279 0.15138775
-0.030427955 0.29060254 0.23146349 0.12685004 0.0030771536 -0.29648045 -0.075611964 0.19456299
0.0060154316 -0.14827764 -0.2830145 -0.082782425 0.09933886 -0.018327527 -0.14447096 0.092947744
0.13632722 0.006667986 0.0024892024 -0.2159552 -0.08120783 0.028463922 0.22198735 -0.16352944
0.3807887 -0.11755244 -0.12360097 -0.060598455 -0.43010384 -0.26505974 0.2873635 0.36223748
00000000: 7ae5 50be 2acb 54be a569 f8bd 091b c23d
00000010: db16 36be f69f 9fbe f71b d4bd 82f3 363e
00000020: 5f57 b73e 5359 37be 9eb2 703e 7f4a 1ebe
00000030: 24c9 ac3e 8c1e 9dbd 93a2 a2bd 2e3f 77be
00000040: 775f ef3d 6219 68bd f15a 98be c80a 35bb
00000050: dd11 39be 9783 cb3d fda0 80be cafb e7bc
00000060: 101d 033f 9831 c13e 4a10 e7be b432 eabc
00000070: 522b 48be 17e0 303d a936 57be 08ae fcbe
00000080: 0466 b23e 37db 033e fce0 823d 3137 0f3e
00000090: 77db 3ebe 2b1f a138 3ba2 d13d 70f0 59bd
000000a0: 118c 0dbe 2ac6 3dbd e8cb 2fbe 5bf2 6a3e
000000b0: 5581 5d3d 6fc6 013e 50a2 92be 956f 9c3e
000000c0: 38a1 4dbe 7d3d 543e a1c5 c13d 2da3 9cbe
000000d0: 48a9 89be 9212 c0bd 2010 b43e e2bb ae3d
000000e0: 7b3e c2bd 58ce 4bbd eb7d 143f 5063 5dbe
000000f0: 41b0 2a3e 5fa3 94bd 9722 34be cf18 d4bd
00000100: f2ba f3be 688d c2be 36ac b23e 8c9c 863e
00000110: 7605 2fbe 1034 a03c f5ad 233e 6727 9e3c
00000120: f542 3f3e 2d76 98be 81ef 1abe 51ab c03e
00000130: ec57 c23e 0ae6 13be f728 9a3d d6e7 88bd
00000140: f26b b63e c077 013e fcf2 00be d00f 893e
00000150: 1152 813e 3d3d abbe c807 c43a b6a2 033d
00000160: 1789 003e b716 963d 2aec 32bd a7d5 c8bc
00000170: 5d4b 953e 9d87 0dbf 8db2 b3bc 3451 96bd
00000180: 42a5 ce3d b35c 9bbd 7aa9 c0bd 20c7 abbd
00000190: 6c3f 103e a921 ffbe c5ad 7f3e cf04 19bf
000001a0: bb72 6ebd 5b3c 963c 9430 93bd 8b14 f2bd
000001b0: b064 c7bd 5b7d aebe cf0d c83e 53e1 dfbe
000001c0: a061 8d3e a1a0 8c3e 06e3 b4be aaf4 98be
000001d0: 23da e63e 6aa2 a13e 7c1c df3e 5f50 33be
000001e0: 1caa 003f 050f ab3e b183 92bd 3e15 d7bc
000001f0: 477e cdbe 09c3 8bbd 3038 893e 4a5f b53e
00000200: 39eb 353d a3ac 31be c9f6 b6be df05 233f
00000210: 5f81 983e a524 de3c 04e2 f3bd 61e4 a9be
00000220: 163f 41bc 5a58 183d 2224 903d 2a31 4e3e
00000230: 5a7b 0a3e f095 2cbe fe94 193e 06e6 a5bd
00000240: da10 47be 9f1a b23e 89be bbbe 4c48 4bbe
00000250: 1a24 a83c acc8 dabd c698 d63e b500 30be
00000260: 8bf1 24bd d549 203e de22 2e3e 263c 5e3e
00000270: 22e1 073e f707 4f3e df84 53be 18a4 67bd
00000280: 1fd0 3d3e 509e 9e3c 435c 593e c8eb e8be
00000290: ba49 07be 2050 e8bc 6b3a b5be b584 523e
000002a0: d0c5 193d 0381 9a3b 7453 893e 567a 32be
000002b0: a1ac 73be d7fe dabc 62b4 2c3e b359 5dbe
000002c0: 29af 61be b7c5 383e fb61 09be 4bc7 c2be
000002d0: bb97 71be 0636 d4bd d0a8 5bbe f820 d4bc
000002e0: 6d7c 773e 7134 053f ece3 d73d 1f54 f13d
000002f0: 7f8e dfbd 7f6d 99bd 5d60 9fbe d2bc 90be
00000300: 5a5f dabe dc89 f7bb 691c 47be c61c 8e3e
00000310: 0c38 93be 572a 963e 6a19 8f3d 1eaf b93e
00000320: 99ad d63d 6a1f 613e e252 febd 6c4f 103e
00000330: 28b0 0b3c 4047 8a3e 2eaa 0f3e b121 6fbe
00000340: 1684 cd3e 01c1 97be 548f 3a3e 6b41 a33e
00000350: af61 e9bc 88ad 3b3e 2fbe 883e 71a3 afbe
00000360: d394 0d3e b833 b63d 88de adbe eb3f 523e
00000370: 1cd9 65be 6f63 b33e f9dd bbbe 6405 1b3e
00000380: 0c44 f9bc dbc9 943e c404 6d3e fae4 013e
00000390: 12aa 493b 49cc 97be 72da 9abd 853b 473e
000003a0: 191d c53b 18d6 17be 47e7 90be d589 a9bd
000003b0: 2c72 cb3d 9c23 96bc 32f0 13be 635b be3d
000003c0: 5d99 0b3e 1f7f da3b e321 233b 5c23 5dbe
000003d0: 4a50 a6bd 2c2d e93c a750 633e 4374 27be
000003e0: bdf6 c23e 55bf f0bd 8122 fdbd 1636 78bd
000003f0: 9236 dcbe e9b5 87be 4f21 933e 3177 b93e

transformer_encoder.layers.1.self_attn.in_proj_bias f4 [51]
0.13981605 -0.037140083 0.029094035 0.100408666 0.005282162 -0.034123857 0.02040831 -0.001720987
-0.07518942 -0.025283942 -0.089795426 -0.008316404 -0.10534493 -0.09249839 0.05316388 0.056475215
-0.044322804 -0.040961865 -0.021877805 0.015448937 0.022675322 -0.019629378 -0.04200402 -0.0079954
-0.048362724 -0.03263021 -0.06286294 -0.04400668 -0.042411067 0.042548757 0.05142164 0.05457063
0.03977626 0.03396015 0.16376434 0.1067663 -0.07539421 -0.06421803 -0.047755912 -0.023933494
-0.024069685 0.08758175 -0.017669823 0.031732216 0.08005021 0.079444684 0.03504542 -0.075198814
0.11545848 -0.08639024 0.089163385
00000000: f02b 0f3e 3320 18bd 9d56 ee3c 0fa3 cd3d
00000010: fd15 ad3b 75c5 0bbd 542f a73c be92 e1ba
00000020: e9fc 99bd 4520 cfbc aae6 b7bd 8741 08bc
00000030: 15bf d7bd cc6f bdbd 5ec2 593d 8e52 673d
00000040: d48b 35bd a1c7 27bd 1539 b3bc 8a1d 7d3c
00000050: 99c1 b93c cacd a0bc 680c 2cbd 23ff 02bc
00000060: fe17 46bd 41a7 05bd 49be 80bd 5940 34bd
00000070: 3ab7 2dbd 9b47 2e3d 7f9f 523d 7485 5f3d
00000080: 6eec 223d cc19 0b3d d7b1 273e 4aa8 da3d
00000090: 4868 9abd be84 83bd b49b 43bd 2d10 c4bc
000000a0: ca2d c5bc 0f5e b33d 4ec0 90bc a4f9 013d
000000b0: 5df1 a33d e5b3 a23d c98b 0f3d d601 9abd
000000c0: 7f75 ec3d 5eed b0bd 4b9b b63d

transformer_encoder.layers.1.self_attn.out_proj.weight f4 [17, 17]
0.071164295 -0.12209601 0.1252691 0.20555507 0.11030564 0.2892224 0.18237829 0.04501511
0.023897167 -0.0534327 -0.22440614 -0.23644814 0.26190057 0.11623604 -0.18993005 -0.055893753
-0.22591205 -0.009468853 0.10004241 0.3690187 -0.37588477 0.33786377 -0.030092096 -0.19380197
-0.1479296 -0.07545694 -0.11478607 -0.21487065 0.16033597 -0.024290519 -0.035345092 -0.119667664
0.02990401 0.18012486 -0.110812835 -0.15517871 -0.09287124 0.287864 -0.21607052 0.2010382
0.111394204 -0.03247706 0.005032212 -0.049906783 0.0487662 0.15816174 -0.095806 -0.123803414
-0.07524032 0.13712558 -0.29702708 0.22016501 -0.12719616 -0.14059256 -0.12140507 -0.11769631
-0.21345235 -0.18800631 -0.00461953 -0.068498 -0.1274566 0.12352581 -0.05225124 0.019828558
0.031223163 -0.2849393 -0.23230734 0.045883987 0.18516484 0.20392768 0.086578496 -0.002786654
-0.16008216 0.15709169 -0.30390424 0.23973417 0.1542291 -0.03850263 0.23170443 -0.16619879
0.3137368 -0.20673417 0.13266744 -0.07906025 -0.048463784 -0.14095084 0.2567784 -0.09438714
0.064259365 0.098371044 0.136578 0.26183292 0.20036432 0.29143623 0.010684454 -0.27453688
0.15143758 0.25573337 0.02934556 -0.25462842 -0.1732047 -0.16564357 -0.03918186 -0.019163389
-0.34466007 0.01550122 -0.28111857 0.120248385 -0.3191787 -0.009639175 0.057751622 0.047015984
0.10716191 -0.25987226 -0.19961555 -0.0014499567 0.1535715 0.09235985 -0.11097213 0.15029573
0.2572088 -0.08099933 0.05161233 0.002108296 0.02277422 -0.18107708 -0.07516513 -0.17517024
-0.21336378 0.018590346 -0.09385136 0.291289 -0.00035050156 0.18145493 -0.11727185 0.21527082
-0.11568825 -0.23265986 -0.11468572 0.09835787 -0.015773455 0.038372353 0.15068452 -0.20650461
-0.13775519 0.1477499 -0.02928444 0.12457983 -0.22823395 -0.17569989 0.13302623 0.19852015
-0.025898786 -0.30643314 -0.07589089 0.27577826 0.094053335 0.21851343 -0.055493057 -0.10209445
-0.16454871 -0.16834149 -0.120671704 0.005915354 -0.1836716 0.063309655 0.20995289 -0.10888297
0.21797398 0.058577277 -0.038951248 0.23058102 6.4679716e-07 0.21617106 0.27375335 0.13576913
0.04262103 -0.2119717 0.1668908 -0.028834807 -0.2992892 0.13892534 -0.10369607 -0.080071084
0.12063559 -0.24622744 -0.12932459 -0.056724474 0.0874343 -0.1466151 -0.42042595 -0.09990434
-0.13653265 0.013893177 -0.1685849 -0.086110026 -0.23662631 0.23666112 0.035833593 -0.28263795
-0.07226877 -0.011586499 -0.08223448 0.063267305 -0.18141694 -0.210103 -0.048377465 -0.04594061
-0.19824816 0.007970668 -0.20194517 0.0058303964 -0.109036535 0.31817442 0.28023762 0.07561946
0.045253973 -0.025404291 0.21950498 0.103987865 0.04108713 -0.13462898 -0.18376742 0.31238398
0.025995933 -0.027687049 0.11499251 -0.050373662 0.00529251 -0.119701445 0.2510478 -0.14894682
0.055088818 0.23525192 -0.12576944 0.046043426 -0.25301912 -0.21380563 -0.24039437 0.08610531
-0.23747373 -0.018849645 0.13668612 -0.04546867 0.14415218 0.055173256 0.2523811 -0.06950162
-0.13877055 0.07837228 0.18009447 0.04028608 0.00043874394 0.21403523 -0.1432057 0.5169231
00000000: 96be 913d 790d fabd 8b46 003e 077d 523e
00000010: ece7 e13d f514 943e 60c1 3a3e c461 383d
00000020: fec3 c33c 3fdc 5abd b9ca 65be 761f 72be
00000030: d517 863e 290d ee3d 067d 42be d9f0 64bd
00000040: 7d55 67be 3f23 1bbc 09e3 cc3d 05f0 bc3e
00000050: f873 c0be 7bfc ac3e b383 f6bc 0674 46be
00000060: db7a 17be 2b89 9abd f614 ebbd 0d07 5cbe
00000070: 1d2f 243e e9fc c6bc 04c6 10bd 5214 f5bd
00000080: 41f9 f43c a772 383e d7f1 e2bd 2be7 1ebe
00000090: 4733 bebd e962 933e 9741 5dbe f5dc 4d3e
000000a0: a522 e43d aa06 05bd 41e5 a43b 0e6b 4cbd
000000b0: 11bf 473d 27f5 213e f035 c4bd a58c fdbd
000000c0: 9917 9abd a66a 0c3e ef13 98be f072 613e
000000d0: b63f 02be 7ff7 0fbe 39a3 f8bd c30a f1bd
000000e0: 4193 5abe ba84 40be 6d5f 97bb ae48 8cbd
000000f0: fc83 02be 1afb fc3d 6505 56bd 806f a23c
00000100: b8c7 ff3c 90e3 91be fae1 6dbe d9f0 3b3d
00000110: da9b 3d3e 6bd2 503e 1150 b13d 4ca0 36bb
00000120: 94ec 23be a5dc 203e 5699 9bbe e07c 753e
00000130: 3cee 1d3e efb4 1dbd ed43 6d3e 0430 2abe
00000140: 1ca2 a03e 1fb2 53be f9d9 073e 57ea a1bd
00000150: f681 46bd 6b55 10be 7578 833e 0b4e c1bd
00000160: 6a9a 833d c276 c93d 1adb 0b3e f70e 863e
00000170: 4e2c 4d3e 2137 953e d90d 2f3c 1990 8cbe
00000180: 7412 1b3e 7cef 823e 1a66 f03c a85e 82be
00000190: 935c 31be 789e 29be 287d 20bd 8afc 9cbc
000001a0: 4977 b0be d4f8 7d3c c6ee 8fbe c944 f63d
000001b0: 646b a3be a1ed 1dbc f78c 6c3d d593 403d
000001c0: b477 db3d fa0d 85be 0568 4cbe 790c beba
000001d0: d941 1d3e 2927 bd3d 5b45 e3bd 20e7 193e
000001e0: dfb0 833e fae2 a5bd 7367 533d 562b 0a3b
000001f0: 0091 ba3c 456c 39be 2df0 99bd d45f 33be
00000200: 097c 5abe c84a 983c 2435 c0bd d523 953e
00000210: 86c3 b7b9 52cf 393e 392c f0bd f46f 5c3e
00000220: f6ed ecbd 633e 6ebe 59e0 eabd da6f c93d
00000230: 5537 81bc 542c 1d3d 0b4d 1a3e f275 53be
00000240: b20f 0dbe c04b 173e ece5 efbc b623 ff3d
00000250: 29b6 69be acea 33be 0738 083e de48 4b3e
00000260: b129 d4bc cee4 9cbe af6c 9bbd cf32 8d3e
00000270: 099f c03d fcc1 5f3e b04c 63bd e516 d1bd
00000280: 757f 28be b661 2cbe ba22 f7bd 96d5 c13b
00000290: 6814 3cbe 7ea8 813d e4fd 563e 09fe debd
000002a0: 9234 5f3e baee 6f3d 588b 1fbd 6e1d 6c3e
000002b0: 909f 2d35 f25b 5d3e 6629 8c3e 1007 0b3e
000002c0: 6493 2e3d 1c0f 59be 6ce5 2a3e f936 ecbc
000002d0: 6f3c 99be 7242 0e3e 9b5e d4bd 4ffc a3bd
000002e0: cb0f f73d 0c23 7cbe aa6d 04be ec57 68bd
000002f0: c110 b33d 4522 16be 1242 d7be a69a ccbd
00000300: 37cf 0bbe 35a0 633c 85a1 2cbe 745a b0bd
00000310: 2b4e 72be 4b57 723e 3fc6 123d ecb5 90be
00000320: a601 94bd 4dd5 3dbc 8d6a a8bd 4a92 813d
00000330: 5dc5 39be 3e25 57be 7327 46bd 392c 3cbd
00000340: 9101 4bbe 6897 023c b7ca 4ebe e90c bf3b
00000350: 8c4e dfbd c2e7 a23e 4e7b 8f3e 60de 9a3d
00000360: 3b5c 393d a91c d0bc eac5 603e 97f7 d43d
00000370: fa4a 283d 2edc 09be 872d 3cbe cbf0 9f3e
00000380: 6cf5 d43c f3cf e2bc 3181 eb3d 9d54 4ebd
00000390: cb6c ad3b 0826 f5bd 5689 803e 8485 18be
000003a0: d0a4 613d e1e5 703e b4c9 00be 0898 3c3d
000003b0: b98b 81be ddef 5abe f129 76be fb57 b03d
000003c0: 502c 73be 926a 9abc 72f7 0b3e 5b3d 3abd
000003d0: a19c 133e 5afd 613d 1838 813e de56 8ebd
000003e0: de19 0ebe a581 a03d af6a 383e 0403 253d
000003f0: 3707 e639 0d2c 5b3e 84a4 12be 1355 043f

transformer_encoder.layers.1.self_attn.out_proj.bias f4 [17]
-0.15016933 -0.088632174 -0.101081364 -0.051287826 0.1379982 0.14068475 0.019322062 0.22244927
-0.10614058 -0.14165384 0.073663525 0.100469895 0.09190991 -0.08675002 0.033529144 0.21867378
0.117948204
00000000: fdc5 19be c984 b5bd bf03 cfbd 2f13 52bd
00000010: 664f 0d3e aa0f 103e 4d49 9e3c bec9 633e
00000020: 3b60 d9bd b40d 11be e7dc 963d 29c3 cd3d
00000030: 433b bc3d ffa9 b1bd db55 093d 05ec 5f3e
00000040: d48e f13d
