models/Scomb_transformer_split=3.pt (torch, 41952 bytes, 28 tensors)

transformer_encoder.layers.0.self_attn.in_proj_weight f4 [51, 17]
000000 32 9a 04 bf 0c f2 d3 3e 77 23 22 3f ab 62 2d 3f
       -0.51797783 0.41395605 0.63335365 0.6772868
000010 f6 fb 54 3e 0e 64 0f 3f ac ed 14 3e 0a 63 c7 bd
       0.2079924 0.56012046 0.1454379 -0.09735687
000020 99 dd 3d bf a2 db 40 3e 59 8d 84 bd 50 ff 22 be
       -0.74166256 0.18833783 -0.064722724 -0.15917706
000030 73 f6 0f 3f ab ab ec 3d cb 79 5f 3e c7 5a 59 3d
       0.56235427 0.115561806 0.21823804 0.053065088
000040 59 73 7c be eb dd 43 be 07 98 3b 3f 3a 52 88 3e
       -0.24653377 -0.19127624 0.7327885 0.26625234
000050 1f 6b 86 3f c2 a8 5e be 03 c7 84 3d ba d9 8b bd
       1.0501441 -0.21744063 0.06483271 -0.068286374
000060 c6 3d 1a be 73 64 6c be b4 91 4e bd 84 49 37 3f
       -0.15062627 -0.23085193 -0.050431922 0.7159655
000070 5e 80 64 be 39 1c f2 3e a5 5c 48 3e c8 7b 58 3e
       -0.22314593 0.47287157 0.19566591 0.21140969
000080 e6 23 08 3e 81 ce de 3e 4d 60 ab be b7 d2 be 3e
       0.13294944 0.43516925 -0.3347191 0.37270138
000090 c3 ea 06 3f 08 b0 98 3e 24 0e 88 be 87 c7 d8 3e
       0.5270197 0.298218 -0.26573288 0.42339727
0000a0 0e 91 66 be f2 70 07 be e0 d9 91 be 79 45 7d be
       -0.22516271 -0.13226679 -0.28486538 -0.24733533
0000b0 3b 0a 81 3e 53 16 01 3d 2e 32 84 3e 25 ef a8 3e
       0.25203118 0.03151543 0.25819534 0.32994953
0000c0 d9 be 6c 3e 0f 9e 54 3e 8d 72 3c 3f b1 8e d7 bd
       0.23119678 0.2076342 0.7361229 -0.10525263
0000d0 75 7f d3 3d 53 71 f2 3d 6c f0 ea 3e 6f cb c4 be
       0.10327045 0.11838021 0.45886552 -0.38436458
0000e0 30 7c b0 3d 02 f6 8c 3e 67 03 f5 bd de 93 c5 be
       0.08617437 0.2753144 -0.119635396 -0.38589376
0000f0 4a 66 da 3e 28 44 f6 3e c6 c6 05 bf 84 77 c5 3e
       0.42656165 0.48098874 -0.5225643 0.38567746
000100 9a c9 22 be 5d b5 20 be a4 1f 30 be 7a f6 2d bf
       -0.15897217 -0.15694185 -0.1719957 -0.6795422
000110 ec 43 01 3f 95 af c3 be 8a e6 1a bf 80 84 10 bf
       0.50494266 -0.38219896 -0.60508025 -0.5645218
000120 bd bd 97 be 05 e1 f6 be 4b 11 63 be fe 77 7d be
       -0.29636946 -0.4821855 -0.22174565 -0.24752805
000130 15 56 2a 3f 4d 2a 56 3d f2 be 01 3e aa 29 e5 3d
       0.665376 0.052286435 0.12670496 0.111895874
000140 81 84 b5 be 51 f5 21 be f3 df 8c be 9c 3d ca bd
       -0.35452655 -0.15816237 -0.2751461 -0.09875032
000150 4d 05 2b bf 52 f8 0f 3e 5a f1 6f bf a3 24 3a bd
       -0.66804963 0.1405957 -0.9372765 -0.045445096
000160 92 9b 18 bf 60 bd c2 bd 06 0c 8c bd fb 72 6d 3e
       -0.5961238 -0.09508777 -0.06838231 0.23188393
000170 15 ff 83 be 7f b0 ff 3c 03 e2 71 3e 2c 87 70 bf
       -0.2578055 0.03121209 0.23621373 -0.93956256
000180 8f 9e 87 3e 0a 6b 25 bf b9 b4 27 bd a7 be 93 3e
       0.26488158 -0.64616454 -0.040943835 0.28856394
000190 79 5b 31 be 31 aa 2c 3f 02 70 94 be 76 d9 0c 3f
       -0.1732005 0.6744719 -0.28991705 0.5501932
0001a0 72 ae 66 3f 0d b7 1a 3f e2 78 00 3d 56 69 2f 3e
       0.9010993 0.60435563 0.031365283 0.17130026
0001b0 a2 e4 6e bd d0 6a 07 be 73 ae 93 be 0e e6 c5 bd
       -0.05832351 -0.1322434 -0.28844032 -0.0966302
0001c0 be 21 1a be b0 4b 21 be 4e 7c eb 3e a4 a4 0d 3e
       -0.15051934 -0.15751529 0.45993274 0.13832337
0001d0 b4 95 c4 3d 28 4c 76 be a4 e0 c1 bd 5f 2d 50 3e
       0.09598866 -0.24052489 -0.09466675 0.20329808
0001e0 bc 69 33 3f d5 18 46 3e 26 1c 19 3f 9a 2b a9 be
       0.7008321 0.1934541 0.59808576 -0.33041078
0001f0 24 db 9b 3d 70 34 4a 3e 6f 04 4f 3e 13 da e7 be
       0.07610157 0.19746566 0.20216535 -0.45283565
000200 4c d4 92 3d d6 77 5f 3f ba 00 f7 3d c3 80 99 3d
       0.07169399 0.8729223 0.120606855 0.074952625
000210 87 ef f4 bd 85 3b 9e be 98 e5 71 3d 5f 2c ad 3d
       -0.11959749 -0.30904785 0.05905685 0.08455729
000220 98 cb 56 be d9 cc 4e 3f 8f 48 f0 3e 07 d9 91 3f
       -0.20976102 0.8078132 0.46930358 1.1394356
000230 17 f9 f8 be ff 8f 2b 3e 75 c9 0c 3e 7c 54 03 3d
       -0.4862754 0.16754149 0.13748725 0.032062992
000240 44 b2 08 bf 55 6c 79 3e b6 b5 5a 3f dc eb 9c 3d
       -0.5339701 0.24357732 0.8543352 0.07662174
000250 1d 69 d1 3e ec 10 85 3e c3 ce 50 3e 72 3e 0b 3e
       0.40900508 0.25989473 0.20391373 0.1359804
000260 51 8f 9e 3e 4f ba 75 bd 5a e8 83 bd 1a 3f 84 3c
       0.30968717 -0.05999213 -0.06440802 0.01614337
000270 d7 16 4c 3e c9 7b f7 be 24 fe a2 3e b7 cd 88 3e
       0.19930588 -0.48336628 0.3183452 0.26719448
000280 15 78 bb bc d3 a3 2f bf 21 7a cc bd b3 73 7e bc
       -0.022884408 -0.6860935 -0.09984232 -0.0155305145
000290 46 d4 54 bb 35 81 28 be 98 3b d7 3c b2 9a b7 3e
       -0.0032475158 -0.16455539 0.026273534 0.3586021
0002a0 0e 24 56 3d f4 fd fe bd 93 90 24 bf 08 65 08 3f
       0.05228048 -0.124507815 -0.642831 0.5327916
0002b0 0d 8b 3d 3f c9 2e 54 3f 7c 64 ed 3d c8 6c 0f 3e
       0.740403 0.8288389 0.115914315 0.1400634
0002c0 68 1e 9f 3d 7b 26 89 be 50 c4 34 bf ba 89 82 3e
       0.077694714 -0.2678717 -0.7061205 0.25495702
0002d0 f0 29 86 be 3d 49 3f bf 0a 3c e1 3e 89 0c df 3d
       -0.2620387 -0.7472113 0.4399112 0.10891063
0002e0 6a ed 29 3e 6f bf 42 3e 15 66 b2 be 47 40 0d 3d
       0.16594473 0.19018339 -0.34843507 0.034485128
0002f0 f6 9a c5 3d d7 93 e6 bb c0 d8 59 3e ee 18 33 be
       0.09648697 -0.007036667 0.2127409 -0.17489979
000300 3e 60 f3 3e 0b 43 e9 3d 3b 12 5d 3e b3 30 c5 be
       0.47534364 0.113897406 0.21588986 -0.38513717
000310 75 94 71 3e d7 56 91 3e 2f 86 c2 be 86 ac e1 bd
       0.23591788 0.28386566 -0.37993 -0.11019234
000320 b3 fb ae bd 8c e2 a7 3e 55 45 a8 3e a0 40 c9 bc
       -0.085441016 0.3279003 0.32865396 -0.024566948
000330 1d fc d0 bc 00 bb 24 be 97 6b d6 bd fe 05 ac bd
       -0.025510842 -0.1608696 -0.1046974 -0.083995804
000340 38 21 eb be df 69 c6 3e 27 31 ee 3b ff 55 92 be
       -0.4592378 0.38752648 0.007269043 -0.28581235
000350 d4 3a 08 be 4a f4 db be 63 e3 2c bf a2 39 c2 3e
       -0.13303691 -0.42959815 -0.67534465 0.37934595
000360 2c 84 1f be f7 5a dc 3e 36 fa 2f bc d5 4f 98 be
       -0.15577763 0.4303815 -0.010740807 -0.29748407
000370 23 21 1d 3f b9 8d 0b 3e 54 23 bf 3a 47 f6 44 be
       0.6137869 0.13628282 0.0014582672 -0.19234572
000380 bb e8 73 be 15 62 9b 3e 83 f4 f5 be d0 d8 be 3d
       -0.23819248 0.30348268 -0.4803811 0.093186975
000390 85 c9 1f be 4b 4b 6f 3e f5 7e 82 be 17 46 b0 3e
       -0.15604217 0.23368566 -0.25487486 0.34428474
0003a0 16 aa 47 3e 6e 9a 10 bd ca b4 82 be 13 e8 fd be
       0.19498476 -0.035303526 -0.25528556 -0.4959112
0003b0 d7 5b 58 3c b6 fc 2e 3c e4 d3 01 be 56 34 16 3f
       0.01320549 0.010680368 -0.12678486 0.5867361
0003c0 e1 52 c1 3e b6 c9 d1 3e ca f4 f1 bd 6f cd b1 be
       0.37758544 0.40974206 -0.11814268 -0.34727046
0003d0 b5 71 6f 3d a7 5b 0e 3e f9 2b f9 bd 76 41 0f be
       0.05845805 0.1390215 -0.1216659 -0.13989815
0003e0 8d 86 1c 3d f5 0e f0 3d 4d 86 51 3e 0b 0d d1 be
       0.038214255 0.11721603 0.20461388 -0.40830263
0003f0 ce af 5c be 39 71 8d be e0 11 43 3d 5b a0 f9 bd
       -0.21551439 -0.27625445 0.04762447 -0.121887885

transformer_encoder.layers.0.self_attn.in_proj_bias f4 [51]
000000 82 a5 28 3c 61 ca 11 bc 2d c8 95 3c 71 14 e6 3a
       0.010293366 -0.008898349 0.018283928 0.00175537
000010 a2 18 19 be 78 fe 39 bc 53 1b 7e bc f8 7c 23 bc
       -0.14950803 -0.011352174 -0.015509444 -0.009978525
000020 59 e6 ac bd 19 b6 82 3d 36 fa 44 bd 91 61 3f 3e
       -0.08442373 0.063823886 -0.048090182 0.18689562
000030 da 95 e7 bd e4 a4 06 3c d2 ed 05 be 8e 1d a4 bd
       -0.11307879 0.008218024 -0.13079002 -0.080134496
000040 32 2a 35 3b c0 4c 6e 3c 77 c2 06 3e bf 36 15 3d
       0.0027643559 0.014544666 0.1316012 0.036429163
000050 db 96 b3 3d 05 b3 c1 3c c1 69 59 bd e2 e6 a5 3d
       0.08769008 0.023644933 -0.05307937 0.08100678
000060 df 66 1f 3d 28 87 fa 3d 8e e9 00 bd 10 43 2c 3e
       0.038916465 0.1223281 -0.031472735 0.16822457
000070 c4 7d 20 3d f4 55 88 3c 54 44 48 bd 8a 5f 98 3b
       0.03918244 0.016642548 -0.048893288 0.004650061
000080 e4 5b 8c 3d e8 48 17 be b3 98 10 3c 85 ab 0d 3c
       0.06853464 -0.14773905 0.008825469 0.0086468505
000090 9e 6b 42 3d 63 46 55 bd e3 38 61 bc 8b d8 c1 3b
       0.047465913 -0.05206908 -0.013746473 0.0059157065
0000a0 87 33 f3 bc 65 ea ef bd 89 36 28 bc 58 4e 7d 3d
       -0.029687656 -0.11714629 -0.010266908 0.061842293
0000b0 2c f3 e5 bc fc 6a b0 bc d1 4e 56 bd 2d a1 7d bd
       -0.028070055 -0.02153539 -0.05232126 -0.061921287
0000c0 b9 f1 e1 bc 4f db a9 3c 6e 30 7e bd
       -0.027581083 0.020734457 -0.062057905

transformer_encoder.layers.0.self_attn.out_proj.weight f4 [17, 17]
000000 4a b5 bf bd ba d3 49 3e 16 06 02 3e 15 4b 78 be
       -0.0936075 0.19709674 0.12697634 -0.24247392
000010 55 9a 7e 3d e8 58 a8 3c 33 89 7e 3e 76 5f 92 be
       0.0621589 0.020550206 0.24857025 -0.28588456
000020 eb 2d 85 be f1 70 0a bd c3 27 6e be ef fb 04 be
       -0.26011595 -0.033799116 -0.23257355 -0.1298673
000030 0e 4b 8e 3e 8a aa 47 3e fb 7a 0f 3e b5 b1 e0 bd
       0.27791637 0.19498649 0.14011757 -0.10971395
000040 a9 3f 5c 3e 15 a9 67 be cb 51 4c bc 4a 1e 38 3c
       0.2150866 -0.22623093 -0.012470673 0.01123769
000050 55 0f e8 3d 61 5d 26 bc 0c 8d 97 be 22 ab 17 bd
       0.11331049 -0.010154099 -0.29599798 -0.03702844
000060 64 d3 4f bd d3 5a 11 be 18 56 0f 3d 14 45 98 bd
       -0.050738707 -0.14194803 0.034994215 -0.074350506
000070 f0 f7 69 3c 88 d3 81 be 8d 5e 83 be d3 58 34 3c
       0.014280304 -0.25356698 -0.25658074 0.0110075055
000080 be 6f b3 3e 77 ed 38 3e b1 82 5c be 9d 44 3c 3e
       0.3504619 0.18059336 -0.2153423 0.18385549
000090 2f 86 8c be b4 6f a0 3e 62 e5 48 3e ca c1 12 bd
       -0.27446124 0.31335223 0.19618753 -0.035829343
0000a0 ab 1d 53 3d d9 39 24 be 96 16 8c 3e 5b 09 a9 bc
       0.051541965 -0.16037692 0.27360982 -0.020634344
0000b0 cd 57 28 3d 17 81 cd be bd 81 cc 3e 2b 90 86 bd
       0.04109936 -0.4013755 0.39942732 -0.065704666
0000c0 e5 b1 19 3e c0 69 3b 3d 65 88 0c bc 6b e0 c9 bd
       0.15009268 0.045755148 -0.008577441 -0.098572575
0000d0 6e 9a 51 be a8 a8 91 3e 67 4c e0 bd 9e 35 2f be
       -0.20469067 0.28448987 -0.109520726 -0.17110297
0000e0 af 63 85 3d 97 7c 45 be e0 9f 03 3d 42 cb 1c be
       0.06513154 -0.19285809 0.03213489 -0.15311912
0000f0 8e 22 15 3f d5 c0 9b 3e 35 a7 03 be da f3 01 be
       0.5825585 0.30420557 -0.12856753 -0.12690678
000100 97 32 9f bd a6 c6 82 3d 66 20 97 3e e4 9a 49 3e
       -0.07773321 0.063855454 0.29516906 0.19687992
000110 05 dd 97 bd 0b b4 8e be 16 04 3b be ac 84 00 be
       -0.07415203 -0.27871737 -0.18263277 -0.1255061
000120 9c ca 88 be 6c 94 4b 3e 99 93 b3 3d 77 a5 3c be
       -0.2671708 0.19880837 0.087683864 -0.18422495
000130 28 e2 3c 3d 3f 58 66 3d d9 2f a2 bd 02 dc 41 3e
       0.046114117 0.0562365 -0.079192825 0.18931583
000140 71 4c ea 3d f3 74 21 be da ba a8 be 56 87 f9 3d
       0.11440361 -0.15767269 -0.32955056 0.121840164
000150 c9 7c 4f be 5b 03 02 3e 30 57 91 be 2c 46 97 3d
       -0.20262446 0.12696593 -0.2838683 0.07386431
000160 cd 81 db 3d 60 3f a3 3e c3 35 96 be c5 4a 02 bd
       0.10718117 0.3188429 -0.29337892 -0.031809587
000170 22 82 b5 3d 41 d2 c0 3d 5b 47 5c bd 47 62 38 3e
       0.088627115 0.09415103 -0.053778987 0.1800624
000180 31 78 9d 3e 6e 26 ef b9 79 73 24 3d 31 5a 66 bc
       0.3075576 -0.00045614265 0.040149186 -0.014059589
000190 d2 fb 04 3e 73 fe 33 3e 6d 91 8c be f2 b8 25 3e
       0.12986687 0.17577533 -0.274547 0.16183832
0001a0 5c f1 9b 3d 48 c6 f0 bd 43 19 5c 3e 21 fd 3a 3d
       0.07614395 -0.11756569 0.21494012 0.04565156
0001b0 5a 5e e3 3b 12 a5 60 3e 65 a3 cc bc fa c6 cf ba
       0.006938738 0.2193797 -0.024980256 -0.0015852146
0001c0 94 20 da be 33 db ca 3d 8e a1 eb be 36 3d b1 3d
       -0.4260298 0.0990509 -0.46021694 0.08654253
0001d0 00 cd 9e 3e ae 35 31 bd 2d e9 c7 3d d6 98 b3 bc
       0.31015778 -0.043264084 0.097612716 -0.021923464
0001e0 0f 4f 6c 3d 69 b0 4a 3e 80 80 53 3d 5b 44 c6 be
       0.057692584 0.19793858 0.05163622 -0.38724026
0001f0 de bf 71 3e 5a 75 0e 3e 96 c1 9d bd 2a 6f a8 bc
       0.23608348 0.13911954 -0.07702939 -0.02056082
000200 9c e8 72 be 6a 3b d2 bd f7 29 11 bd 48 e4 47 be
       -0.23721546 -0.102652386 -0.03544041 -0.19520676
000210 15 28 35 bd 48 5d 57 be e6 51 f0 bc 85 5a 37 3e
       -0.04422768 -0.21031678 -0.029335927 0.17905624
000220 1e 34 cc 3d 64 90 ca bd 79 50 2a bd a5 cc ff bd
       0.09970878 -0.098908216 -0.04158065 -0.12490205
000230 07 b2 b4 bd d5 20 33 3e 27 dc 35 be f0 06 fe 3d
       -0.088230185 0.17492993 -0.17759763 0.12403667
000240 a0 86 81 be 81 30 65 3e 50 36 a4 3e 4b fc 82 be
       -0.25298023 0.22381784 0.32072687 -0.2558311
000250 1e 92 87 3e 99 ab 6c 3e ba a3 b9 3d b3 8a 6c be
       0.26478666 0.23112334 0.090644315 -0.23099785
000260 09 55 7a be 60 bc 13 3e 0c 54 23 3e ef e4 22 bd
       -0.24446501 0.14427328 0.1595003 -0.03976911
000270 3f 99 07 3e 98 a3 61 3e 31 74 92 3e ec b3 4d be
       0.13242052 0.22035062 0.28604272 -0.20088166
000280 82 96 dd 3d ae 56 3b be f2 0e c9 be 7a b6 82 be
       0.10819723 -0.18294784 -0.39269215 -0.25529844
000290 97 b0 b4 bd 74 0d bd 3c 5e ff ff 3d 82 f9 cf bd
       -0.08822744 0.023077704 0.12499879 -0.10155012
0002a0 42 51 4b be 23 94 ca 3d 49 d8 4e 3d c9 19 61 3e
       -0.19855216 0.09891536 0.050499234 0.21982493
0002b0 73 e6 62 be 13 63 a2 3e cc 03 e2 bd f9 ab 48 3e
       -0.22158222 0.31716213 -0.110358804 0.19596852
0002c0 06 97 39 be 1c 5e 17 3e 22 57 70 bd 9a fe e6 3d
       -0.18124017 0.14781994 -0.058676846 0.1127903
0002d0 0a 28 fc 3d 89 24 ae 3e 79 7f 24 3e 9b ed 4e be
       0.12312324 0.3401225 0.16064252 -0.20207827
0002e0 dc 7c af 3c 6d e7 17 3e 7d 86 89 3d ec 17 cf bd
       0.021421842 0.14834376 0.06715105 -0.101119846
0002f0 aa 8f 5c bb 06 1c 80 3e 18 a3 5c be b2 f4 3c be
       -0.0033654966 0.2502138 -0.2154659 -0.18452719
000300 b6 79 0d 3e 2f de 30 be 8d f2 95 3e 1a 05 d1 3e
       0.1381596 -0.17272256 0.29286614 0.40824205
000310 86 37 e4 3d a6 b2 2a be 97 52 fb 3d 85 e2 b8 3d
       0.11143403 -0.16669711 0.12271612 0.0902758
000320 a4 77 8a be 8d fc 51 3e 1d 90 56 be f4 81 a7 3c
       -0.27044404 0.20506497 -0.20953412 0.020447709
000330 da 13 ce bd 31 6a 58 bd 61 3b b8 3c 19 d6 68 3e
       -0.1006238 -0.052835647 0.022489252 0.22737922
000340 81 cc 3b bd 05 f3 27 3e 2a 8b af 3d 44 29 12 be
       -0.045849327 0.16401298 0.08571465 -0.14273554
000350 31 5f 0d be 2c e9 45 be f5 49 4b 3e dd 71 b3 3e
       -0.13805844 -0.1932723 0.19852431 0.35047808
000360 d6 d7 3a be 26 7a 42 be 1a 4e d5 be 89 d6 06 bd
       -0.18246397 -0.18991908 -0.4166115 -0.03291944
000370 2e 45 95 bd c8 a9 0b 3e 41 23 1a bd bf 0d 47 3e
       -0.072885856 0.13638985 -0.037631277 0.19438837
000380 6b c7 3b be f3 f9 bb 3d fe 5b e6 be 6d 37 9a 3d
       -0.1833779 0.091785334 -0.4499206 0.07530103
000390 dd aa 8f bd 04 e5 bf bd 6b ff 0d be f0 0f aa 3d
       -0.070150115 -0.09369853 -0.13866965 0.08303821
0003a0 81 6d 8c bd 69 82 97 3d d7 5f 82 bd cc 14 3a bb
       -0.06856824 0.07397921 -0.06365936 -0.0028393744
0003b0 f4 bd 9f bd 30 0b 5d 3e 6f 30 49 3e 16 3e a4 3d
       -0.077999026 0.21586299 0.19647382 0.080196545
0003c0 c2 b9 a4 be ad fc 92 3d 1b ab 09 3e be 27 5c bd
       -0.32172972 0.071771 0.13444178 -0.05374884
0003d0 69 6b 41 be 09 6b 8f 3e 8a 19 5b be 88 ed 75 bd
       -0.1888863 0.2801135 -0.21396461 -0.06004098
0003e0 44 44 1a 3b 91 42 86 3d 0d cb 49 3d 1e af 13 3e
       0.0023539225 0.06555665 0.04926591 0.1442227
0003f0 c6 5b f6 3d 78 0d 92 3c e4 a9 2f 3e 66 bb 18 3d
       0.12029223 0.017828688 0.17154652 0.037288092

transformer_encoder.layers.0.self_attn.out_proj.bias f4 [17]
000000 eb 2f 48 bc ed 48 4a 3c 85 08 ab bb b0 a7 10 bb
       -0.012218456 0.012346488 -0.0052195215 -0.0022072606
000010 1e f0 30 bc 66 e2 48 3c fd 5c c2 3c e7 f0 ef bb
       -0.010799436 0.012261009 0.02372598 -0.007322419
000020 95 eb d2 3c 43 64 d7 39 a4 89 2c bc c4 d3 cb 3a
       0.0257471 0.00041082696 -0.010530863 0.0015550782
000030 b9 37 91 3c 57 cb 75 bc 6c be c0 3b c1 92 9b 3c
       0.017726766 -0.015002093 0.005882075 0.018990876
000040 59 d6 16 3d
       0.03682551

transformer_encoder.layers.0.linear1.weight f4 [64, 17]
000000 d0 93 3f 3e 64 aa 2f bb 18 21 26 be 41 6c 37 3e
       0.1870873 -0.0026804442 -0.16223562 0.1791239
000010 36 d7 fa bd c2 62 f0 bd a7 b7 89 be 57 8d 64 be
       -0.122480795 -0.117375866 -0.26897928 -0.22319542
000020 0f e6 5d bd 21 a0 8c 3e f3 c9 7b 3e 68 b9 eb 3d
       -0.05417448 0.2746592 0.24588756 0.11509973
000030 f2 66 e5 be 1f 16 84 3e 45 14 5c 3e 26 9e 4f 3e
       -0.44805104 0.25798127 0.21492107 0.20275173
000040 ca 79 f8 bd 2e f8 3a bd f3 c2 7f 3c 76 68 96 3d
       -0.121326044 -0.04564684 0.015610444 0.07344143
000050 8c ba d6 bb 24 e3 46 be 48 1c 41 bd 6d d2 e6 bd
       -0.006553 -0.19422585 -0.04714611 -0.11270604
000060 db 83 07 be 37 4d 18 be 9c f9 49 3d 52 0e 7b 3e
       -0.13233893 -0.14873205 0.04931031 0.24517182
000070 af 8d 25 be 8c 0e 67 be 09 86 80 3e 70 ab 09 3f
       -0.16167329 -0.22564143 0.2510226 0.5377722
000080 e5 2a 46 3d 87 ec e4 be 46 1b 9b 3e 5c 68 62 be
       0.04838075 -0.44711706 0.30294245 -0.22110122
000090 b6 78 69 3d c9 44 30 be 4d 1b c8 bd 06 4a c6 bc
       0.056999885 -0.1721374 -0.09770832 -0.024205219
0000a0 2e 2d 55 3d 68 77 9b 3d a8 9c 18 be 9d 7e 45 3e
       0.05204504 0.07591134 -0.1490351 0.1928658
0000b0 25 b0 70 be de 15 b9 3d f1 48 7a bd b5 eb 90 bd
       -0.23504694 0.09037374 -0.06110472 -0.070762075
0000c0 89 74 01 be dd c9 18 3e 33 12 22 3e 5f 79 96 3d
       -0.12642111 0.14920755 0.15827255 0.073473684
0000d0 a8 a7 c4 bd 59 83 c9 3c 4e 1a b7 3e c9 7b 45 3a
       -0.096022904 0.024598764 0.35762256 0.0007533399
0000e0 56 be 37 3c 60 4c 95 be 79 00 a7 bc c9 41 a4 3e
       0.011214813 -0.29159832 -0.020385968 0.3208144
0000f0 db bb 19 3d 49 11 85 3d 97 c5 b2 be 69 cc 73 bd
       0.03753267 0.064974375 -0.34916374 -0.059521113
000100 d5 6d 53 3d 16 fa 77 3e d5 11 fe bd 0c 0b 82 3c
       0.051618416 0.24216494 -0.12405745 0.015874408
000110 f5 6a d8 bd 28 79 7f 3e a6 c1 be 3e 46 a7 07 3f
       -0.105672754 0.24948561 0.37257117 0.52989614
000120 3a 06 da bb 12 0a 09 3c 90 20 d8 bc c8 b0 7d bd
       -0.0066535743 0.008364217 -0.026382715 -0.06193617
000130 d6 e7 45 3e 93 16 1d be e4 ee 15 3e 3f b5 27 3e
       0.1932672 -0.15340643 0.14641911 0.16377734
000140 1a 8e 73 bc 17 e7 27 be 8e d8 3a 3d 8b 0c 47 3e
       -0.014865423 -0.16396748 0.04561668 0.19438379
000150 fa 36 86 bd aa 46 29 bc 0f b5 b6 3d b6 8b 5f 3e
       -0.06553455 -0.010331789 0.08921253 0.21830639
000160 c8 5f 88 bd 83 86 95 be 30 47 e7 bc 0f 1b 01 3e
       -0.06658894 -0.29204187 -0.028232187 0.12607978
000170 9b f1 30 be 79 db ba bd 47 45 bf 3d 30 22 5a 3e
       -0.17279665 -0.09123892 0.093393855 0.21302104
000180 11 58 b6 3d f1 5c 98 be c5 08 b3 3d 80 3f 86 3e
       0.08903516 -0.2975841 0.08741907 0.26220322
000190 1a e5 f8 bd a7 04 11 bf ef 85 24 bc 24 fd 02 3d
       -0.12153073 -0.56647724 -0.010041698 0.031979695
0001a0 e0 99 63 be ee c8 98 3e 43 52 81 3e 84 95 a2 3d
       -0.22226667 0.29840797 0.25258073 0.07938674
0001b0 f1 69 33 be f9 41 fa 3d 00 2b 86 3c fc 9d f0 3d
       -0.17520882 0.122196145 0.016377926 0.11748883
0001c0 16 18 0e bd 2c ac fe 3e 8a 45 5f be 30 93 03 3e
       -0.03469094 0.49740732 -0.21803871 0.12849116
0001d0 30 e5 8e 3e fd 06 ae be db 54 4d 3d c4 a0 57 3e
       0.2790923 -0.33989707 0.050129753 0.21057421
0001e0 d5 2d 71 bd e1 c9 2e 3e 03 00 65 bc a0 2a bc be
       -0.0588816 0.17069198 -0.013977054 -0.3675127
0001f0 8a 4c 3b 3e a4 fb 62 be 65 43 8b 3d 61 52 0a 3e
       0.18290916 -0.22166306 0.06799964 0.13507988
000200 62 9b 27 be 9c 41 64 bd ac c0 02 be e4 01 ce be
       -0.16367868 -0.055726632 -0.12768811 -0.40235817
000210 22 73 5b 3e 79 eb dc 3d c1 2f 52 3c ed 26 14 3d
       0.21430638 0.107871 0.012828768 0.036169935
000220 1f 8b 27 3e 70 2e 02 be 4c 32 cf 3c cb b4 aa 3e
       0.16361664 -0.12713027 0.025292538 0.3334106
000230 4f 4a 85 bd 5e 01 39 be 8d 1a 74 be c0 9c 83 bd
       -0.06508314 -0.18066928 -0.23838253 -0.06426382
000240 e6 72 22 3e c1 30 8f 3d a0 e5 80 3e 8e 5f 25 bd
       0.15864143 0.06991721 0.2517519 -0.04037433
000250 77 3d b5 bd c8 09 a2 3d 2a 28 13 3e 90 16 24 bd
       -0.08849614 0.07912022 0.1437079 -0.04006058
000260 30 ea b7 bc 8c d4 bd 3e c2 22 79 3e f5 85 8c 3e
       -0.022450536 0.37076223 0.24329665 0.2744595
000270 b8 0f c6 3d 8e cc 0b be 9f 95 8b bd 86 62 0c be
       0.09670967 -0.1365225 -0.06815647 -0.13709459
000280 eb 65 0d be f3 99 c2 3d 8d 6f 9c 3e b0 4c 51 3e
       -0.1380841 0.0950202 0.30553856 0.2043941
000290 53 08 b7 bc 65 6f db be 03 cd 99 3e 8c ae 95 3e
       -0.022342836 -0.42858425 0.30039224 0.2923473
0002a0 12 cb c4 3c f6 64 4b be cb 5c 38 3e 0b f5 07 3e
       0.024022613 -0.19862732 0.18004148 0.1327707
0002b0 b0 ef 43 be 9b db cc 3d 43 dc f8 bd cb e0 1f 3e
       -0.19134402 0.10002824 -0.121513866 0.15613095
0002c0 6c b2 7b bc c2 0b 4f bd 1e 5c b8 3c c3 6e 85 bd
       -0.015362363 -0.050548322 0.022504862 -0.06515267
0002d0 b3 e3 ae bd 61 8a 2d be fb 39 19 be 92 59 59 3e
       -0.08539524 -0.16947319 -0.14963524 0.21225575
0002e0 3a 27 4c 3e c6 60 e9 bd de 65 7a 3e ce bf cc be
       0.19936839 -0.11395411 0.24452922 -0.39990085
0002f0 fd d9 a3 3e 9f 67 38 bb 3e 9b e2 3e 66 f4 02 be
       0.3200225 -0.0028137935 0.44259065 -0.12788543
000300 85 31 e1 bd e9 a5 c9 be 4a e2 69 be df 63 ab 3d
       -0.10995773 -0.39384392 -0.22840229 0.08368658
000310 04 b5 16 be 61 85 3d 3d 6d cb 75 3d 55 69 df 3d
       -0.1471749 0.04626978 0.060008455 0.10908762
000320 95 9e b8 3d ac 00 97 3d b3 d6 01 be d2 6b 34 be
       0.09014622 0.07373175 -0.12679558 -0.17619255
000330 94 4d 19 3d 9a 89 9e 3e 9a 7f 05 3e bc e8 8e 3e
       0.0374275 0.30964357 0.13036957 0.27911937
000340 40 6a 81 bd 16 d8 72 be 24 1a 64 3d c7 19 64 3d
       -0.06319094 -0.23715243 0.055688992 0.055688646
000350 bb 7f 71 bd 3a 6c 01 be 9c 7e 9c 3e ae 48 07 3e
       -0.058959704 -0.12638941 0.30565345 0.13211319
000360 dc f1 37 be 0a 94 e7 bd cb 48 80 bd c9 70 cd be
       -0.17963356 -0.11307533 -0.06263884 -0.4012511
000370 a2 99 4e be 0d b8 f8 3d 26 aa c2 3e 94 74 56 be
       -0.20175794 0.1214448 0.38020438 -0.20942909
000380 2a e1 f7 bd aa df 5b 3e 80 33 4e bc 73 a6 1d be
       -0.121034935 0.2147204 -0.012585521 -0.15395527
000390 a0 bc 1c 3d ad 58 af bd d9 6c 2d bd 5a de 4b 3e
       0.038265824 -0.085618354 -0.042340133 0.19909039
0003a0 67 d1 f0 bc 5d 3d 02 3e 2a f3 d4 3b fd 7f af 3d
       -0.029396726 0.1271872 0.006498714 0.08569334
0003b0 51 e8 e3 3d b9 e5 f0 bc ee ce 06 3e d1 af 6a 3e
       0.11128295 -0.029406415 0.13164875 0.22918631
0003c0 64 b5 58 3e 4b 5d 46 3e a4 31 c6 bb 27 c9 43 be
       0.21162945 0.19371526 -0.006048398 -0.19119702
0003d0 37 b1 58 bd 53 a1 1d bd 3e c0 58 3e f2 a3 ae 3e
       -0.05290338 -0.03848393 0.21167085 0.34109455
0003e0 f2 5b 1c be d2 29 71 be 55 47 25 3d 31 63 5e 3b
       -0.1526945 -0.2355111 0.04035123 0.0033933634
0003f0 0c 29 8e 3e 84 fa 82 be 83 aa 88 3d bf ff 9d bb
       0.2776569 -0.25581753 0.066731475 -0.004821747

transformer_encoder.layers.0.linear1.bias f4 [64]
000000 65 45 3a be 3b 74 88 3c 11 1d f8 be b0 fb 8a be
       -0.18190534 0.016656986 -0.48459676 -0.27145147
000010 de 7e c0 bd 73 8f 75 bd 72 a9 37 bd e4 3d a7 be
       -0.09399198 -0.059951257 -0.04483933 -0.32664406
000020 91 7a b7 bd d0 bb 91 bd cc b7 ad be 75 48 cf bc
       -0.089589246 -0.071159005 -0.33929288 -0.025303105
000030 8a 2a 1f be 38 4d a6 be d3 5c 41 be 75 c9 b9 be
       -0.15543571 -0.32480788 -0.18883066 -0.36286512
000040 a9 73 f8 3d 1b cc 87 be 58 ed 59 be f3 1b ef bd
       0.121314354 -0.26522908 -0.21281946 -0.11675253
000050 73 4d 3e be e6 46 6a be 37 5c 6b be d9 44 d3 3b
       -0.18584232 -0.22878608 -0.22984396 0.0064474163
000060 9c 5a 3e be fd a0 b3 bd db d8 40 be a7 2d 68 be
       -0.18589252 -0.087709405 -0.18832724 -0.22673665
000070 cc 46 3d be 22 8a 01 be 82 ec 8b be 96 c3 b5 bd
       -0.18484038 -0.1265035 -0.2732888 -0.08875196
000080 c3 1b 97 be b0 2a 21 be 99 d4 e7 be 35 3c 96 be
       -0.29513368 -0.1573894 -0.45279387 -0.2934281
000090 2d df 3f bd 24 84 6e be d4 6e 7c bb 9b 3b 17 3d
       -0.046843696 -0.23292595 -0.0038518207 0.03692208
0000a0 89 58 8d be a0 37 5d bb bf bc 58 be 43 6d b3 be
       -0.2760661 -0.003375508 -0.21165751 -0.35044298
0000b0 fd 02 26 bd ac 89 d7 be 07 59 2a be cd b7 82 3c
       -0.040530194 -0.42097223 -0.16635524 0.015956784
0000c0 fb bd b3 bd d5 b2 38 be 10 89 c5 be c1 1b 4b bd
       -0.0877647 -0.18036969 -0.38581133 -0.049587015
0000d0 87 7d 61 be e6 8e d4 be c6 71 90 3c eb 30 bd bd
       -0.22020541 -0.41515273 0.017632376 -0.09237846
0000e0 1a 41 82 3c 5d 82 cf bd 13 66 cf bd 46 57 01 be
       0.015900183 -0.10132287 -0.10126891 -0.12630948
0000f0 c6 1c 98 be eb 40 49 be fc 61 39 be 29 48 ae be
       -0.29709452 -0.1965367 -0.18103784 -0.3403943

transformer_encoder.layers.0.linear2.weight f4 [17, 64]
000000 18 35 01 be 55 cd 6c bd 9a b5 47 bc 59 ea d0 3d
       -0.1261791 -0.057813007 -0.012189293 0.10200948
000010 64 ab 25 bd 69 94 40 be ef 2f 80 3d 7c 16 a7 3d
       -0.040446654 -0.18806614 0.062591426 0.081585854
000020 86 64 dd 3c f5 ab 5f be a1 c4 01 3e e2 1e 61 be
       0.027025472 -0.2184294 0.12672664 -0.21984437
000030 e0 a1 84 3d 7c 23 da 3b f8 e8 00 3e 36 79 b9 bb
       0.06476188 0.006657062 0.1258887 -0.0056602014
000040 60 61 5f 3c 30 89 fb 3d 67 a9 92 be 52 2b 98 bd
       0.013634056 0.12282026 -0.2864487 -0.07430138
000050 2f 51 a4 3c 91 2b 53 3d c0 6f 05 3d 6f e0 d1 3c
       0.020058243 0.05155522 0.032577276 0.025619714
000060 07 07 06 be 9b 5a da bd 05 ff 42 3d 9b d4 fd 3c
       -0.13088618 -0.10661813 0.047606487 0.030985167
000070 6c d7 89 bd ab 7c 05 3d b2 8f 90 bd a0 f9 34 3e
       -0.067305416 0.032589596 -0.07058658 0.1767335
000080 9c 4f 0b 3d 9e 59 03 3c 1c f8 c8 3e b3 c6 c5 3d
       0.03401147 0.008016972 0.39251792 0.096570395
000090 38 80 68 bd eb b4 61 ba de c7 98 3e 09 65 3d be
       -0.056762904 -0.0008610028 0.29839987 -0.18495573
0000a0 bb 83 25 3e 34 bd 2f 3d ae 22 7d 3d 16 2f 5f bd
       0.16163532 0.042905048 0.06180065 -0.054488264
0000b0 e6 d1 aa 3c a0 c3 ff bd f7 35 88 3d e1 a2 2e be
       0.02085204 -0.124884844 0.06650918 -0.17054321
0000c0 88 9e 01 be 21 12 4f bd 1d 81 dd 3d f6 7b 0d bd
       -0.12658131 -0.0505544 0.10815642 -0.034542046
0000d0 db 36 21 3c 1a d7 b2 3c d4 3f 44 3d 9c d7 ba 3d
       0.009839739 0.021831084 0.047912434 0.091231555
0000e0 7a e8 a1 3d 9d 2a ff bd e7 19 b2 3c f2 cc e0 3c
       0.079056695 -0.124593 0.021740867 0.027441476
0000f0 3a 43 c4 bd 67 92 b3 3b 86 12 96 3d a2 82 65 3d
       -0.09583135 0.005480099 0.07327752 0.056032784
000100 ce 27 14 be b1 04 bb bd 29 06 7e be 8d b8 2a be
       -0.1446831 -0.09131754 -0.24807037 -0.16671963
000110 dc 1f 37 be 56 01 18 3e 71 56 4e be 30 f2 87 3c
       -0.17883247 0.1484426 -0.20150162 0.016594976
000120 d6 0e b5 bc d0 b7 aa bd 87 f7 00 3e 2f b8 2c be
       -0.0221018 -0.08335841 0.12594424 -0.16867135
000130 1c a1 8f be 4a 39 d0 3d 08 1e 5a be 43 a5 e2 3d
       -0.28052604 0.10167177 -0.21300519 0.110666774
000140 1c a4 94 bd a7 94 3b 3e c5 6d 0e bd e3 9a 72 be
       -0.07257864 0.18318425 -0.034772653 -0.23691897
000150 ea bf 46 be 0f 58 7d 3e ee b3 c0 3d a9 bc 54 be
       -0.19409147 0.24740623 0.09409319 -0.20775093
000160 c0 df bc 3c 38 d5 84 be 41 e1 86 be a9 fc 15 3c
       0.023055911 -0.25943923 -0.2634373 0.009154477
000170 b6 2a 02 3e c0 55 da bd 8e 01 80 be 14 9e 3b 3e
       0.12711605 -0.10660887 -0.25001186 0.18322021
000180 0a 74 cb bc d4 5d 5e 3e 3e 7d 91 3d f7 6a 00 3e
       -0.024835605 0.2171548 0.07103966 0.12540804
000190 db b1 3d 3e 82 66 26 be f6 05 59 be 43 fa 6b bd
       0.18524878 -0.16250041 -0.2119368 -0.057611715
0001a0 88 42 ac bd 71 a8 ce 3d 7c 82 6c be 76 3e 48 bb
       -0.08411127 0.100907214 -0.23096651 -0.0030554808
0001b0 3c da 47 bd ff 31 46 be 91 a7 2d 3d 27 3d 91 be
       -0.04879211 -0.1935501 0.042396132 -0.28366968
0001c0 e5 f4 88 be 57 62 00 bd ed ec fb 3e 9f 76 3d be
       -0.2674934 -0.031343784 0.49204198 -0.18502282
0001d0 36 1b ac 3e fa eb 09 3d 02 12 91 bd 56 19 0f 3e
       0.3361451 0.03367231 -0.07083513 0.13974509
0001e0 88 93 1f 3d ea 52 14 be c6 69 bd 3d 0a 35 7f 3e
       0.038959056 -0.14484754 0.0924869 0.24922577
0001f0 15 16 50 3d 39 bf cd 3d d6 da b6 bc 1c 2b d8 bd
       0.05080231 0.100462385 -0.022321146 -0.105550975
000200 51 55 14 3e cd 6f 4e bd fe 40 8d 3c f3 5c 0b 3b
       0.1448567 -0.05039959 0.017242905 0.002126512
000210 2b 68 f5 bd de b3 0e bd a1 63 a6 bd 3b 8e 9a 3d
       -0.11982759 -0.034839503 -0.081244715 0.075466596
000220 4e 2e 98 3d 4f 30 8d bd 48 b0 dd bc d7 78 55 3d
       0.07430707 -0.0689398 -0.027061597 0.052117195
000230 2c a9 57 3d 7c f1 b0 3c 73 5f ac bb ca b4 e5 ba
       0.05265157 0.021599524 -0.005260402 -0.0017525193
000240 30 36 5c 3e 95 36 da bd 3e b3 e2 3b eb 1c a2 bc
       0.21505046 -0.10654942 0.00691834 -0.01978918
000250 7c 82 88 bd b4 28 29 bd 34 98 18 bd 99 1d 89 bd
       -0.06665513 -0.041298583 -0.037254527 -0.066950984
000260 12 48 11 bc ca d9 c0 3d b6 21 64 bc 66 97 ab 3c
       -0.008867281 0.0941654 -0.013924053 0.020946216
000270 cb f7 b1 3c 8f 22 06 bd 11 1b 45 be 93 64 45 ba
       0.021724602 -0.0327478 -0.19248606 -0.00075299403
000280 88 bf 37 3d cf f8 90 3c 95 7b 02 3e b5 13 bc 3d
       0.044860393 0.017696766 0.12742455 0.09183446
000290 2b bc 78 bc 4f c0 29 3e 9f ec 6a 3d 5b f8 e9 3d
       -0.0151815815 0.16577266 0.057354566 0.11424323
0002a0 0f 33 8c ba 32 1c b7 bc 49 e5 a7 bd 5f c7 34 3d
       -0.0010696369 -0.022352312 -0.081980295 0.044135448
0002b0 b1 8b 5d bd dd 4c f1 3c b0 ba 92 bc a7 00 0d 3d
       -0.0540883 0.029455597 -0.017911285 0.03442445
0002c0 5a 73 02 be 52 ef 34 3c b0 ef 2b bd f8 2a ab 3d
       -0.12739316 0.0110433865 -0.04197663 0.08357805
0002d0 a9 f2 06 bc 94 56 f4 bc dc 36 a3 3d d1 40 a6 3d
       -0.008236566 -0.02982644 0.07969448 0.081178315
0002e0 9b 4e f8 bd 80 ba f0 3d 88 55 ab 3d 82 06 91 3d
       -0.12124368 0.11754322 0.08365923 0.070813194
0002f0 f7 f3 ec bd 94 40 41 bd 81 44 aa bc 68 ee fa bd
       -0.1156997 -0.047180727 -0.020784618 -0.12252504
000300 0d c2 a9 3d c5 7b 45 3c b8 f4 9b be f1 1a 2c 3d
       0.082889654 0.012053435 -0.30460143 0.04201788
000310 07 90 7a 3e 7c 62 f9 bd 6f ed 94 bb 00 66 16 3e
       0.24469005 -0.121769875 -0.004544906 0.14687347
000320 8e 04 66 be f0 69 8f bd 64 5b a3 3d 0e 87 33 3d
       -0.22462675 -0.07002628 0.07976416 0.04382997
000330 d2 a4 eb 3d 7e c4 53 3e 13 61 4f 3e 8a c2 d8 3d
       0.11506046 0.20680425 0.20251875 0.105839804
000340 37 92 ce 3d aa 29 d5 3c 65 04 31 3e ef 77 3b 3d
       0.10086482 0.026020844 0.17286833 0.045768674
000350 3e d0 21 3e 79 87 f2 bd 55 07 c3 bc 77 c8 c5 3c
       0.15802094 -0.118422456 -0.023807207 0.02414344
000360 66 90 16 be 6d c1 53 3d 76 53 38 3e b7 e6 5e 3e
       -0.14703521 0.051698137 0.18000588 0.21767698
000370 20 93 b0 bd 93 fa 51 be 3b ad 48 3e c6 71 f5 3d
       -0.08621812 -0.20505743 0.19597332 0.11984591
000380 02 b2 92 be 49 ab cb 3d a4 66 e7 bd 07 3b 80 bd
       -0.28651434 0.099447794 -0.11298874 -0.062612586
000390 b1 d5 6b 3c d8 f6 5a 3c 08 53 29 be 7b b0 69 bd
       0.01439421 0.013364516 -0.1653558 -0.05705307
0003a0 85 4e 3f be 7d 29 43 3c be 04 59 3e d2 5f 3b be
       -0.18682297 0.011911747 0.21193215 -0.18298271
0003b0 86 e4 45 be 45 28 bd be d6 8e 42 3d 67 16 bd 3d
       -0.19325456 -0.36944786 0.0474995 0.092327885
0003c0 03 8c ec bd a0 95 9a 3e df f0 9e 3e 27 59 ec 3d
       -0.115501426 0.3019228 0.31043145 0.11540442
0003d0 a1 83 22 3e df b3 62 3d f4 d9 0d 3e 21 06 37 3d
       0.15870525 0.05534732 0.13852674 0.04468358
0003e0 26 a2 ea 3d e2 65 8a bd 9e 11 02 3e bd f9 0e be
       0.114567086 -0.06757714 0.12702033 -0.13962455
0003f0 80 f6 73 3e 90 7b ec bc 4f 22 6b bd d9 cc 43 be
       0.23824501 -0.028867513 -0.057405766 -0.19121112

transformer_encoder.layers.0.linear2.bias f4 [17]
000000 40 21 79 bc d0 05 cf 3d 93 f8 9a 3d 39 32 9a 3d
       -0.015205681 0.101085305 0.07566943 0.075291105
000010 25 0a e4 3c ba 3c 47 bd 0f 58 90 bd ca 60 ab bd
       0.027836869 -0.048641898 -0.07048046 -0.083680704
000020 fc 43 1d 3d ee d8 a0 bd c3 bd 7e bc 10 79 5f bc
       0.038394913 -0.07853876 -0.015548172 -0.013639703
000030 34 a2 24 3c 29 85 ac 3c 19 f4 06 bb bb 6a c8 bd
       0.010048438 0.02105959 -0.002059227 -0.09785982
000040 23 29 f8 3c
       0.030293053

transformer_encoder.layers.0.norm1.weight f4 [17]
000000 25 3d 6c 3f 22 da 57 3f cb 18 86 3f dd 7b 63 3f
       0.922808 0.8431722 1.0476316 0.88860875
000010 18 69 51 3f ba 5c 64 3f 39 c2 6d 3f 38 ae 49 3f
       0.81800985 0.8920399 0.92874485 0.7878146
000020 3f be 7b 3f 15 ae 70 3f 50 82 68 3f bb 48 79 3f
       0.9833717 0.9401563 0.9082384 0.973766
000030 cd 04 50 3f 79 24 49 3f db a7 5b 3f 9b a4 50 3f
       0.81257325 0.7857128 0.85803 0.8150117
000040 9f c0 4f 3f
       0.8115329

transformer_encoder.layers.0.norm1.bias f4 [17]
000000 bc 75 ad bd fd a4 4b 3d be d8 4e 3c 65 0a 83 bc
       -0.08469722 0.049717892 0.012624918 -0.015996167
000010 fa fc 6f bd 5e ef aa 3c 46 c5 80 bd db d3 6e bd
       -0.058590867 0.020866092 -0.06287627 -0.05830751
000020 5b 91 d1 3a 1f a1 30 bd b9 b2 9f 3d 3a 35 04 3c
       0.0015988754 -0.043122407 0.077977605 0.008069331
000030 69 3d fe bd 6e 82 29 3d 98 3c 0b 3d 1b eb 11 3b
       -0.12414057 0.041384153 0.033993334 0.0022265378
000040 74 e0 ba bd
       -0.09124842

transformer_encoder.layers.0.norm2.weight f4 [17]
000000 f4 89 68 3f 47 a1 84 3f d9 04 8e 3f 8b 45 5c 3f
       0.908355 1.0361718 1.1095229 0.86043614
000010 d1 3f 6f 3f 7e 0b 75 3f de 33 84 3f 03 b6 67 3f
       0.9345675 0.9572066 1.0328329 0.905121
000020 ce 1d 91 3f 8f 74 7b 3f a4 48 7e 3f b3 12 9a 3f
       1.1337221 0.9822473 0.9932959 1.2036957
000030 c9 2f 73 3f fc 2b 7b 3f 3d 9e 86 3f 3a cf 80 3f
       0.9499479 0.9811399 1.051704 1.006324
000040 29 f3 77 3f
       0.9685541

transformer_encoder.layers.0.norm2.bias f4 [17]
000000 64 ec 68 3d 75 e0 08 bc 65 8d 37 bc 44 35 70 3e
       0.056866065 -0.008354296 -0.011203145 0.23457819
000010 9c c7 00 be 80 e5 86 3b 8d 21 b7 bd 09 77 1e bd
       -0.12576145 0.004116714 -0.08941946 -0.03868774
000020 0e fb 0f bc 08 51 f7 3d 8c 1f 3b 3d 55 22 76 bd
       -0.008787883 0.12076002 0.045684382 -0.060091335
000030 60 fd 14 be 35 96 a7 3d b2 28 ba 3d d3 d5 ad bc
       -0.1454978 0.081829466 0.09089793 -0.021220123
000040 72 b8 2d bd
       -0.04241223

transformer_encoder.layers.1.self_attn.in_proj_weight f4 [51, 17]
000000 3e 71 b3 bd ba 69 d1 3e 2b 10 a4 3e dd 83 c6 3b
       -0.087618336 0.40900975 0.32043585 0.0060582
000010 63 67 6e 3e 5b 6e b3 3d 87 bf 2f 3e 93 f8 39 be
       0.23281626 0.08761283 0.17162906 -0.1816123
000020 0e 14 b8 be e3 44 a8 3e d6 2d d1 bd 6f 17 8d 3e
       -0.359528 0.32865056 -0.10213821 0.2755694
000030 5d 94 22 3e 48 60 7f 3d 27 86 09 be fc cc 43 bc
       0.15876909 0.06234768 -0.13430081 -0.011950728
000040 16 06 6d be d7 5d 21 bd 1d 3f 8d be 5d 57 95 be
       -0.23146853 -0.039396133 -0.27587214 -0.29168215
000050 f8 ec d9 3e b1 39 64 be 1e f2 88 3d 37 0f 01 3d
       0.42563605 -0.22287633 0.06686805 0.03150865
000060 da d0 63 bd 03 8f 42 3d 42 ec 30 be 67 11 1d 3e
       -0.0556191 0.047499668 -0.17277625 0.1533867
000070 8a 6e f2 be 79 7e 6a 3e 0d 33 ba bd 9b 0a 82 3e
       -0.4734996 0.22899808 -0.090917684 0.25398716
000080 cd 09 af 3d 82 f1 b4 3e 11 6c d6 3e 41 73 b6 3e
       0.08546791 0.35340506 0.41879323 0.35634807
000090 94 fb 30 3f 0e 15 39 3e 89 b4 1e be 51 7c d4 be
       0.6913388 0.18074438 -0.15498556 -0.41501096
0000a0 c3 d2 7f be 9b ae fc bd 93 fc 7a 3e 4f fe 08 bf
       -0.24982743 -0.12337991 0.24510412 -0.53513044
0000b0 e1 52 95 bd 11 ef ca bd 57 2d 0d be b8 58 5f 3d
       -0.072911985 -0.099088795 -0.13786827 0.05452797
0000c0 a6 7e 88 be 64 a1 9a 3c eb 5a 32 3f be 04 65 3d
       -0.26659125 0.018875785 0.6966998 0.055912726
0000d0 fe 92 08 3e 42 67 79 be 3e 49 e2 3d 0f 86 40 be
       0.13337323 -0.24355796 0.11049126 -0.1880114
0000e0 42 02 d3 3e 3f 66 77 3e ba d3 03 be 3e f2 29 bf
       0.4121266 0.24160098 -0.12873736 -0.6638526
0000f0 5c 08 63 3e c3 ae da 3e 00 63 2f bf 4d c9 df 3e
       0.22171158 0.42711458 -0.68510437 0.43708268
000100 1a d0 02 3e 38 08 6a 3e ae 16 62 be 80 f5 86 be
       0.12774697 0.22854698 -0.22078964 -0.26359177
000110 d6 28 6e 3d fe 94 19 bd da ae 63 be 8d fc a4 3e
       0.058144413 -0.037495606 -0.2223467 0.3222393
000120 6d d6 37 be f8 50 3e be 58 a9 0d be 7e 1a 7d bc
       -0.1795289 -0.18585575 -0.13834131 -0.015448211
000130 4f b9 97 3e c0 dd 82 be 22 e9 6c 3e 75 a1 92 bd
       0.29633567 -0.25559807 0.23135808 -0.07159702
000140 5e 30 1b be 1e 59 9e be 2f d5 0b 3e 08 02 6e 3d
       -0.1515517 -0.30927366 0.13655542 0.058107406
000150 7c b2 d6 bd db 46 04 3e 9a 14 02 bf 6b d1 87 3e
       -0.10483262 0.12917654 -0.50812685 0.2652696
000160 5d 59 91 3d 21 e2 f1 bc 04 dd d9 be 51 86 37 3e
       0.07097123 -0.029526772 -0.42551434 0.17922331
000170 cb 9b 17 bb 42 4d 68 3d 0d f8 07 3f 45 9b a4 be
       -0.0023133631 0.056714304 0.5311287 -0.3214971
000180 c4 e8 01 bd 81 c2 ff bd dc ff 46 be c8 86 d5 3e
       -0.031716123 -0.124882706 -0.1943354 0.41704392
000190 d7 96 56 be 89 6e 99 3e a1 30 5f 3e 12 8c 34 3d
       -0.20955978 0.29967144 0.21795894 0.044078894
0001a0 fe e3 94 3e 28 57 80 be 2f 1a ef bd c2 57 78 be
       0.29080194 -0.25066495 -0.11674916 -0.24252227
0001b0 e0 41 34 3e 54 52 27 3d b1 93 e1 bb a1 24 d1 3e
       0.17603254 0.04085 -0.0068840613 0.40848258
0001c0 90 3d 3c be 35 b0 94 3e 5a 0a 16 3e e1 b8 4e 3d
       -0.18382859 0.29040685 0.14652386 0.050469283
0001d0 bd b5 b3 bd c3 fb db be 0c 4f 0b 3d 40 57 28 3d
       -0.08774898 -0.42965516 0.03401093 0.041098833
0001e0 0c e4 a7 be 33 f7 36 3c 3a ec ec 3d 91 9a d1 be
       -0.32791173 0.011167335 0.11568494 -0.40938237
0001f0 a4 94 9d 3e 8c dd 93 3e 50 ef 1b 3e cc 58 4a be
       0.30777466 0.28879964 0.15228009 -0.19760436
000200 12 49 19 be c3 fa 47 3d 86 e6 8d 3e fe fe f5 be
       -0.1496928 0.04882313 0.27714938 -0.48046106
000210 56 16 e1 3a 2f 5c 88 be 53 7c bb 3d 71 c6 5b be
       0.0017172794 -0.2663283 0.09154572 -0.21462418
000220 c7 71 b1 bd ea 9d f4 bc c9 58 9c bd 43 7d 53 3e
       -0.086642794 -0.029860456 -0.07634122 0.20653252
000230 6f a9 77 be 69 af 86 bd 07 a2 11 3f fe ca 92 3e
       -0.24185728 -0.065764256 0.5688786 0.28670496
000240 a4 dc 95 bd ff b4 98 3d 76 2f 8d 3e 0a 0e 54 3e
       -0.073174745 0.07456397 0.27575272 0.2070848
000250 09 2f 6f 3c 56 61 7c bd ec 10 dc 3d 92 c2 2c 3e
       0.014598616 -0.061616264 0.10745415 0.16871098
000260 d9 12 25 3e a9 de 82 be de c0 a6 bd ab a9 17 bf
       0.16120471 -0.255605 -0.08142255 -0.5924327
000270 fe f8 fb bb 84 6c 95 be d9 f8 16 3e 55 2d d8 3e
       -0.0076895943 -0.29184353 0.14743365 0.42222086
000280 83 2c 07 be 8a 6d b7 be a1 35 87 be 4c b9 f4 3d
       -0.13200574 -0.3582576 -0.26408103 0.11949405
000290 ad c6 85 3e 3e 3e 9c be 90 7d 1b bc 03 a6 fc 3d
       0.2612814 -0.30516237 -0.009490386 0.12336352
0002a0 82 28 97 3d 2b 69 8b be 53 56 e8 bd 42 39 d3 3e
       0.07380773 -0.27228674 -0.1134459 0.41254622
0002b0 19 ef c8 3e 25 09 63 3e 3e 8a 86 3e 7a 5a 99 bd
       0.39244917 0.22171457 0.26277345 -0.0748796
0002c0 db 26 02 3e 92 95 5b be 40 f0 2a be c6 4d 91 be
       0.12710135 -0.21443775 -0.1669321 -0.2837965
0002d0 4a 22 50 be 1d 91 04 be 7e 18 8b bd 5a a9 3f bd
       -0.2032558 -0.12945981 -0.06791781 -0.046792366
0002e0 46 fc 85 be 90 b6 a3 3e 4b e5 8d bb a0 1f 6c be
       -0.26169032 0.31975222 -0.0043303124 -0.23058939
0002f0 4d f8 34 bc d8 87 66 be 21 91 e6 bd 06 86 05 3d
       -0.011045528 -0.22512758 -0.1125815 0.032598518
000300 d3 ce 65 3e 5d 4d 21 be 6b 22 c2 bd ef de 8f 3e
       0.22442178 -0.15752168 -0.09479221 0.28099772
000310 97 41 58 be 60 ae c0 3e 5e 39 db bc 6c 69 ec bc
       -0.2111877 0.37633038 -0.026760753 -0.028858863
000320 26 4d 05 be a7 95 bd 3d 65 d2 b2 3e 65 21 3c bd
       -0.13017711 0.092570595 0.34926143 -0.045930285
000330 67 f6 55 bd 29 46 e0 3e 18 1e 61 3e c2 29 dc 3c
       -0.05223694 0.43803528 0.21984136 0.02687538
000340 27 99 09 be b6 87 f9 3d cd a3 65 3e a5 71 ed bd
       -0.13437329 0.12184088 0.22425766 -0.115939416
000350 9b 57 be be b1 65 67 be 07 a5 0a be e1 a3 f9 3e
       -0.37176213 -0.22597386 -0.13539515 0.48757842
000360 f9 6a c1 bd db 89 5e 3e 67 6c 37 be 4b 5d 4c be
       -0.094442315 0.21732275 -0.17912446 -0.19957463
000370 f3 eb d5 3d ae 13 a9 be d3 52 ac be a9 d8 7b 3d
       0.10445394 -0.33022827 -0.3365694 0.06148592
000380 16 4a 4a 3e 99 6b 0e 3e b7 2a d7 3c 9a d4 e8 bb
       0.19754824 0.13908233 0.026265485 -0.007105422
000390 08 75 48 be 45 f8 e5 3e 53 68 b3 be c4 68 09 3e
       -0.19575894 0.44915977 -0.3504053 0.13418871
0003a0 aa a5 c6 3e 31 ff 27 be 59 3f f6 bd 8b 54 4a be
       0.38798267 -0.16405942 -0.12023801 -0.19758813
0003b0 70 c5 cc 3d 92 24 42 bd d2 df c3 bd ce 0e 6d 3e
       0.09998596 -0.047398157 -0.09564175 0.23150179
0003c0 05 8b 08 3e 01 11 48 3e 81 44 cb 3d 19 cf 8e be
       0.13334282 0.19537736 0.099251755 -0.27892378
0003d0 6c 4e b4 3e a6 db 20 3f 9f 54 a2 be ec 8f 9b be
       0.3521608 0.62835157 -0.31705186 -0.3038324
0003e0 3f 6f 82 3e b8 af 0a 3f 9b f9 5d 3d 3f 7e 3b bf
       0.254755 0.54174376 0.05419312 -0.7323951
0003f0 0b b2 4c 3e c2 76 76 be 88 e8 f5 3d 9b 23 5d be
       0.19989793 -0.2406874 0.120072424 -0.21595614

transformer_encoder.layers.1.self_attn.in_proj_bias f4 [51]
000000 0d 2e 85 bd 79 00 47 3d ba 55 bd bd d5 83 91 3d
       -0.06502924 0.048584435 -0.09244867 0.07105223
000010 fc 88 90 3b 89 db 42 3e 77 6c 9f 3d 7d 10 1c 3d
       0.004410861 0.19029059 0.0778436 0.038101662
000020 d1 5b 9f 3d a2 aa 8b 3d 5d ca 88 bd e5 6c 09 bd
       0.077811845 0.06819655 -0.06679223 -0.033551116
000030 82 07 0c be 27 79 45 bc 3c f3 53 3e 03 e4 91 bd
       -0.13674739 -0.012052811 0.20698255 -0.07123568
000040 02 78 11 be c3 21 c7 3b 88 98 04 3c cb 4c c6 bc
       -0.14205936 0.0060770228 0.008093007 -0.02420654
000050 16 63 04 3d 67 43 92 bc c3 80 56 bc 3f 5f 1f 3a
       0.03232106 -0.017854406 -0.013092223 0.00060795614
000060 4f 1b 03 bd b7 02 9c ba a5 e2 15 bb e6 2a 4b 3d
       -0.032008465 -0.0011902665 -0.0022870686 0.049601458
000070 08 52 2d bd 9c 05 c6 3a 28 bb 15 3c 21 27 64 3b
       -0.04231456 0.0015107873 0.00913886 0.0034813362
000080 1e 51 48 3d 16 a6 bf 3c 09 19 46 bc 71 13 36 bd
       0.048905484 0.023394626 -0.01209093 -0.044452135
000090 4a 99 ab 3d 9b 1a ad bc ba f9 74 bd b9 e3 c5 bc
       0.08378847 -0.02113085 -0.05980847 -0.024156438
0000a0 eb 76 3a bd b9 ab 10 be 0b c2 58 bd df ce cf bd
       -0.045523565 -0.14128007 -0.05291943 -0.101468794
0000b0 f9 04 08 bd 89 38 35 3c 17 85 7c bc 62 d2 8d bd
       -0.033207867 0.011060842 -0.0154125905 -0.06924893
0000c0 7d 03 04 be 5c b0 1c bd e6 d0 69 bc
       -0.12891956 -0.038254127 -0.014270997

transformer_encoder.layers.1.self_attn.out_proj.weight f4 [17, 17]
000000 d5 df 45 3c 99 14 ee 3d a7 3a 5a 3e ea da 20 be
       0.0120772915 0.116250224 0.21311437 -0.15708509
000010 7a f3 6e be c3 e2 cc 3d 38 ac 2b 3e 69 a8 07 bd
       -0.23335066 0.10004189 0.16764915 -0.033119593
000020 62 9f c1 bd ea 03 0a 3e 92 0c b6 be 03 ea fd 3d
       -0.09454228 0.13478056 -0.35556465 0.1239815
000030 1f 14 3d 3e 04 96 16 3e 11 0e 14 3e 0f a7 cb be
       0.18464707 0.14705664 0.14458491 -0.39775893
000040 76 f1 9b 3c 34 42 9c be 75 43 f8 bd 90 a0 d4 ba
       0.019036036 -0.3051926 -0.121222414 -0.0016222168
000050 dc 8b 97 bd a3 ea 28 be 54 c8 ce bd 58 5d e7 bd
       -0.07399723 -0.16495757 -0.10096803 -0.11297101
000060 c2 3e f3 bd e3 7f 42 be 8d 51 8b bd 31 3b 45 3d
       -0.118772045 -0.18994097 -0.06802664 0.048152152
000070 d7 4e a1 bd 9b 25 0e be f5 56 29 be 79 6b 04 3e
       -0.07876366 -0.13881533 -0.16537078 0.12931623
000080 4d b6 aa 3e 4b ec db bb d4 ef f2 bd 44 6e ad bd
       0.3334221 -0.006711518 -0.1186215 -0.08468297
000090 93 2f d1 3d 17 71 05 3c f2 76 e4 3d f0 a2 37 3c
       0.10214152 0.0081446385 0.111554995 0.011208281
0000a0 b4 39 7f 3d 3f a4 c4 bb fe 52 fa 3d f3 55 30 3e
       0.06231089 -0.006001025 0.12222861 0.17220287
0000b0 cb fd 87 3e f1 bf ae be 39 f0 5b 3e f7 ff 5c bd
       0.26560816 -0.34130815 0.21478356 -0.053955045
0000c0 65 76 6d 3e 7a 8a 68 3d af 90 44 bc cb 77 96 bd
       0.23189695 0.056772687 -0.011997386 -0.073470674
0000d0 9b 1e 5b be 16 36 62 3e 2f b3 38 be 6c 73 77 bd
       -0.21398394 0.22090945 -0.18037103 -0.06041281
0000e0 36 84 f1 bc a0 d4 8d 3e e0 88 93 3e 1a 53 c5 3c
       -0.029481988 0.27701283 0.28815365 0.024087477
0000f0 52 21 63 3e a9 40 9a 3e 4a 89 1a bc b0 45 75 3e
       0.2218068 0.30127457 -0.009432146 0.23952365
000100 46 19 a9 bc 32 be 21 3e aa 8e 3d bb a6 6e 05 3e
       -0.020641934 0.1579521 -0.0028924146 0.1303049
000110 24 9e ff bd 1b 67 aa bd e0 3f 60 be de 44 1f bd
       -0.12481335 -0.08320447 -0.21899366 -0.038884036
000120 92 07 c8 bd 9d 70 1d 3d 55 7e 48 3d 09 0b 27 be
       -0.09767069 0.038437475 0.048948605 -0.16312803
000130 4e 73 84 3d 07 67 ad 3c cf 8b a6 be 40 95 95 3d
       0.06467305 0.021167291 -0.3252854 0.07303858
000140 ba 1a c8 3d 48 ab ee bd f9 9c 39 be b1 e8 25 3e
       0.09770723 -0.11653763 -0.18126287 0.16202046
000150 d3 4f f2 bd 3c 3c 8e 3e 32 9a af bc c3 0d 1f 3d
       -0.118316315 0.2778033 -0.02143583 0.038831484
000160 47 71 c8 3d 8e d9 81 3e f7 3b 92 3c d4 80 c1 bd
       0.09787231 0.25361294 0.01785086 -0.094484
000170 bf d9 28 3e be 4c 1e 3e 62 6e 66 bd df 75 48 3d
       0.16489314 0.15458962 -0.056257613 0.048940536
000180 34 6a 42 3e b6 1b 14 3e 60 0d 18 3e 6d 8c 16 bc
       0.18985826 0.14463696 0.14848852 -0.009188754
000190 5a 03 db 3d 3f ce b7 3e 5a a8 b7 be 82 79 a3 3d
       0.10693999 0.3589954 -0.3587063 0.0798216
0001a0 95 15 93 be 57 2a c1 bc f2 12 17 3e 3e dc 35 3d
       -0.28727403 -0.02357976 0.14753321 0.044399492
0001b0 a4 aa 8d 3d 58 56 f2 3d 2b 6a 0d be b5 18 28 3e
       0.06917313 0.11832875 -0.13810031 0.16415675
0001c0 58 38 b7 bd 84 0c 51 3d cb 2f 8c be 41 a7 e1 3d
       -0.089462936 0.051037326 -0.27380213 0.11018229
0001d0 29 68 85 3e 1e fc e1 bc 98 b5 1b be ab cc 00 be
       0.2605603 -0.02758604 -0.15205991 -0.12578075
0001e0 61 20 05 3e 12 c1 a9 3d 03 29 ba bc e9 87 2a be
       0.13000633 0.08288778 -0.022724634 -0.16653408
0001f0 66 f6 2f be 70 c1 35 3e 6d f7 bc bc 93 9b de bd
       -0.17183837 0.17749572 -0.0230672 -0.10869517
000200 07 68 ef bd 3d dc 06 be 67 f0 ec bc 42 4a 80 be
       -0.116897635 -0.13169952 -0.028923227 -0.25056654
000210 e6 84 b0 bd ae 23 56 be b9 f4 16 3e b7 87 e7 3e
       -0.08619098 -0.20912048 0.14741792 0.4522073
000220 8d 4c a0 3d 8d 49 69 be 52 d8 2b 3d 9e a2 b0 3d
       0.07827101 -0.22781964 0.041954346 0.08624767
000230 da b7 fb bc 59 26 92 3e 11 2e 9c be 20 b0 c6 3c
       -0.030727316 0.28544882 -0.30503896 0.024253905
000240 08 06 41 be f0 18 c5 3d f9 a4 f2 3d 92 20 30 bd
       -0.18849957 0.09623897 0.11847872 -0.04299981
000250 5b f5 5a 3e 27 d8 61 3d 81 fe a7 bd 18 ee 45 be
       0.21382658 0.05513778 -0.0820284 -0.19329107
000260 ee f0 39 be 2e f8 cd bd ed 9d 02 3e b1 49 b9 bd
       -0.18158314 -0.10057102 0.12755556 -0.09047259
000270 9d 3c 4c 3e fb f0 bd 3e 19 9b ba 3d 55 56 bf bd
       0.19944997 0.37097916 0.09111614 -0.093426384
000280 9d 25 67 bc 9d bb b8 3d 89 b6 87 bd a6 1b ac 3c
       -0.014108089 0.090201594 -0.06626613 0.021009278
000290 4d d9 ad bd 71 b1 9c be da 87 9a 3e 1a c8 00 be
       -0.084887125 -0.30604127 0.30181772 -0.12576333
0002a0 01 4c b3 bd d2 d1 89 be a3 7e 0d 3e 01 00 e9 3d
       -0.08754731 -0.26917893 0.1381784 0.11376954
0002b0 0f 99 bf 3d 6a 27 83 3e 8b 9a 20 bd f8 6b 80 3e
       0.093553655 0.25616008 -0.039209884 0.25082374
0002c0 89 ce 32 be 60 97 e9 bd 96 1f b1 3c 8e c0 44 be
       -0.174616 -0.114058256 0.021621507 -0.19214079
0002d0 f7 b6 ca 3c 51 d9 64 3e 40 31 a4 3e c1 03 a8 bd
       0.024745448 0.22348525 0.32068825 -0.08203841
0002e0 83 56 05 3e b1 fe 9a bb e5 a5 33 3e b0 c4 8f bd
       0.13021283 -0.0047300686 0.17543752 -0.07019937
0002f0 c0 2f 00 3e 59 53 a6 bd 4e 38 b3 bd 5a 3d 15 be
       0.12518215 -0.08121366 -0.08750974 -0.14574185
000300 65 df fe 3d e2 e1 5d be 1d bb 0a 3e 9d 76 be 3d
       0.12444953 -0.21668199 0.1354794 0.092999674
000310 00 2d 7a 3e fd 67 72 be 01 6b 2f 3e 0e e9 81 3e
       0.24431229 -0.23672481 0.17130663 0.2537312
000320 9a 01 c7 be 7e 9f 83 3e 1a 09 1e 3c cc 93 0b 3e
       -0.3886841 0.2570762 0.009645725 0.13630599
000330 80 bc e8 bd 4a 87 00 3e a8 49 2a 3e 66 0e 0a 3e
       -0.113640785 0.12551609 0.1662966 0.13482055
000340 a2 1b 65 bd a3 bb 22 3d 02 d1 a7 bc b1 12 86 be
       -0.055934556 0.039729726 -0.020485405 -0.26186135
000350 4e 05 6c be 0c 24 80 3c 23 ce 7b 3d d8 74 f3 bb
       -0.23048899 0.015642188 0.061475884 -0.0074297003
000360 5e d5 03 be b0 a0 11 be 65 76 ce be 44 08 4c bb
       -0.12874362 -0.14221454 -0.40324703 -0.0031132856
000370 41 fa 5f bd b7 fc 56 3e 55 0a 1e be 21 88 37 3d
       -0.05468202 0.2099484 -0.15433629 0.044807557
000380 27 1f ab be dd f3 4b 3a 40 45 4a be bc 1b 50 3e
       -0.33422205 0.0007780174 -0.1975298 0.2032308
000390 48 bf 29 3d a6 9a 03 3d 26 ac 7e be a2 dc a6 3d
       0.041442186 0.032129906 -0.24870357 0.08147551
0003a0 c5 4e 80 bc 46 88 5a 3e f3 06 14 be f1 a2 25 3e
       -0.01566256 0.21341047 -0.14455776 0.16175438
0003b0 4a 43 80 be 6a 2e 5e 3e b5 8c af 3d d5 60 05 3e
       -0.25051337 0.21697393 0.085717596 0.1302522
0003c0 4e b5 da bd 40 df 6d 3d e8 9f 3e 3e b6 b0 14 be
       -0.106791124 0.058074236 0.18615687 -0.14520535
0003d0 76 40 67 3d 76 c7 86 3e 07 6b fa 3d 21 eb f8 bc
       0.05645796 0.26324052 0.12227445 -0.030385556
0003e0 6f 86 5f bd 94 1f 07 3e 11 b8 00 3d 51 66 93 3d
       -0.054571565 0.1319564 0.03142554 0.0719725
0003f0 ce 8f c2 3d 43 4a ca 3d 60 2f 93 3e 91 36 03 bd
       0.09500085 0.098774455 0.28747082 -0.03203446

transformer_encoder.layers.1.self_attn.out_proj.bias f4 [17]
000000 af 94 a0 3d 2e f2 13 3d 4b 10 0f be 85 53 04 be
       0.07840859 0.036119632 -0.13971059 -0.12922485
000010 96 3e 2a 3e 68 13 55 bd 42 1f a6 bd f6 3d 87 bd
       0.16625437 -0.05202046 -0.08111431 -0.06603615
000020 d5 a8 23 3d be 5e 9d bd 78 61 ad 3d ad 27 08 be
       0.039955933 -0.07684086 0.08465856 -0.13296385
000030 b5 9a 53 3e af d9 da 3d 03 ba ee bd ae ba 0f 3e
       0.20664485 0.10686051 -0.11656573 0.14036056
000040 ec 86 9a 3a
       0.0011789477
