models/Scomb_transformer_split=1.pt (torch, 41952 bytes, 28 tensors)

transformer_encoder.layers.0.self_attn.in_proj_weight f4 [51, 17]
0	0x3cd7f8f2	0.026363824
1	0xbd101f22	-0.03518594
2	0x3df90d16	0.12160699
3	0x3e7f6a2c	0.24942845
4	0xbea1e948	-0.31623292
5	0x3c968625	0.018374512
6	0xbe3e195d	-0.18564363
7	0xbddbf9ed	-0.10741029
8	0x3e4fda57	0.20298134
9	0x3e8bc2ec	0.2729715
10	0x3e9d9632	0.30778652
11	0x3e16b831	0.14718701
12	0xbe196e89	-0.14983572
13	0xbf3463fd	-0.7046507
14	0xbf14d720	-0.58140755
15	0xbf05737b	-0.52129334
16	0x3edbeac9	0.42952564
17	0xbd296f80	-0.0413661
18	0x3ca52677	0.020159943
19	0x3e43d2aa	0.1912333
20	0x3dc37572	0.09543885
21	0xbef44587	-0.47709295
22	0x3f153fe5	0.5830062
23	0x3e2e9130	0.17047572
24	0xbe24b94b	-0.16086309
25	0xbe8f0f17	-0.279412
26	0xbe976de2	-0.2957602
27	0xbe6273e7	-0.22114526
28	0x3cce568a	0.02518775
29	0xbf9850bb	-1.1899637
30	0x3f617f2c	0.88084674
31	0x3e425458	0.18977487
32	0xbda76f9f	-0.08175587
33	0xbe808b8f	-0.25106475
34	0x3df69c75	0.120415606
35	0xbe667abd	-0.22507758
36	0x3e192e4f	0.14959072
37	0x3f161560	0.58626366
38	0x3e712e83	0.23552899
39	0xbe60a64f	-0.21938442
40	0x3ecb43fa	0.397003
41	0x3edd0d25	0.4317409
42	0xbe157977	-0.14597116
43	0xbebbaf8c	-0.3665737
44	0xbe0ec6d4	-0.13943034
45	0x3ef770aa	0.48328143
46	0xbe90b908	-0.28266168
47	0xbe8a3d47	-0.26999876
48	0xbe9bf130	-0.3045745
49	0x3eb34259	0.35011557
50	0xbe33ea30	-0.17569804
51	0x3a15377d	0.00056921673
52	0xbcd338bd	-0.02578389
53	0x3e5010bc	0.20318884
54	0x3e9ea9f3	0.30989036
55	0x3e38ccd5	0.18046887
56	0x3f04dda6	0.5190071
57	0xbebd2b6e	-0.36947197
58	0xbdcf6953	-0.10127511
59	0xbddb28a3	-0.1070111
60	0xbe227548	-0.15865052
61	0x3ea7fee3	0.3281165
62	0x3ca582c5	0.020203957
63	0x3ebe3116	0.37146825
64	0x3e17ceaf	0.14824937
65	0xbd5c5f05	-0.053801555
66	0xbec057cb	-0.3756698
67	0x3f061222	0.5237142
68	0xbe135205	-0.14386757
69	0x3d133114	0.035935476
70	0x3f08dfc9	0.5346647
71	0x3ee7d4e8	0.45279622
72	0xbe0b41a9	-0.13599266
73	0xbd2b1985	-0.041772384
74	0x3ee8a166	0.45435637
75	0x3eba0232	0.363298
76	0xbe017e4f	-0.12645839
77	0xbe9c0bc8	-0.30477738
78	0x3daca142	0.08429195
79	0x3e02493e	0.12723252
80	0xbde8ab2f	-0.11360776
81	0xbe5ef373	-0.21772556
82	0x3daaf1aa	0.08346875
83	0x3e9f3bb7	0.31100246
84	0xbf081aa8	-0.53165674
85	0xbd6225d4	-0.055211857
86	0x3e35be3e	0.17748353
87	0x3f900f2b	1.1254629
88	0x3d5cd4ae	0.053913765
89	0xbd71a425	-0.05899443
90	0x3d8a5f67	0.06756478
91	0x3d47d3c1	0.04878593
92	0xbd83ac28	-0.064293206
93	0xbd687f28	-0.05676189
94	0xbe8140cb	-0.25244746
95	0x3dc5d1dd	0.09659169
96	0xbf992891	-1.1965505
97	0x3ebb8fec	0.3663324
98	0xbf13b298	-0.5769439
99	0xbea40950	-0.32038355
100	0xbe1c5e68	-0.15270388
101	0x3e7aa30b	0.24476258
102	0xbd7092d2	-0.05873377
103	0x3c2164f8	0.009850733
104	0xbe31a77f	-0.17349051
105	0x3eb36598	0.35038447
106	0xbf7ac691	-0.9795924
107	0xbf1c4d45	-0.61055404
108	0x3e65f56c	0.22456902
109	0x3d2d2941	0.04227567
110	0xbdf88c5d	-0.12136147
111	0x3c346014	0.011009235
112	0x3f55eda4	0.83565736
113	0xbebc17a3	-0.36736783
114	0x3f4c5401	0.7981568
115	0xbf0c22f7	-0.5474085
116	0xbf2ec245	-0.6826518
117	0xbdc8e231	-0.098087676
118	0xbdfd1f8f	-0.12359535
119	0x3a2fc53f	0.0006705112
120	0x3da8b67f	0.08237933
121	0xbeb119d2	-0.34590012
122	0x3fb2c190	1.396532
123	0x3e2cb8d1	0.16867377
124	0x3a4223d6	0.00074058527
125	0xbea560ae	-0.32300323
126	0xbd804ce5	-0.062646665
127	0x3c8e7225	0.017388413
128	0x3e86f6b8	0.26360106
129	0x3f8f8a78	1.1214132
130	0x3ee8e5b6	0.45487756
131	0xbf325a22	-0.6966878
132	0x3eee45cf	0.46537635
133	0x3e9152cc	0.28383482
134	0x3e434529	0.19069351
135	0xbe03cdb4	-0.12871438
136	0x3e010053	0.1259778
137	0xbe7c819a	-0.24658814
138	0x3eb5b6bb	0.35490975
139	0xbda10848	-0.07862908
140	0x3e170709	0.14748777
141	0xbe91a7ea	-0.2844842
142	0xbe516464	-0.20448452
143	0xbe9f96d4	-0.3116976
144	0xbe08dab0	-0.13364673
145	0xbe23df87	-0.16003238
146	0xbe9002c2	-0.28127104
147	0x3f6c0e88	0.9220967
148	0x3d1c0ebc	0.03809999
149	0xbe8e2a1b	-0.277665
150	0xbe89084e	-0.26764148
151	0xbe9a5645	-0.30143943
152	0x3eba16b7	0.36345455
153	0x3d8d4b0b	0.06899079
154	0x3e3cc57d	0.18434711
155	0x3e8a980d	0.2706913
156	0x3e48ea5f	0.19620655
157	0x3e23386a	0.15939489
158	0xbf482234	-0.7817719
159	0xbe34451a	-0.17604485
160	0xbd9a08c3	-0.075212024
161	0x3e2a52cf	0.16633151
162	0x3e83500b	0.25647005
163	0x3e7aea1b	0.24503367
164	0xbe287bfc	-0.16453546
165	0xbdf57eeb	-0.11987098
166	0xbe3014dc	-0.17195457
167	0xbf4a3fde	-0.79003704
168	0xbe15414b	-0.14575689
169	0xbf1de0ce	-0.6167115
170	0x3c160e0c	0.0091586225
171	0xbca39859	-0.019970106
172	0xbecd6249	-0.40114048
173	0xbf0b83a4	-0.5449774
174	0xbf48747f	-0.7830276
175	0x3e7e7bb3	0.24851875
176	0xbd31cc00	-0.04340744
177	0xbdde5d11	-0.10857595
178	0x3d928b65	0.07155494
179	0x3cd6baa0	0.026212037
180	0x3f9b3d94	1.2128167
181	0x3deb3f41	0.11486674
182	0xbf0d6695	-0.5523465
183	0xbf1ebc29	-0.6200586
184	0xbeb477e0	-0.35247707
185	0xbdafdcef	-0.085870616
186	0x3e20a49b	0.15687792
187	0x3e24172d	0.16024466
188	0xbe72a66c	-0.23696297
189	0x3f1bbaa5	0.6083167
190	0x3fa171d8	1.2612867
191	0xbf5b6836	-0.8570589
192	0x3f025e96	0.50925577
193	0x3c496774	0.012292732
194	0x3d8990bd	0.0671706
195	0x3e65f81d	0.22457929
196	0x3e9a27fc	0.3010863
197	0xbf069ba3	-0.5258123
198	0xbf24f660	-0.6443844
199	0xbeb2bf16	-0.34911412
200	0x3e519d4e	0.20470163
201	0x3e5923a6	0.21205005
202	0x3e9bc221	0.30421546
203	0x3e78ef35	0.2431
204	0xbe0bd375	-0.13654883
205	0xbd4480d8	-0.047974437
206	0xbf152223	-0.58255213
207	0xbd474813	-0.04865272
208	0xbed8f902	-0.42377478
209	0x3e867d28	0.26267362
210	0x3e6823e8	0.22669947
211	0xbdaeb2b1	-0.085301764
212	0xbd0f186c	-0.0349354
213	0x3e420086	0.18945512
214	0xbf3218bd	-0.69569
215	0x3f0fc47e	0.561592
216	0xbec6b2fe	-0.38808435
217	0xbf0ed873	-0.55799025
218	0xbe072d7b	-0.13200943
219	0xbe8e034f	-0.277369
220	0x3f38b59f	0.7215213
221	0xbd7124e9	-0.05887309
222	0x3e42f5d8	0.19039094
223	0x3f94a3f6	1.1612537
224	0xbf1f8ae6	-0.6232132
225	0xbf065447	-0.5247235
226	0x3e380890	0.17972016
227	0xbdaad712	-0.08341803
228	0x3e84fd55	0.25974527
229	0x3d534616	0.05158051
230	0x3dd3fbc4	0.10350755
231	0x3e178d90	0.14800096
232	0x3f890bce	1.0706728
233	0xbec9cfd8	-0.39416385
234	0x3ea00842	0.312563
235	0xbe4de2e7	-0.20106088
236	0x3dfff681	0.12498189
237	0xbd8aff57	-0.067869835
238	0xbe1ea0c6	-0.15491018
239	0xbe3ebf10	-0.18627572
240	0x3f3fcb1f	0.74919313
241	0xbf2910b2	-0.660411
242	0x3f95ec59	1.1712753
243	0x3e706faa	0.23480096
244	0x3d289c7f	0.04116487
245	0xbdaed961	-0.085375555
246	0x3e46a4dc	0.19398826
247	0x3e363362	0.17793038
248	0x3f5dec40	0.86688614
249	0xbecce61a	-0.40019304
250	0xbed382d6	-0.41310757
251	0x3ef678af	0.4813895
252	0x3e25ee13	0.162041
253	0x3e813990	0.2523923
254	0x3e9fa7c8	0.31182694
255	0xbdc738f6	-0.09727661

transformer_encoder.layers.0.self_attn.in_proj_bias f4 [51]
0	0xbe9ba151	-0.30396512
1	0x3d889b75	0.06670276
2	0x3e33b1c2	0.17548278
3	0xbe243bfb	-0.16038506
4	0x3e67377b	0.22579758
5	0xbe0deab4	-0.13859063
6	0xbe3204f8	-0.17384708
7	0x3d33c8fb	0.04389284
8	0xbe1754db	-0.14778464
9	0xbe0fd2ae	-0.14045212
10	0xbcd7998c	-0.026318334
11	0x3daa170e	0.083051786
12	0xbd9a4e32	-0.07534446
13	0x3e21d6e2	0.15804628
14	0x3e3d8376	0.1850718
15	0x3e295678	0.16536891
16	0x3e5eb198	0.21747434
17	0x3de6502d	0.11245761
18	0xbd6d122c	-0.05787866
19	0xbb97df95	-0.0046348074
20	0xbd1ce056	-0.03829988
21	0x3d87e076	0.066346094
22	0x3c872d5e	0.016501125
23	0xbc5cff39	-0.013488584
24	0xbc9460c5	-0.01811255
25	0x3c4c0b46	0.01245386
26	0xbcb2f525	-0.02184541
27	0x3d6d7ffa	0.057983376
28	0xbd5e36e9	-0.054251585
29	0x3d2bf722	0.04198373
30	0xbd105368	-0.035235792
31	0x3bac5f5d	0.0052603916
32	0xbd0cf0a0	-0.034409165
33	0xbd7bb350	-0.061450303
34	0xbdd62346	-0.104559466
35	0xbd05f8e1	-0.032708053
36	0x3dbc3010	0.09188855
37	0x3cfb749a	0.030695248
38	0xbbde4848	-0.006783519
39	0x3df1ccea	0.118066624
40	0xbd32e751	-0.04367763
41	0xbd0c446b	-0.034244936
42	0xbd53edf6	-0.05174061
43	0x3c24b6d8	0.010053359
44	0x3cc7eaf9	0.024404036
45	0x3caaf7cc	0.020870112
46	0x3d49b7e1	0.049247626
47	0x3db2dcdb	0.08733531
48	0xbda091dd	-0.07840321
49	0x3d6893a3	0.056781422
50	0xbd1b67ed	-0.03794091

transformer_encoder.layers.0.self_attn.out_proj.weight f4 [17, 17]
0	0x3ddbbf8b	0.10729893
1	0x3d5e2508	0.054234535
2	0x3d516930	0.051125705
3	0x3e040d41	0.12895681
4	0x3e9fb08f	0.3118939
5	0xbea6ad7b	-0.3255423
6	0xbd38f378	-0.045154065
7	0x3e4918cb	0.19638364
8	0x3dd5dabd	0.10442112
9	0xbebf3da4	-0.37351716
10	0xbe244a5f	-0.16043995
11	0xbe488c94	-0.19584876
12	0xbb9880f9	-0.0046540466
13	0xbe2eec8f	-0.17082427
14	0xbdd6b089	-0.1048289
15	0xbd93e15f	-0.072207205
16	0xbe3bb424	-0.18330437
17	0x3e260058	0.16211069
18	0x3d897663	0.067120336
19	0xbe505d67	-0.2034813
20	0xbdf3b33d	-0.11899421
21	0xbbb87128	-0.0056287237
22	0xbe4e1497	-0.20125042
23	0xbea8007c	-0.3281287
24	0xbce828ac	-0.028339706
25	0xbe2359b7	-0.15952192
26	0x3e922273	0.28541908
27	0xbcb7bb6c	-0.022428237
28	0xbe1efa1d	-0.15525098
29	0x3dd3ef54	0.103483826
30	0xbe80b925	-0.25141254
31	0x3e22dec4	0.15905291
32	0x3cf6e9e6	0.030140828
33	0x3d270c03	0.04078294
34	0x3ce31cb6	0.027723651
35	0xbde07db0	-0.10961473
36	0x3cdac178	0.026703581
37	0xbe108e7e	-0.14116856
38	0x3e806953	0.25080356
39	0xbdb64454	-0.08899751
40	0xbd685675	-0.056723077
41	0xbd2f9152	-0.042863198
42	0xbe786759	-0.24258174
43	0x3e0bbea5	0.13646944
44	0x394598c8	0.000188443
45	0xbdb56063	-0.08856275
46	0xbe6a03cf	-0.22853015
47	0x3e6b6712	0.22988537
48	0xb9bb51a4	-0.00035728246
49	0x3e5127e2	0.2042537
50	0xbe0f324b	-0.13984029
51	0x3e7ae8f7	0.24502932
52	0xbd0719b6	-0.032983504
53	0xbea51ffa	-0.3225096
54	0x3b81285d	0.0039415793
55	0xbea5a8b0	-0.3235526
56	0xbd7324ce	-0.05936127
57	0x3d140761	0.03613985
58	0x3e501e04	0.2032395
59	0x3e587543	0.21138482
60	0x3c54d930	0.012991235
61	0x3e03f709	0.12887205
62	0x3e10a5e3	0.14125781
63	0xbdf10000	-0.11767578
64	0xbca768de	-0.020435747
65	0xbe28be13	-0.16478758
66	0xbe50add9	-0.20378818
67	0x3dad8680	0.084729195
68	0xbdc2fbda	-0.09520693
69	0x3e5e29f2	0.21695688
70	0x3e8192e3	0.25307378
71	0x3e67b045	0.22625835
72	0xbd8ef8f5	-0.069810785
73	0x3e28d8ac	0.16488904
74	0x3d75c8ba	0.06000588
75	0xbd36ef50	-0.04466182
76	0x3d645442	0.055744417
77	0xbe9e9379	-0.30971888
78	0x3e2d7dc3	0.16942506
79	0x3e9558a7	0.291692
80	0x3da7d4c9	0.081948824
81	0xbd800ecf	-0.062528245
82	0xbe3aba7a	-0.18235198
83	0x3d059965	0.03261699
84	0x3e214d87	0.1575223
85	0x3e08ff29	0.13378586
86	0xbe8cb191	-0.27479222
87	0x3df5493b	0.11976858
88	0xbe3204e1	-0.17384674
89	0x3db8ef9a	0.09030075
90	0x3e893a72	0.26802403
91	0xbe2d73bd	-0.16938682
92	0xbcf89ab7	-0.030347211
93	0xbc8e3b9f	-0.017362414
94	0x3e4e60cf	0.20154117
95	0xbd415356	-0.047198616
96	0xbe1de90d	-0.15420933
97	0x3e527ed8	0.205562
98	0x3e11f81e	0.14254805
99	0xbe4ec033	-0.20190506
100	0x3df3196d	0.11870084
101	0xbc41934e	-0.011814905
102	0xbe29104c	-0.16510123
103	0x3e16f8b8	0.14743316
104	0x3bcf8e58	0.0063341074
105	0x3d90d8d8	0.0707261
106	0x3d98d94d	0.07463322
107	0x3e5318d7	0.20614944
108	0x3e3f6a25	0.18692835
109	0xbd790efb	-0.060805302
110	0xbeb0be30	-0.34520102
111	0xbe363ae1	-0.17795898
112	0x3e1c24f3	0.1524847
113	0xbd329090	-0.043594897
114	0x3ddffa71	0.1093644
115	0xbd330f55	-0.043715794
116	0x3df9b8e9	0.12193472
117	0xbd89bfd0	-0.067260385
118	0xbe193db0	-0.14964938
119	0xbd109847	-0.035301473
120	0xbe34ad0a	-0.17644134
121	0xbe20b0d0	-0.15692449
122	0x3c991730	0.018687814
123	0xbe624bf8	-0.22099292
124	0x3b1249f9	0.0022321923
125	0xbaa1bb95	-0.0012339229
126	0x3e53e677	0.20693384
127	0xbda2ff5f	-0.079588644
128	0x3dd96bfb	0.10616299
129	0x3e30dc7e	0.17271611
130	0xbe4f68d0	-0.20254827
131	0xbc83d582	-0.01609302
132	0xbe21ef8a	-0.15814033
133	0xbc02e460	-0.007989019
134	0xbe306876	-0.17227349
135	0x3d80c5a4	0.06287697
136	0xbd740545	-0.059575338
137	0x3e1a67d2	0.15078667
138	0x3d952883	0.072831176
139	0x3e6ccc2c	0.2312476
140	0xbda57260	-0.08078456
141	0x3b147985	0.002265544
142	0x3d8fb8ed	0.07017694
143	0xbe536de7	-0.20647393
144	0x39715739	0.00023016044
145	0x3e5df8df	0.21676968
146	0x3e015380	0.12629509
147	0xbe6ca885	-0.2311116
148	0x3df10d38	0.117700994
149	0xbe40f2d0	-0.18842626
150	0xbd44dcf0	-0.048062265
151	0xbe2cc8cf	-0.16873477
152	0xbc4ca779	-0.0124911005
153	0x3cfb114b	0.030647894
154	0xbd8e976d	-0.06962476
155	0x3d293ee2	0.041319735
156	0xbe88bc7c	-0.26706302
157	0x3e462ce7	0.19353066
158	0xbe9d7e14	-0.30760252
159	0x3deed0f4	0.116609484
160	0x3e65ca3d	0.22440429
161	0x3e266740	0.16250324
162	0x3dc08a4d	0.09401379
163	0xbe3efc4d	-0.18650933
164	0x3e28e03f	0.16491793
165	0xbe7c6097	-0.24646221
166	0xbd1776ee	-0.036978655
167	0x3e09188c	0.1338827
168	0x3df384c6	0.11890559
169	0xbd28fb41	-0.04125524
170	0xbe5c2f31	-0.21502377
171	0x3dc61484	0.09671882
172	0xbde0d327	-0.10977774
173	0x3db058c4	0.08610681
174	0xbe503be8	-0.20335352
175	0x3e97dab2	0.2965904
176	0x3d75c58d	0.060002852
177	0xbc49df83	-0.012321356
178	0xbe36fa73	-0.17868976
179	0xbe5baf3a	-0.21453562
180	0x3e731822	0.23739675
181	0x3c6a2b26	0.014292514
182	0xbe4c600a	-0.19958511
183	0x3e52f6f5	0.20602019
184	0xbbb1654f	-0.0054136883
185	0x3d15fcd1	0.036618058
186	0xbbb0af96	-0.005392025
187	0x3e7ae9a7	0.24503194
188	0x3ddd632f	0.108099334
189	0xbee48241	-0.44630626
190	0xbcaf5535	-0.021402935
191	0xbe1cdeff	-0.15319441
192	0xbe1dba49	-0.15403093
193	0xbd4e0344	-0.050296083
194	0x3e43b0da	0.19110432
195	0x3e605961	0.21909095
196	0x3d69a80e	0.057045035
197	0x3bc7b75f	0.0060948576
198	0x3de295ad	0.11063705
199	0xbe27b0a9	-0.16375984
200	0xbe2e2955	-0.17007954
201	0x3d92b9ae	0.07164322
202	0xbe470484	-0.19435316
203	0x3e2e1bbb	0.17002766
204	0xbe6ff0a2	-0.23431638
205	0x3e336b42	0.17521384
206	0x3ea988f6	0.33112305
207	0x3e12d597	0.1433929
208	0x3b1daef5	0.0024060581
209	0xbe463619	-0.19356574
210	0xbd815d94	-0.06316677
211	0xbeb40fee	-0.35168403
212	0xbe6702fc	-0.22559732
213	0x3e1ef1b1	0.15521885
214	0xbdd87587	-0.105692916
215	0x3bf8ffda	0.0075988593
216	0x3d17e5bc	0.037084326
217	0x3df0b9d2	0.117541924
218	0xbddceb62	-0.10787083
219	0x3e6342de	0.22193477
220	0x3c9415d9	0.018076824
221	0x3de37931	0.111071
222	0xbd05ca0b	-0.032663386
223	0xbe458a66	-0.19291076
224	0x3d446395	0.04794653
225	0xbc9650e1	-0.018349113
226	0xbd3d29ac	-0.04618232
227	0x3d843113	0.06454673
228	0xbd125334	-0.03572388
229	0x3de87b56	0.113516495
230	0x3bc1e868	0.0059175976
231	0x3e814e95	0.25255266
232	0xbdc393e5	-0.09549693
233	0xbcc061d9	-0.023484157
234	0xbe15dff0	-0.14636207
235	0xbb3b6bdb	-0.0028598222
236	0xbe0b2c7a	-0.13591185
237	0xbd98e611	-0.07465757
238	0x3ce6c740	0.028171182
239	0xbe404195	-0.18775018
240	0x3cf2ff03	0.029662615
241	0xbe4c3b9b	-0.19944613
242	0x3e9a5586	0.30143374
243	0x3d3474f3	0.044056844
244	0xbdf99f7c	-0.12188622
245	0x3bcd4784	0.006264629
246	0x3c171661	0.009221644
247	0xbdfb772b	-0.12278589
248	0x3c2f6816	0.010705968
249	0xbd9ad55a	-0.07560225
250	0xbdcc639b	-0.09979936
251	0x3e3c7cf1	0.18407036
252	0xbdd214f1	-0.102579005
253	0x3e660f2b	0.22466724
254	0x3dfb3d1f	0.12267517
255	0xbe11b8c3	-0.14230637

transformer_encoder.layers.0.self_attn.out_proj.bias f4 [17]
0	0x3d57bf69	0.052672777
1	0x3d051b65	0.03249683
2	0xbe4c25ae	-0.19936249
3	0x3db24494	0.087044865
4	0x3d9e4938	0.07728809
5	0xbdd88ffd	-0.105743386
6	0x3d3af765	0.04564609
7	0x3e492b9f	0.19645546
8	0x3d9dfcf3	0.07714262
9	0xbde8959b	-0.1135666
10	0x3bca1d30	0.00616803
11	0x3da1d833	0.07902565
12	0xbd2e167f	-0.042501923
13	0x3e3695b1	0.1783054
14	0xbd9cab14	-0.07649818
15	0xbe4b4ed9	-0.19854297
16	0x3d7ae7f6	0.06125637

transformer_encoder.layers.0.linear1.weight f4 [64, 17]
0	0x3d5530d8	0.052048534
1	0x3dc85acc	0.09782943
2	0x3e5ce54e	0.21571848
3	0x3dc6f5d3	0.09714856
4	0x3e0fce65	0.14043577
5	0x3e51e921	0.20499088
6	0xbe10cadb	-0.14139883
7	0x3d0598ab	0.0326163
8	0xbe3ef78b	-0.18649118
9	0x3deaec48	0.11470848
10	0xbd86cded	-0.06582246
11	0x3ccfff92	0.02539042
12	0xbe6e9292	-0.232981
13	0xbe36b6b6	-0.17843136
14	0xbd8b234f	-0.06793844
15	0x3e2aff4a	0.16698948
16	0xbd8401cd	-0.06445656
17	0xbde0e763	-0.109816335
18	0x3e6003a0	0.21876383
19	0xbd5e2944	-0.054238573
20	0x3e845979	0.25849512
21	0xbdc25357	-0.09488552
22	0x3cea0d10	0.028570682
23	0xbe894311	-0.2680898
24	0x3e24e157	0.16101585
25	0x3e94a30e	0.2903065
26	0xbe6a4262	-0.22876886
27	0x3e8cd1d5	0.2750384
28	0x3e045931	0.12924649
29	0x3c513cc4	0.012770835
30	0x3d054e84	0.03254558
31	0xbe733edb	-0.23754446
32	0x3defbadf	0.11705565
33	0xbe32a49e	-0.17445609
34	0x3e638d7a	0.22221938
35	0xbe92f743	-0.2870427
36	0xbd16f7dd	-0.036857475
37	0x3cb140de	0.021637376
38	0x3e793e1f	0.24340104
39	0x3b93c4b3	0.0045095324
40	0xbd58c9f6	-0.05292698
41	0xbe8b748c	-0.27237356
42	0xbdb44635	-0.088024534
43	0xbd812f3d	-0.06307838
44	0x3e0bff40	0.13671589
45	0xbc77b1fb	-0.015118117
46	0x3cb7d4b1	0.022440286
47	0xbd79a032	-0.06094379
48	0xbdbbe62f	-0.091747634
49	0x3e0057a0	0.12533426
50	0xbd029f91	-0.031890456
51	0x3e27a74f	0.16372417
52	0xbe258ab6	-0.16166195
53	0x3cd6812e	0.026184645
54	0x3de16a2d	0.110065795
55	0x3ea69f4b	0.32543406
56	0x3dcb0ba5	0.099143304
57	0x3d247cad	0.040157963
58	0xbd9d4bdd	-0.076804854
59	0xbd84c97c	-0.064837426
60	0xbdf291ad	-0.11844192
61	0x3dd0114d	0.1015955
62	0xbbb69f02	-0.0055731544
63	0xbe8289b7	-0.25495693
64	0x3e2101e6	0.1572338
65	0xbe38171a	-0.17977563
66	0xbe1b5837	-0.1517037
67	0x3c03cf06	0.008044964
68	0x3d6e93ef	0.05824655
69	0x3d8565ac	0.06513533
70	0x3f0ead1a	0.5573288
71	0x3d377bff	0.044795986
72	0xbcffb1d7	-0.03121273
73	0xbe2f2835	-0.17105182
74	0x3e1e3dca	0.15453258
75	0x3d8d2aa2	0.06892897
76	0x3df6f306	0.12058072
77	0x3dd8e0db	0.10589763
78	0xbd83c26a	-0.06433566
79	0xbe0ef0ce	-0.13959047
80	0x3d8a3067	0.06747513
81	0xbd9c7216	-0.07638948
82	0x3e1af4b5	0.15132411
83	0xbddabcc4	-0.106805354
84	0xbde482c2	-0.111577526
85	0x3e7b393e	0.24533555
86	0xbc8e8b01	-0.017400267
87	0xbcf44579	-0.029818283
88	0x3e2af426	0.16694698
89	0x3e96bfd7	0.29443237
90	0x3dbc5e8e	0.091977224
91	0x3dc7bc6e	0.09752737
92	0x3d60c1d6	0.054872356
93	0x3dd6bf02	0.104856506
94	0x3cbd5c92	0.02311543
95	0x3da3247b	0.079659425
96	0x3d393e78	0.04522559
97	0xbe7b9892	-0.2456992
98	0xbdc0a780	-0.09406948
99	0xbe6aac76	-0.22917351
100	0xbbd68a0a	-0.0065472173
101	0x3d1ae6d7	0.037817802
102	0xbb008705	-0.0019611728
103	0xbda5913c	-0.08084342
104	0xbe0a8008	-0.13525403
105	0x3d83ed30	0.06441724
106	0x3df8869d	0.121350504
107	0xbc9facf1	-0.019491645
108	0xbe60fc5c	-0.21971267
109	0xbe8834cf	-0.2660279
110	0x3e5008d6	0.2031587
111	0xbd8257c9	-0.063644
112	0xbe45dbbe	-0.19322106
113	0xbba10849	-0.0049143177
114	0xbe8499dd	-0.25898638
115	0xbd674473	-0.056461763
116	0xbdcf9e08	-0.10137564
117	0xbe45d265	-0.1931854
118	0xbe6b35ef	-0.22969793
119	0x3eb3adfc	0.35093677
120	0x3cf458e6	0.029827546
121	0x3cfad5f7	0.030619605
122	0x3c3cdae1	0.011526794
123	0x3dd22a68	0.102619946
124	0x3d714765	0.058905978
125	0x3d1c7037	0.038192954
126	0x3e5b19a4	0.213965
127	0x3ebb72c1	0.36610988
128	0xbd056ea7	-0.03257623
129	0x3dde130f	0.10843479
130	0xbe0b32e8	-0.13593638
131	0xbe10e225	-0.14148767
132	0x3d4f0b66	0.05054798
133	0xbe4d85c5	-0.2007056
134	0xbe0d3740	-0.13790607
135	0x3e4c0ffd	0.19927974
136	0xbe47b172	-0.19501284
137	0xbd19a8e9	-0.0375146
138	0xbe8b9b85	-0.2726709
139	0x3e21f547	0.15816222
140	0x3deeae99	0.116543956
141	0x3d1ee8ee	0.038796358
142	0xbe4801f1	-0.1953199
143	0xbcfe7896	-0.03106336
144	0x3ef0fb0a	0.47066528
145	0xbeb6e4b6	-0.35721368
146	0x3e1f5a20	0.15561724
147	0x3df511b3	0.119662665
148	0xbcac99eb	-0.021069488
149	0x3c572b3c	0.0131328665
150	0xbea98a00	-0.33113098
151	0xbe42bbe3	-0.19016986
152	0xbe72ce32	-0.2371147
153	0xbe49550a	-0.19661346
154	0x3c043d21	0.008071215
155	0x3e4211e5	0.18952139
156	0x3cd9e25f	0.0265972
157	0x3d99ca90	0.07509339
158	0x3dedf93e	0.11619805
159	0xbcb62710	-0.022235423
160	0x3e886d0a	0.2664569
161	0x3ea8eb37	0.32991955
162	0xbecf205e	-0.40454382
163	0x3e52d655	0.20589574
164	0xbe3cc4ce	-0.1843445
165	0x3e0faa8d	0.14029904
166	0xbd88dc8f	-0.06682693
167	0xbd389d18	-0.04507169
168	0x3e4b89d9	0.19876803
169	0x3db6b818	0.08921832
170	0x3c5f981e	0.013647107
171	0x3e5641bb	0.20923512
172	0xbdeb0e5c	-0.11477348
173	0x3cfb22aa	0.030656178
174	0xbe143699	-0.14473952
175	0x3eaed18c	0.34144247
176	0xbee2e2bf	-0.4431362
177	0x3dd3364f	0.10313093
178	0x3e591cf0	0.21202445
179	0xbd48d82c	-0.049034283
180	0xbe21b839	-0.15792932
181	0x3d9ac862	0.07557751
182	0xbdbcb2e7	-0.092138104
183	0xbbe8f25d	-0.00710897
184	0x3e2c6a0a	0.16837326
185	0x3e23fc75	0.16014273
186	0xbe923a81	-0.2856026
187	0x3deb6054	0.114929825
188	0x3d0242b7	0.031801905
189	0x3e448fae	0.19195434
190	0x3d9086f6	0.07056992
191	0xbe9d1656	-0.30681103
192	0x3d6b612f	0.05746573
193	0xbf242b97	-0.6412901
194	0x3c129a23	0.008947882
195	0xbd8688df	-0.06569075
196	0x3d86f3d0	0.06589472
197	0x3e53aaff	0.20670699
198	0x3d994822	0.07484461
199	0xbe4631de	-0.1935496
200	0x3e3bc476	0.18336663
201	0x3e92095f	0.28522775
202	0x3e28b8a5	0.16476686
203	0xbea21c10	-0.31662035
204	0x3e81c2c3	0.25343904
205	0xbe4e1599	-0.20125426
206	0x3daa1aa3	0.08305862
207	0xbcd34b0a	-0.025792617
208	0x3d9e7360	0.0773685
209	0xbde48c29	-0.11159546
210	0x3d8d50b4	0.069001585
211	0x3dfb96f4	0.122846514
212	0x3eafa139	0.3430269
213	0xbd09a5c6	-0.03360536
214	0xbd2705a8	-0.04077688
215	0xbe404334	-0.18775636
216	0xbc2d67f6	-0.010583868
217	0x3d755de7	0.059904005
218	0xbea20fb6	-0.31652611
219	0xbe5fbdac	-0.21849698
220	0x3c328d76	0.010897985
221	0x3d4435f3	0.047903012
222	0xbea754c8	-0.3268187
223	0xbe15b3a1	-0.14619304
224	0x3e642029	0.22277893
225	0x3eba74d2	0.36417252
226	0x3e0553c6	0.13020238
227	0x3db02d0d	0.08602343
228	0xbc6450cc	-0.013935279
229	0x3e074043	0.13208108
230	0xbdb5ac1f	-0.0887072
231	0x3e47b4fc	0.19502634
232	0x3ded1c2f	0.11577641
233	0xbe9cde6d	-0.30638447
234	0xbcae082e	-0.021244135
235	0xbe4fe2f9	-0.20301427
236	0x3dde59c0	0.10856962
237	0x3be4b511	0.0069795926
238	0x3da892d0	0.08231127
239	0x3e005149	0.12531008
240	0xbbc85ffa	-0.006114957
241	0xbe437028	-0.19085753
242	0x3de2fd2e	0.110834464
243	0xbd394338	-0.04523012
244	0x3d97956d	0.074015476
245	0x3e40ad46	0.18816099
246	0xbd320606	-0.043462776
247	0xbe0153bd	-0.126296
248	0x3e382cd8	0.17985857
249	0x3c5db28c	0.013531338
250	0x3dad35eb	0.0845755
251	0x3b74ce6f	0.003735449
252	0x3d9f3081	0.07772923
253	0x3e4d9d4d	0.20079537
254	0xbe81c00c	-0.25341833
255	0xbb211c1e	-0.002458341

transformer_encoder.layers.0.linear1.bias f4 [64]
0	0xbe1b2e9c	-0.15154499
1	0xbe625763	-0.22103648
2	0xbe90043b	-0.28128228
3	0xbe930713	-0.28716335
4	0xbe8f5544	-0.2799474
5	0xbe84fa50	-0.25972223
6	0xbdce2081	-0.100647934
7	0xbe0eab8f	-0.13932632
8	0xbd69c8be	-0.05707621
9	0xbe63df09	-0.2225305
10	0xbe90dee5	-0.28295055
11	0xbe43435c	-0.19068664
12	0xbda0482c	-0.07826266
13	0xbe873d7d	-0.264141
14	0xbe03b92b	-0.12863605
15	0xbd61eb47	-0.05515602
16	0xbd918db1	-0.071071036
17	0xbd9d8a21	-0.076923616
18	0xbe0c9810	-0.13729882
19	0xbe0414a0	-0.12898493
20	0xbe4c73ed	-0.19966097
21	0xbd441d48	-0.047879487
22	0xbeb23a36	-0.34810036
23	0xbe81277b	-0.25225434
24	0xbe1bdf89	-0.1522199
25	0xbe87a2f7	-0.2649152
26	0xbe5e61e8	-0.21717036
27	0xbe28d641	-0.16487981
28	0xbde60870	-0.11232078
29	0xbea34d1a	-0.3189476
30	0xbe95aff8	-0.29235816
31	0xbbeea5d6	-0.007282953
32	0x3d9be546	0.0761209
33	0xbe26d960	-0.1629386
34	0xbe948544	-0.29007924
35	0xbe0260db	-0.1273226
36	0x3c9ffc74	0.019529559
37	0xbe0c09a1	-0.13675548
38	0xbe5d75cf	-0.21626972
39	0xbd255553	-0.040364575
40	0xbd194341	-0.037417654
41	0xbe5e7f2c	-0.217282
42	0x3c12a38c	0.008950125
43	0xbdb6c271	-0.089238055
44	0xbc8085fe	-0.015688892
45	0xbf03e3bd	-0.51519376
46	0xbe55f248	-0.20893204
47	0x3c08cc3e	0.008349476
48	0x3ce89b03	0.028394228
49	0xbd120c73	-0.035656404
50	0xbea7e793	-0.32793865
51	0xbda8e182	-0.08246137
52	0xbe380400	-0.17970276
53	0xbd4fcc9a	-0.050732233
54	0xbe6320b5	-0.22180445
55	0xbdb29f08	-0.08721739
56	0xbe77d3e9	-0.24201931
57	0xbebed493	-0.37271556
58	0xbdbb6277	-0.0914964
59	0xbe437631	-0.19088055
60	0xbe2fe2b0	-0.17176318
61	0xbe8a57ed	-0.27020207
62	0xbe2dca59	-0.16971721
63	0xbe05ff49	-0.13085665

transformer_encoder.layers.0.linear2.weight f4 [17, 64]
0	0xbd6aa4ff	-0.05728626
1	0xbea53901	-0.32270053
2	0x3e641ade	0.22275874
3	0x3e885f8e	0.26635402
4	0x3e042301	0.12903978
5	0x3e09b1d6	0.13446745
6	0x3d2fbee2	0.04290665
7	0x3c0154b9	0.007893735
8	0xbe0470e4	-0.1293369
9	0xbe35b8aa	-0.17746225
10	0x3e4e5009	0.20147718
11	0x3d50fd3c	0.051022753
12	0x3bd03a24	0.006354587
13	0xbcd6d6ef	-0.026225535
14	0xbd4f6dbb	-0.050641757
15	0x3d76abb1	0.06022233
16	0x3d2f9099	0.04286251
17	0x3d846904	0.06465343
18	0x3affae04	0.0019506817
19	0x3d96fd00	0.07372475
20	0xbd65cf80	-0.05610609
21	0x3ddd66cf	0.10810625
22	0x3c14fdbf	0.009093701
23	0x3dd17400	0.10227203
24	0x3da099ef	0.078418605
25	0x3da8a53f	0.08234643
26	0xbebebeeb	-0.37255034
27	0x3e864b06	0.26229113
28	0xbb6c95d1	-0.003610004
29	0x3d0ef699	0.034903143
30	0x3cce689d	0.025196368
31	0xbdec49bb	-0.115375005
32	0x3c8ea5dc	0.017413072
33	0x3e15ba0f	0.14621757
34	0x3e449ea5	0.19201143
35	0xbdba4bab	-0.09096464
36	0x3d717835	0.05895253
37	0x3d161c09	0.03664783
38	0xbe2b1624	-0.16707665
39	0x3dc51f79	0.096251436
40	0x3cb5896f	0.02216026
41	0xbdbe92ec	-0.09305367
42	0x3e512ae3	0.20426516
43	0xbd676d6e	-0.056500845
44	0xbd4cf1cf	-0.050035294
45	0xbeaae8c3	-0.33380708
46	0xbe4cc2c3	-0.1999617
47	0x3ce03430	0.027368635
48	0xbda8f541	-0.082499035
49	0x3d090213	0.033449244
50	0xbdfd3503	-0.12363627
51	0x3de3aa70	0.11116493
52	0xbe6584cd	-0.2241394
53	0x3dbeff93	0.09326091
54	0x3dea6c86	0.114464805
55	0x3e2d78a4	0.16940552
56	0x3c707b6c	0.014677864
57	0x3ce2cbf0	0.027685136
58	0x3dd5be8a	0.10436733
59	0xbe531f6e	-0.20617458
60	0x3ce6d629	0.028178291
61	0xbdbe8702	-0.093030944
62	0xbda58ad8	-0.08083123
63	0x3d98109e	0.074250445
64	0x3a8b1a2b	0.0010612657
65	0x3d3fed8e	0.04685741
66	0x3da59131	0.08084334
67	0xbc230c44	-0.009951655
68	0x3de926ac	0.11384329
69	0xbdfa8a03	-0.12233355
70	0xbe1e20cf	-0.15442203
71	0xbb6f1277	-0.0036479512
72	0xbd5d07d9	-0.053962562
73	0xbdddde8f	-0.10833465
74	0x3e7169e8	0.23575556
75	0x3dc60fba	0.09670968
76	0x3ce9f139	0.028557407
77	0x3d16166a	0.03664247
78	0xbb9f4385	-0.004860344
79	0x3d6bbc27	0.057552483
80	0x3e65c62b	0.22438876
81	0x3e0c0ee3	0.13677554
82	0x3c8400eb	0.016113719
83	0xbd1738d7	-0.03691944
84	0xbde2fa23	-0.11082866
85	0x3e9d70a3	0.30749997
86	0x3da94bbe	0.082664
87	0x3d21cf05	0.03950407
88	0xbc36a373	-0.011147368
89	0x3d967a01	0.07347489
90	0xbd188d9c	-0.037244424
91	0x3c9b4907	0.01895572
92	0xbdd12f33	-0.10214081
93	0x3e56b14f	0.20966075
94	0xbdcd6df3	-0.10030737
95	0xbdd72619	-0.105053134
96	0xbde1292c	-0.10994181
97	0x3d1ba020	0.037994504
98	0x3e013024	0.1261602
99	0xbe21c310	-0.15797067
100	0xbd44a6d8	-0.048010677
101	0x3d946ac3	0.07246926
102	0xbdcf679e	-0.10127185
103	0x3db49574	0.088175684
104	0x3e443911	0.19162394
105	0xbe1ab3df	-0.15107678
106	0x3d95c43e	0.07312821
107	0x3d3c8773	0.046027612
108	0xbe71d083	-0.23614697
109	0xbd147343	-0.036242735
110	0xbe56fa14	-0.20993835
111	0x3c78d4e1	0.015187473
112	0x3d170b9b	0.036876302
113	0x3e1b11c4	0.15143496
114	0xbe8d861f	-0.2764139
115	0xbd83def8	-0.06439012
116	0xbc85f631	-0.016352745
117	0x3cb5ec68	0.022207454
118	0xba5acb25	-0.0008346311
119	0x3e81e670	0.25371122
120	0x3e7ba7e8	0.2457577
121	0xbe2fb2bb	-0.17158024
122	0x3e64f72c	0.22359914
123	0x3e17594c	0.14780158
124	0x3e1c2cf2	0.1525152
125	0x3a018179	0.00049402524
126	0x3e542a44	0.20719248
127	0x3e38aa4e	0.18033716
128	0xbe4c715f	-0.19965123
129	0x3e0c6cdb	0.137134
130	0x3dc89318	0.09793681
131	0xbe22cb87	-0.15897952
132	0xbd5a2871	-0.053261224
133	0xbe452b34	-0.19254762
134	0xbd8f045e	-0.06983255
135	0xbd018389	-0.031619582
136	0x3e7ab67e	0.24483678
137	0xbda786cc	-0.08180007
138	0xbbf2bf32	-0.007408046
139	0xbe27558d	-0.16341229
140	0xbba4b3d1	-0.0050263186
141	0xbd1a3cb3	-0.037655544
142	0x3d1a7b42	0.037715204
143	0xbdc64587	-0.0968123
144	0xbe03b316	-0.12861285
145	0xbe5459c8	-0.20737374
146	0xbe3491c6	-0.17633733
147	0x3cd6faac	0.026242577
148	0xbe4fcffd	-0.20294185
149	0xbe8c2b12	-0.2737661
150	0xbdd1f6c1	-0.10252143
151	0xbdc9da28	-0.09856063
152	0x3dcf9795	0.10136334
153	0xbd021da8	-0.031766564
154	0x3e2e62ee	0.17029926
155	0xbdc29f42	-0.09503032
156	0xbd092cf9	-0.033490155
157	0x3ea3d847	0.32000944
158	0xbc353673	-0.011060345
159	0x3d94c01d	0.07263205
160	0xbe83b28d	-0.2572216
161	0x3dd0c06e	0.10192953
162	0xbe64efa2	-0.22357038
163	0xbd8ec585	-0.069712676
164	0xbe686a43	-0.22696786
165	0xbc46540e	-0.012105001
166	0xbdad5c22	-0.084648386
167	0x3e407a5f	0.18796681
168	0x3e176b69	0.14787067
169	0xbb452ac9	-0.0030085316
170	0xbcc9cbf7	-0.02463339
171	0xbe23d6a0	-0.15999842
172	0x3c5d07a3	0.01349059
173	0xbd688478	-0.056766957
174	0xbdb7e2df	-0.08978819
175	0x3ce6053e	0.028078672
176	0xbe6b0136	-0.2294968
177	0xbe43308d	-0.1906149
178	0xbd4d109b	-0.050064664
179	0x3e29b08a	0.1657125
180	0xbe797d55	-0.24364217
181	0xbd9cfd0b	-0.076654516
182	0xbe2bd7d8	-0.16781557
183	0x3e1e726f	0.1547334
184	0xbe5a4f7e	-0.21319386
185	0xbc149d48	-0.009070702
186	0xbc88a713	-0.01668123
187	0x3e19be9f	0.15014122
188	0x3dc255f3	0.0948905
189	0x3b07bc5d	0.0020711638
190	0xbc8a6f16	-0.016898673
191	0xbda4e70f	-0.080518834
192	0xbda9eaaa	-0.08296712
193	0x3b10e839	0.0022111072
194	0x395c5408	0.00021012139
195	0x3db02813	0.086013936
196	0xbe6ee947	-0.23331176
197	0x3d48c7c7	0.049018648
198	0x3bd786fe	0.0065773716
199	0xbd9a266a	-0.07526858
200	0x3e4c4479	0.19947995
201	0x3e0a9868	0.13534701
202	0x3d1df518	0.038563818
203	0xbdeca4f6	-0.11554901
204	0xbe3447a4	-0.17605454
205	0x3dcc8729	0.09986717
206	0x3d454939	0.048165534
207	0x3df0f713	0.11765876
208	0xbc31d0a9	-0.010852971
209	0xbdab30d8	-0.083589256
210	0x3df6672c	0.12031397
211	0xbe003243	-0.12519173
212	0x3e29ab9b	0.16569369
213	0xbe99c08b	-0.3002971
214	0x3e1ea1bf	0.15491389
215	0x3d3731ec	0.044725344
216	0xbe2a4bc3	-0.16630463
217	0xbe5763c0	-0.21034145
218	0x3d68a87d	0.056801308
219	0xbdc43a1a	-0.095813945
220	0x3d9eb4a5	0.07749299
221	0xbe68e797	-0.22744595
222	0xbdeb8615	-0.115001835
223	0xbdaa100a	-0.083038405
224	0x3e06dbcc	0.13169783
225	0x3d489a5e	0.04897534
226	0x3da309de	0.079608664
227	0xbb6e9023	-0.003640183
228	0x3ddd50cb	0.10806426
229	0x3d9e5bd5	0.07732359
230	0x3e2db646	0.16964063
231	0xbc81b463	-0.015833085
232	0x3dda554e	0.10660802
233	0xbcdd112b	-0.026985725
234	0xbd88cb2b	-0.06679376
235	0x3e1d1ebb	0.15343754
236	0x3d9b881f	0.075943224
237	0xbe23d5fe	-0.159996
238	0x3de8917a	0.113558725
239	0x3c79552c	0.01521806
240	0x3e02208c	0.12707728
241	0xbd2f2d15	-0.042767603
242	0x3cab7468	0.02092953
243	0xbdcc7783	-0.099837326
244	0x3d36e544	0.04465224
245	0xbcc6aa44	-0.02425111
246	0x3c4aeafa	0.012385124
247	0xbe6d49c5	-0.23172672
248	0x3d1c9bb5	0.03823443
249	0x3bb2df85	0.0054587745
250	0x3d536d2b	0.051617783
251	0x3e5f6182	0.2181454
252	0xbe8763da	-0.26443368
253	0xbe14d102	-0.14532855
254	0x3e11bb4c	0.14231604
255	0xbd315dbb	-0.04330228

transformer_encoder.layers.0.linear2.bias f4 [17]
0	0xbba97e1c	-0.005172504
1	0xbdc1b8bd	-0.09459064
2	0x3d563a6a	0.0523018
3	0x3db07596	0.08616178
4	0x3d846445	0.064644374
5	0x3d9c8eba	0.076444104
6	0xbd18cfad	-0.03730743
7	0x3a89dfd9	0.0010518982
8	0xbd9bf3e7	-0.0761488
9	0x3d7f23fe	0.062290184
10	0x3bdd625a	0.006756109
11	0x3d15bc2d	0.03655641
12	0xbcef5f77	-0.029220326
13	0xbdb30f96	-0.08743207
14	0x3d69afe6	0.057052515
15	0x3c93ba5e	0.018033203
16	0xbd478db2	-0.048719116

transformer_encoder.layers.0.norm1.weight f4 [17]
0	0x3f53c73f	0.827259
1	0x3f544dbe	0.82931125
2	0x3f657216	0.89627206
3	0x3f5f44b3	0.872142
4	0x3f68b4dc	0.9090097
5	0x3f6fed45	0.9372142
6	0x3f51fc35	0.8202546
7	0x3f69e7ae	0.9136914
8	0x3f681fab	0.9067332
9	0x3f68ce89	0.9094015
10	0x3f5945d6	0.84872186
11	0x3f7d1b9a	0.9887024
12	0x3f4bc0f1	0.7959128
13	0x3f62f219	0.8865066
14	0x3f574763	0.840933
15	0x3f710367	0.94145817
16	0x3f6db011	0.9284678

transformer_encoder.layers.0.norm1.bias f4 [17]
0	0xbe07e470	-0.13270736
1	0xbd36e380	-0.044650555
2	0xbd82e190	-0.06390679
3	0xbe0d6e97	-0.13811718
4	0xbd9f3bfb	-0.07775112
5	0xbe296f81	-0.16546442
6	0x3e316ee6	0.1732746
7	0xbdc28772	-0.094984904
8	0xbe2237b9	-0.15841569
9	0x3e3bea2f	0.18351053
10	0x3d5d9a1d	0.054102052
11	0x3c4f18ed	0.01264022
12	0x3db69973	0.08915987
13	0xbbcc7d2c	-0.0062405076
14	0x3db55c5d	0.088555075
15	0xbd8f9bef	-0.07012164
16	0x3e613d27	0.21995984

transformer_encoder.layers.0.norm2.weight f4 [17]
0	0x3f8ba4bc	1.0909648
1	0x3f782152	0.9692584
2	0x3f664aa4	0.8995764
3	0x3f745ff3	0.95458907
4	0x3f8638eb	1.048612
5	0x3f70b923	0.94032496
6	0x3f7427a6	0.95373
7	0x3f8a6c6d	1.0814339
8	0x3f86a3ca	1.0518734
9	0x3f642d34	0.89131474
10	0x3f774cec	0.9660175
11	0x3f555cd4	0.8334477
12	0x3f635fa4	0.8881781
13	0x3f76bcab	0.96381634
14	0x3f85fe4c	1.046823
15	0x3f70c74c	0.940541
16	0x3f657068	0.89624643

transformer_encoder.layers.0.norm2.bias f4 [17]
0	0xbe1305b3	-0.14357643
1	0xbd8dd3df	-0.06925177
2	0xbd1d3552	-0.03838093
3	0xbd85d6c9	-0.06535108
4	0xbd67696f	-0.056497034
5	0xbc754610	-0.0149703175
6	0x3d4b8645	0.049688596
7	0xbdc6e6ee	-0.09712015
8	0xbd36e5c8	-0.04465273
9	0x3c4068bf	0.011743723
10	0xbcb31f99	-0.021865653
11	0xbe047d4e	-0.12938425
12	0x3e29216c	0.16516656
13	0xbe194f42	-0.1497164
14	0x3d8d062f	0.06885945
15	0x3c5f0ba5	0.013613616
16	0x3d82a262	0.06378628

transformer_encoder.layers.1.self_attn.in_proj_weight f4 [51, 17]
0	0x3d9da6f7	0.07697862
1	0x3e4fe962	0.20303872
2	0xbdd54d44	-0.10415128
3	0xbe8d9c64	-0.2765838
4	0x3d12bf46	0.035826944
5	0x3dcdc3c6	0.100471064
6	0x3e4d66cf	0.2005875
7	0x3db55063	0.08853223
8	0x3edae026	0.42749137
9	0x3e4de86d	0.20108195
10	0xbd07246d	-0.032993723
11	0x3c258409	0.01010228
12	0xbd863d9c	-0.0655472
13	0xbd8717dc	-0.06596348
14	0xbee1bd94	-0.4408995
15	0xbe9b75f9	-0.30363443
16	0x3e077ca0	0.13231134
17	0x3ebef912	0.372994
18	0xbc6b4a5c	-0.01436099
19	0xbdcdaff0	-0.10043323
20	0xbe5e0b6a	-0.21684042
21	0x3f3167a0	0.69298744
22	0x3937f6a6	0.00017544124
23	0x3f1c9bd6	0.61175287
24	0xbf37d1a2	-0.7180425
25	0xbf2fa520	-0.68611336
26	0x3d249f37	0.0401909
27	0xbe8c005b	-0.2734402
28	0xbda7bb55	-0.081900276
29	0xbe2e4006	-0.1701661
30	0xbcb3e698	-0.021960542
31	0x3dc4227c	0.0957689
32	0xbebb09bf	-0.36530873
33	0x3f2d118b	0.67604893
34	0x3e4d0762	0.20022348
35	0xbeaded7c	-0.3397025
36	0x3da07922	0.07835604
37	0x3e829230	0.25502157
38	0x3ef88ad2	0.48543411
39	0x3e132c9a	0.14372483
40	0x3ea9c748	0.33159852
41	0x3d665d76	0.056241475
42	0xbe4ac6e9	-0.1980244
43	0xbeba3a49	-0.36372593
44	0x3bcafcef	0.006194703
45	0x3de2aedc	0.11068508
46	0x3e6979c5	0.22800358
47	0xbe89699b	-0.26838383
48	0xbe92c10f	-0.28662917
49	0x3e7cd8dd	0.24692102
50	0xbe2bbe7d	-0.16771884
51	0xbd6869a8	-0.056741387
52	0x3d1aa31c	0.03775321
53	0x3e8043de	0.2505178
54	0x3e5295b6	0.20564923
55	0x3eb72d8e	0.35776943
56	0x3e7f24a2	0.24916318
57	0xbe05c035	-0.13061602
58	0x3d906a45	0.07051519
59	0x3e300e2d	0.17192908
60	0xbe8e8b81	-0.27840808
61	0x3e9722e8	0.2951882
62	0x3cc5a66d	0.02412721
63	0x3de1f6f0	0.11033428
64	0x3e30af0a	0.17254272
65	0xbdeba2e8	-0.11505681
66	0xbe7857eb	-0.24252288
67	0x3daaed31	0.08346022
68	0xbe0ba279	-0.13636197
69	0xb9a01444	-0.00030532677
70	0x3ea65ea9	0.32494095
71	0x3d7e9c40	0.06216073
72	0xbdf9abea	-0.12190993
73	0x3e38666e	0.18007824
74	0x3e86a1bf	0.26295277
75	0x3da42031	0.080139525
76	0xbdb7af57	-0.0896899
77	0xbe9d031f	-0.30666444
78	0x3e62a076	0.22131523
79	0xbc6bffe3	-0.01440427
80	0x3d06951c	0.032857046
81	0xbe4990fa	-0.1968421
82	0x3bff4d9d	0.0077912346
83	0x3e61881e	0.22024581
84	0xbecf1d23	-0.40451917
85	0x3d98352f	0.07432019
86	0x3d44daee	0.04806035
87	0xbe2afd6a	-0.16698232
88	0x3e85333c	0.2601565
89	0x3d852020	0.06500268
90	0xbcd2bb4b	-0.025724074
91	0x3e1daeb4	0.15398675
92	0xbe9b2f3e	-0.3030948
93	0xbe5d60f5	-0.21619017
94	0xbe321523	-0.17390876
95	0xbc25f245	-0.010128562
96	0x3e17e9bd	0.14835258
97	0x3e6637fa	0.22482291
98	0xbde91cf0	-0.113824725
99	0xbde92617	-0.11384218
100	0xbd87d884	-0.06633094
101	0x3e8b285a	0.27179223
102	0x3db2ffb1	0.087401755
103	0x3e8a6117	0.270272
104	0xbe908fca	-0.28234702
105	0xbe348381	-0.1762829
106	0xbb7770f3	-0.0037756532
107	0xbe56b2a5	-0.20966585
108	0x3d956e05	0.07296375
109	0x3e30cb51	0.17265059
110	0x3d0fcee9	0.035109434
111	0x3d514356	0.051089607
112	0x3e548859	0.20755138
113	0xbe89fe18	-0.2695167
114	0x3e2bf482	0.16792491
115	0x3da88198	0.08227843
116	0xbe466453	-0.19374208
117	0x3e16a59c	0.14711612
118	0xbea03bb1	-0.3129554
119	0xbea26262	-0.31715685
120	0x3d2967b6	0.041358672
121	0x3e929047	0.286257
122	0x3e53c0b4	0.20678979
123	0x3ee8dd1c	0.45481193
124	0x3db83e9a	0.08996315
125	0xbe8ea510	-0.27860308
126	0x3e1ee41a	0.15516701
127	0xbdbac440	-0.09119463
128	0x3e177f69	0.14794697
129	0x3ef4bcdc	0.47800338
130	0x3d55306c	0.05204813
131	0xbd8d8a98	-0.069112
132	0xbecdbcbc	-0.40183055
133	0x3dbbfb31	0.0917877
134	0x3e01ff14	0.12694961
135	0xbd8bd248	-0.06827217
136	0x3e365df6	0.17809281
137	0xbe186330	-0.14881587
138	0xbdef4b70	-0.116843104
139	0x3db553c9	0.088538714
140	0xbe660f39	-0.22466744
141	0xbea2ceff	-0.3179855
142	0xbe0e17bd	-0.13876243
143	0xbd7ec3c6	-0.062198423
144	0x3df249a2	0.118304506
145	0xbe660ddc	-0.22466224
146	0xbe88172e	-0.26580185
147	0x3eae94f4	0.34098017
148	0xbe2298fb	-0.1587867
149	0xbe0c31e4	-0.13690907
150	0xbeaf3c7d	-0.34225836
151	0xbe6100fb	-0.2197303
152	0x3e1c3388	0.15254033
153	0xbee04ba8	-0.4380772
154	0x3eb37334	0.3504883
155	0x3e113856	0.14181647
156	0x3dbcb912	0.09214987
157	0xbeaa880c	-0.3330692
158	0xbdc3548e	-0.09537612
159	0xbed0b696	-0.40764302
160	0x3e2c7037	0.16839682
161	0xbf1226de	-0.57090557
162	0x3edf754b	0.43644175
163	0x3f07a9e0	0.52993584
164	0xbd4db1b4	-0.0502183
165	0x3bad9b71	0.005298071
166	0xbd8c2f37	-0.06844943
167	0x3beb3cce	0.0071788793
168	0xbdc38370	-0.09546554
169	0x3e876ad8	0.26448703
170	0x3e725678	0.23665798
171	0xbdaffdfe	-0.08593367
172	0x3e44e765	0.19228895
173	0xbdec163e	-0.1152768
174	0x3eb0437d	0.3442649
175	0x3e0a0000	0.13476562
176	0xbd9c5cd4	-0.07634893
177	0xbeb423dd	-0.35183612
178	0x3e7c80af	0.24658464
179	0xbce3696c	-0.02776023
180	0x3db382a1	0.0876515
181	0xbd723301	-0.059130672
182	0x3dc74c3a	0.09731336
183	0xbdee4539	-0.11634297
184	0xbe64f28d	-0.22358151
185	0x3cf63ca8	0.03005822
186	0xbe6ad745	-0.22933681
187	0x3d56b175	0.05241533
188	0xbe9815d9	-0.29704168
189	0x3d39b7d3	0.045341324
190	0x3ec18971	0.37800172
191	0x3e9c10c5	0.30481544
192	0xbe3693b2	-0.17829779
193	0xbe28b5e5	-0.16475637
194	0x3d97eba5	0.074179925
195	0x3e43b93b	0.19113629
196	0x3c99c3cf	0.018770127
197	0x3e6b9068	0.23004305
198	0x3e03fde2	0.12889817
199	0xbe18bf4c	-0.14916724
200	0x3e2d2a7d	0.16910739
201	0xbee040b5	-0.43799368
202	0x3e67e7bd	0.22646995
203	0xbec7a8ec	-0.38996065
204	0xbe55af5a	-0.20867673
205	0xbdb6e949	-0.08931214
206	0x3d739e68	0.05947724
207	0x3d818fc1	0.06326247
208	0xbe8fd6d3	-0.28093585
209	0x3e0c88ec	0.13724107
210	0x3e789a03	0.24277501
211	0xbdc8cdc7	-0.09804874
212	0x3dd43cbd	0.103631474
213	0x3db9f78a	0.090804175
214	0xbe00304a	-0.12518421
215	0xbdf0629f	-0.117375605
216	0x3e8a59d0	0.27021646
217	0xbdeda719	-0.11604137
218	0x3e0e2d22	0.13884404
219	0xbe8273f7	-0.254791
220	0x3e93fe62	0.28905016
221	0xbeb9835e	-0.36233038
222	0x3f0687d3	0.52551
223	0x3ea39cb9	0.31955507
224	0xbd8cff83	-0.068846725
225	0xbf2800b5	-0.6562608
226	0x3def384e	0.11680661
227	0xbec7a33c	-0.38991725
228	0x3f18f596	0.59749734
229	0x3f3a523d	0.72781736
230	0xbde4d9e0	-0.11174369
231	0xbe9fd5ab	-0.31217703
232	0x3db132ff	0.08652305
233	0x3deb2522	0.11481692
234	0x3eb29669	0.3488038
235	0xbedad244	-0.42738545
236	0x3de0146f	0.109413974
237	0xbeecca0a	-0.46247894
238	0xbd865259	-0.06558675
239	0xbe880373	-0.26565132
240	0x3db8bb31	0.09020079
241	0x3edd353e	0.43204683
242	0x3ecd5015	0.4010016
243	0x3d7256cb	0.059164803
244	0xbe0a4d81	-0.13506128
245	0xbe9a9cde	-0.30197805
246	0xbd70dcb8	-0.058804244
247	0x3ae82711	0.0017711838
248	0x3eb668c1	0.35626796
249	0x3e41c0bc	0.18921179
250	0xbe43592c	-0.19076985
251	0xbddf77c0	-0.109115124
252	0xbecb9cfe	-0.39768213
253	0x3d44cc70	0.04804653
254	0xbe494e9e	-0.19658896
255	0xbe8fc288	-0.28078103

transformer_encoder.layers.1.self_attn.in_proj_bias f4 [51]
0	0x3d333dac	0.043759987
1	0x3d012054	0.03152497
2	0xbe78d445	-0.24299724
3	0xbe044641	-0.12917425
4	0xbe4439ce	-0.19162676
5	0x3df8c8a3	0.121476434
6	0xbd6c9274	-0.057756856
7	0xbe1b05f7	-0.15138994
8	0x3e1bd1f5	0.15216811
9	0x3e477778	0.19479167
10	0xbe419a5e	-0.18906543
11	0xbdb2da42	-0.087330356
12	0xbdb3ef7c	-0.087859124
13	0xbd4ba700	-0.04971981
14	0xbd123b87	-0.0357013
15	0xbdeaf0eb	-0.11471733
16	0xbcb935c9	-0.022608655
17	0xbcc403ba	-0.023927558
18	0xba93c3fe	-0.001127362
19	0xbb861d1e	-0.0040928265
20	0xbc849433	-0.016183948
21	0xbcd58178	-0.026062712
22	0xbc39223c	-0.011299666
23	0xbc366b5e	-0.011133997
24	0x3c2ebb9c	0.010664847
25	0x3db1fa77	0.086903505
26	0xbcc51936	-0.024059873
27	0xbd638864	-0.055549994
28	0x3bce9297	0.006304096
29	0xbad2ed5b	-0.0016092466
30	0xbdc42aa2	-0.09578444
31	0x3c00f3d1	0.00787063
32	0xbc2150e5	-0.009845947
33	0xbb8a8292	-0.004226991
34	0x3d1bb893	0.03801782
35	0x3c8d8d15	0.017279187
36	0xbd684438	-0.056705683
37	0xbda12998	-0.078692615
38	0x3d3a0902	0.045418747
39	0xbc5a9e1f	-0.013343363
40	0xbdb8dbde	-0.09026311
41	0xbd9a5dbe	-0.07537411
42	0x3d6f1796	0.058372103
43	0xbd1b2e3c	-0.03788589
44	0xbda86bb7	-0.0822367
45	0x3c59fc96	0.01330485
46	0x3d7c85c0	0.06165099
47	0xbd4df81e	-0.05028545
48	0x3c8206cb	0.01587238
49	0xbd225f35	-0.039641578
50	0xbcd8b1b7	-0.026451929

transformer_encoder.layers.1.self_attn.out_proj.weight f4 [17, 17]
0	0x3e88db4e	0.26729816
1	0x3c56c787	0.013109094
2	0xbd282340	-0.041049242
3	0x3d3c4e9b	0.0459734
4	0x3e912e67	0.28355715
5	0xbe1dabd2	-0.15397575
6	0xbce30ab0	-0.027715057
7	0x3df022f4	0.11725417
8	0x3e8207f3	0.2539669
9	0xbe0c2400	-0.13685608
10	0xbe9e8237	-0.3095872
11	0xbe787524	-0.24263436
12	0x3d050bca	0.032481946
13	0xbe0a5630	-0.1350944
14	0xbe075eaf	-0.13219713
15	0x3b3005b9	0.002685888
16	0xbe3fbf86	-0.18725404
17	0x3d44ca4b	0.048044484
18	0x3e8322d8	0.2561252
19	0xbe7b6f0a	-0.24554077
20	0xbe83d5c4	-0.25749028
21	0xbe093c60	-0.13401937
22	0x3c097994	0.008390803
23	0xbedc6f18	-0.43053508
24	0xbd7bc3c4	-0.061465994
25	0x3cf74820	0.030185759
26	0x3e3c5b3f	0.18394183
27	0x3c835340	0.016030908
28	0x3e01cde1	0.12676193
29	0x3dae9d01	0.0852604
30	0xbe443ae3	-0.19163089
31	0x3e7bce42	0.245904
32	0x3aea3f46	0.001787164
33	0x3e4f9bba	0.20274249
34	0xbcf1ff76	-0.029540759
35	0xbd08e529	-0.03342167
36	0x3ca31f67	0.019912435
37	0x3cca88bb	0.024723401
38	0x3dcc46e2	0.09974457
39	0xbdcb5cd2	-0.099298134
40	0xbe82d16f	-0.2555041
41	0x3ceea88f	0.02913311
42	0xbe781015	-0.24224885
43	0x3d612dd1	0.054975335
44	0x3e41cd6f	0.18926023
45	0x3e4500f7	0.1923865
46	0xbe5fa365	-0.21839674
47	0x3e04469e	0.12917563
48	0xbbb812a7	-0.005617458
49	0x3e3a8546	0.18214902
50	0x3d2f63d7	0.042819824
51	0x3de08f73	0.10964861
52	0xbe4002c3	-0.18751054
53	0xbe19cdf0	-0.15019965
54	0x3cea61c2	0.028611068
55	0xbd8d371a	-0.068952754
56	0x3dec6526	0.1154273
57	0x3e070ebc	0.13189214
58	0xbdc37bd1	-0.095451005
59	0x3c21bc0a	0.009871492
60	0x3d62d44e	0.05537825
61	0x3d16955a	0.036763526
62	0xbe0a46f1	-0.13503624
63	0x3c5bab6f	0.013407572
64	0x3e50844d	0.20362969
65	0xbe8be3ea	-0.27322322
66	0x3ca10bba	0.019658912
67	0xbe24346c	-0.16035622
68	0x3cdb1ce2	0.02674717
69	0x3e7020e3	0.23450045
70	0x3e382096	0.1798118
71	0x3dc7b4ab	0.097512566
72	0xbd45c0c5	-0.048279542
73	0x3e338d54	0.17534381
74	0xbe9226c0	-0.2854519
75	0x3e26ec19	0.16301002
76	0x3e6a5145	0.22882564
77	0xbe6bbe4d	-0.23021813
78	0x3d09c9b9	0.033639643
79	0x3e78dc07	0.24302684
80	0x3e0719de	0.13193461
81	0xbe57520c	-0.21027392
82	0xbe1d67da	-0.15371647
83	0x3d445f53	0.04794247
84	0x3e9ad0c2	0.30237395
85	0x3e29e637	0.16591726
86	0xbe8c1b73	-0.27364692
87	0x3c9946d9	0.01871054
88	0xbe359fd4	-0.17736751
89	0x3d450eac	0.048109695
90	0x3c4a329f	0.012341171
91	0x3dbcb662	0.09214474
92	0x3cec968b	0.028880378
93	0xbe1727b3	-0.14761238
94	0x3ddb1559	0.10697431
95	0xbdc1f0bf	-0.09469747
96	0xbdcd2728	-0.10017234
97	0x3dbfad5f	0.0935924
98	0xbb45899d	-0.0030141838
99	0xbe2a1715	-0.16610368
100	0xbdecf607	-0.115703635
101	0xbe0c93e9	-0.13728298
102	0x3d196530	0.037450016
103	0x3e3d3536	0.1847733
104	0xbebc8c6a	-0.36825877
105	0x3d43082b	0.04761521
106	0x3e3a0bea	0.18168607
107	0x3c85f3ad	0.016351545
108	0x3dd042c3	0.10168984
109	0x3e3c2608	0.18373883
110	0xbe47f62f	-0.19527505
111	0xbe2e81f1	-0.17041756
112	0x3e53317b	0.20624344
113	0xbcea27f2	-0.0285835
114	0xbd7910d6	-0.06080707
115	0x3c074bdf	0.008257835
116	0x3d869b2b	0.06572565
117	0xbe1b32c8	-0.1515609
118	0xbe7d211b	-0.2471966
119	0xbc8e8cb4	-0.017401077
120	0xbe476efb	-0.1947593
121	0x3cf6de44	0.030135281
122	0x3cb170af	0.021660177
123	0xbe138a15	-0.14408143
124	0x3e040e5f	0.12896107
125	0x3d629a3f	0.05532288
126	0x3e5ccc42	0.21562293
127	0x3d4fa02c	0.05068986
128	0x3d280d0d	0.04102807
129	0x3e2f554d	0.17122383
130	0xbd72b5fe	-0.059255593
131	0xbd96712c	-0.073458046
132	0xbc92a2b9	-0.017899858
133	0xbdba2ea7	-0.090909295
134	0xbe8af81b	-0.27142414
135	0x3e74afd8	0.23895204
136	0xbe42fd8c	-0.19042033
137	0x3e957a30	0.29194784
138	0x3e18c201	0.14917757
139	0x3e35ce5d	0.17754503
140	0xbd46194f	-0.04836398
141	0x3d93e73e	0.0722184
142	0xbd99b16b	-0.07504543
143	0xbdc3e17e	-0.095644936
144	0xbd3c2bbb	-0.045940142
145	0x3e574ed0	0.21026158
146	0x3e18d467	0.14924775
147	0x3dbb9270	0.0915879
148	0xbd4268c7	-0.047463205
149	0xbd65e253	-0.056124043
150	0xbd186edd	-0.037215102
151	0xbcd66ccc	-0.026174925
152	0x3e80f305	0.2518541
153	0xbd93d2a9	-0.072179146
154	0xbcaa683b	-0.020801654
155	0x3e7abe7f	0.24486731
156	0xbe03aea4	-0.12859589
157	0x3caade68	0.020858005
158	0xbde6f552	-0.1127726
159	0xbda4bf26	-0.08044271
160	0x3e385f24	0.18005043
161	0x3e81c0d0	0.25342417
162	0x3cd753d4	0.02628509
163	0x3d08b62d	0.03337686
164	0x3e4ab58b	0.19795816
165	0xbe0fbfe4	-0.14038044
166	0xbe11d6fa	-0.14242163
167	0x3e024c5f	0.12724446
168	0x3e6becae	0.23039505
169	0x3e234598	0.15944517
170	0xbe936bc5	-0.2879316
171	0xbb154495	-0.0022776474
172	0xbd0b03f0	-0.033939302
173	0x3e2f52c4	0.17121416
174	0xbe0ff46a	-0.1405808
175	0x3e1d6ceb	0.1537358
176	0x3df87a41	0.12132693
177	0x3dc273e9	0.09494764
178	0xbe2f695a	-0.17130032
179	0x3b445541	0.0029958042
180	0x3e9fe3be	0.3122844
181	0xbdabae8a	-0.083829
182	0xbe1f0e68	-0.1553284
183	0x3e4b0498	0.19825971
184	0x3db5b64e	0.088726625
185	0x3e1fae76	0.15593895
186	0x3d978054	0.073975235
187	0x3e0ad65e	0.13558337
188	0x3dd67705	0.1047192
189	0xbec96aa1	-0.39339164
190	0xbcfa0955	-0.030522028
191	0xbdc66ca9	-0.09688694
192	0xbd7dda09	-0.061975513
193	0x3e15255d	0.14565034
194	0x3e54b404	0.20771796
195	0x3dfe16b9	0.12406678
196	0xbd7daf70	-0.06193489
197	0x3d65f1ce	0.056138806
198	0x3c6e7ddf	0.014556377
199	0xbe7728d2	-0.24136665
200	0xbdbb33a3	-0.09140708
201	0x392fed28	0.00016777648
202	0xbe691a71	-0.22763993
203	0xbc95b892	-0.018276487
204	0xbe450aff	-0.19242476
205	0x3df5f2c2	0.12009193
206	0x3dcea64c	0.10090312
207	0x3e14aacb	0.14518277
208	0xbe5ff0b6	-0.21869168
209	0xbe05bad7	-0.13059555
210	0xbb05c0b9	-0.002040906
211	0xbe8d7608	-0.27629113
212	0xbda95511	-0.08268178
213	0x3e66c5c1	0.22536375
214	0xbdd34886	-0.10316567
215	0x3d37a3c4	0.044833913
216	0x3dd5134d	0.10404072
217	0x3e14fecd	0.14550324
218	0xbe142ee7	-0.14471017
219	0x3e65eee6	0.22454414
220	0x3c7589ad	0.014986438
221	0xbd76f731	-0.060294334
222	0x3e43bd22	0.19115117
223	0xbebd3d19	-0.36960676
224	0xbe00a67b	-0.12563507
225	0xbdc01eec	-0.09380898
226	0xbd0d26c5	-0.0344608
227	0x3c0854a0	0.008320957
228	0xbe2d0146	-0.16895017
229	0x3def7744	0.1169267
230	0x3d1d19c5	0.038354654
231	0x3e141809	0.14462294
232	0xbcbf2a20	-0.023335516
233	0xbde658d4	-0.11247411
234	0xbddd76ea	-0.10813697
235	0x3e165859	0.1468214
236	0xbdb00495	-0.08594624
237	0xbd2a9110	-0.04164225
238	0x3d29b905	0.041436214
239	0xbe36c44e	-0.17848322
240	0x3d720097	0.059082594
241	0xbe60dd82	-0.21959499
242	0x3e794d4f	0.24345897
243	0x3d202cb5	0.039105136
244	0xbe267a97	-0.16257702
245	0xbe081c4c	-0.13292044
246	0xbd193949	-0.037408147
247	0xbdd3dcf1	-0.103448756
248	0xbd71c9ab	-0.059030216
249	0xbda157a9	-0.07878048
250	0x3ca323a2	0.019914452
251	0x3d809d5f	0.06280016
252	0xbd95c9d4	-0.07313886
253	0x3df7ca02	0.12099077
254	0x3e4a7416	0.19770846
255	0xbe0af249	-0.13568987

transformer_encoder.layers.1.self_attn.out_proj.bias f4 [17]
0	0x3dd5265a	0.104077056
1	0x3e118e37	0.14214407
2	0xbe1a5075	-0.15069754
3	0x3d599108	0.05311683
4	0x3dca12b0	0.098668456
5	0x3d81956c	0.06327328
6	0x3dcd2dfc	0.100185364
7	0xbe24880b	-0.16067521
8	0xbe0298a2	-0.12753537
9	0xbdcbef07	-0.099577
10	0xbe1b74b3	-0.15181236
11	0xbd96eba3	-0.07369163
12	0xbd67bfbb	-0.056579333
13	0x3d3dd79a	0.04634819
14	0x3e060ff4	0.13092023
15	0x3da1b26d	0.0789536
16	0xbddc32d2	-0.10751881
